experiments/HMS/trans/models/hms_transformer_fold=5.pt (torch, 23594 bytes, 18 tensors)

transformer_encoder.layers.0.self_attn.in_proj_weight f4 [72, 24]
0	0xbcff3a89	-0.031155841
1	0x3ddc1d44	0.107477695
2	0xbdd91c18	-0.106010616
3	0x3e15f5f4	0.14644605
4	0x3e255025	0.16143854
5	0x3df8fd8a	0.12157734
6	0x3e2d17f3	0.16903667
7	0x3d863f5a	0.06555052
8	0xbe43e600	-0.19130707
9	0xbdec4707	-0.11536985
10	0x3e2891b6	0.16461834
11	0x3d9a7057	0.075409584
12	0x3e12af51	0.1432469
13	0x3e5a2a5f	0.21305226
14	0x3e506b67	0.2035347
15	0x3e0ff52d	0.14058371
16	0xbe191a5d	-0.14951463
17	0x3e8c65ee	0.27421516
18	0x3ea28c6c	0.31747758
19	0x3e448bfd	0.19194026
20	0xbe3eef72	-0.18646029
21	0xbe8bedba	-0.27329808
22	0xbe16d407	-0.1472932
23	0x3b89af22	0.0042017857
24	0x3e0ffd83	0.14061551
25	0x3cac5477	0.02103637
26	0xbebf4470	-0.373569
27	0x3eb78a3e	0.35847658
28	0x3eaef969	0.3417466
29	0x3ed79c1a	0.42111284
30	0x3ebb8672	0.3662601
31	0x3ed7d80a	0.42157012
32	0x3c2c9452	0.010533409
33	0xbe53c64a	-0.2068111
34	0x3dc5e8b4	0.09663525
35	0xbe20d8b6	-0.15707669
36	0x3e5d84d8	0.21632707
37	0x3e9b3c93	0.30319652
38	0x3ea1c924	0.3159877
39	0x3e8ea717	0.27861854
40	0xbe0c799a	-0.13718262
41	0x3e7884ec	0.24269456
42	0x3e6646de	0.22487971
43	0x3ea43c27	0.32077143
44	0xbcbc362b	-0.022975048
45	0xbea8d748	-0.32976747
46	0xbe841b24	-0.25801957
47	0xbc76c405	-0.015061383
48	0x3e87715e	0.2645368
49	0xbe808440	-0.251009
50	0xbedf5c8a	-0.4362529
51	0x3ed081ce	0.40724033
52	0x3ef10bf1	0.47079423
53	0x3ef09073	0.46985206
54	0x3efdd05c	0.49573028
55	0x3f0831a7	0.53200763
56	0x3e59221f	0.21204422
57	0xbe9b9b66	-0.30391997
58	0x3cd4834f	0.025941519
59	0xbeb5e5e1	-0.35526946
60	0x3e5826b1	0.2110851
61	0x3e7e9bd0	0.24864125
62	0x3e64849e	0.22316214
63	0x3e68beb1	0.22728993
64	0x3e7c9c6e	0.24669048
65	0x39ebc25b	0.000449675
66	0xbdc0fba0	-0.09422994
67	0x3de9fe2f	0.11425435
68	0x3e7b62a9	0.24549355
69	0x3d111d2d	0.035428215
70	0xbe461409	-0.1934358
71	0xbe5d6eae	-0.21624252
72	0xbec5cebf	-0.38634297
73	0x3e4fbfe8	0.2028805
74	0x3f2a869d	0.66611654
75	0xbf934f1f	-1.1508521
76	0xbf925e1f	-1.1434973
77	0xbf86efbe	-1.0541914
78	0xbf8db98f	-1.1072253
79	0xbf8f2f6f	-1.118635
80	0xbd2e3eef	-0.042540487
81	0x3e8a9979	0.27070215
82	0x3f2456c0	0.6419487
83	0x3e212355	0.15736134
84	0xbf459442	-0.7717935
85	0xbf56d366	-0.8391632
86	0xbf511ca5	-0.81684333
87	0xbf586469	-0.84528214
88	0x3c8c3885	0.017116794
89	0x3dcf316f	0.101168506
90	0x3e5833c3	0.21113496
91	0xbec38613	-0.38188228
92	0xbe35809d	-0.17724843
93	0xbd53cd7d	-0.05170964
94	0x3dde213b	0.10846182
95	0xbe02d123	-0.12775092
96	0x3dc1af0e	0.09457217
97	0x3cd3890a	0.025822181
98	0xbe09fb97	-0.1347488
99	0x3e99d593	0.30045757
100	0x3e1a0300	0.15040207
101	0x3e20b664	0.15694577
102	0x3ddd7846	0.10813956
103	0x3df3b6c0	0.11900091
104	0xbd23c7e3	-0.03998555
105	0x3e63c6ad	0.22243758
106	0xbf219489	-0.6311727
107	0x3e8f196b	0.2794908
108	0x3e2bf7ac	0.16793698
109	0x3e586157	0.21130882
110	0x3e3cf5bb	0.18453114
111	0x3e67c7da	0.22634831
112	0xbe88d58f	-0.26725432
113	0xbe766cea	-0.24064985
114	0xbf305baa	-0.6888987
115	0x3df020e7	0.117250256
116	0xbc422fce	-0.011852218
117	0x3d442d18	0.047894567
118	0x3e30847d	0.1723804
119	0x3e063298	0.13105237
120	0xbe4124bd	-0.18861671
121	0x3e3f69f2	0.18692759
122	0x3ea873e0	0.32900906
123	0xbf538dc2	-0.8263818
124	0xbf2d06cd	-0.675885
125	0xbf3bedcb	-0.7340972
126	0xbf38c7ef	-0.72180074
127	0xbf345ed0	-0.7045717
128	0x3dfba438	0.122871816
129	0x3e4db567	0.20088731
130	0x3f18f913	0.5975506
131	0xbde9e802	-0.11421205
132	0xbf10f84c	-0.5662887
133	0xbf1e3a76	-0.61807954
134	0xbf211957	-0.6292929
135	0xbf293d56	-0.66109216
136	0x3e29dbde	0.16587779
137	0x3dc422bf	0.0957694
138	0x3cabb57d	0.020960564
139	0xbe9e04d6	-0.30863065
140	0x3e0a8c23	0.1353002
141	0x3d02de3e	0.031950228
142	0xbd570836	-0.052498065
143	0xbec35567	-0.38151094
144	0xbced5d6d	-0.028975213
145	0x3e2ee79a	0.17080536
146	0x3e337beb	0.1752774
147	0xbe192da4	-0.14958817
148	0xbe8c765e	-0.27434057
149	0xbe9c8e1b	-0.30577168
150	0xbe862603	-0.26200876
151	0xbeac5ba4	-0.33663666
152	0xbe3c4750	-0.18386579
153	0x3e44e5bc	0.19228262
154	0xbf0fb0a4	-0.5612891
155	0x3e966a41	0.2937794
156	0xbdc84ec8	-0.09780651
157	0xbe5d7263	-0.21625666
158	0xbe33dadd	-0.17563958
159	0xbe1c100b	-0.15240495
160	0xbe917e07	-0.28416464
161	0xbe40092c	-0.18753499
162	0xbeba0af3	-0.3633648
163	0x3d90b985	0.07066635
164	0xbe76c718	-0.24099386
165	0xbced5771	-0.02897236
166	0x3dd52d5f	0.104090445
167	0x3e7db858	0.24777353
168	0xbeccbab3	-0.3998619
169	0xbd4ef286	-0.050524257
170	0x3ea7914d	0.32728043
171	0x3eaf00f6	0.3418042
172	0x3e881339	0.26577166
173	0x3e7f75b7	0.24947248
174	0x3e849bc0	0.25900078
175	0x3e887d99	0.26658323
176	0xbdede99e	-0.116168246
177	0x3e92bac5	0.2865812
178	0x3de81402	0.11331941
179	0x3eaa0d8e	0.33213466
180	0x3ee21e0c	0.4416355
181	0x3ed21380	0.41030502
182	0x3eede5c5	0.46464363
183	0x3ec994a9	0.3937123
184	0xbd18da86	-0.037317775
185	0xbdb0811e	-0.08618377
186	0x3c8f37ed	0.017482722
187	0xbdfc4d7d	-0.12319467
188	0x3d959957	0.07304638
189	0x3e7855bf	0.2425146
190	0x3ed9c136	0.4253022
191	0xbc38b8db	-0.011274542
192	0x3def9553	0.11698403
193	0xbd2b5a1d	-0.041833986
194	0x3c30c8ff	0.010790109
195	0x3daff7b5	0.08592168
196	0x3e84d32c	0.2594236
197	0x3e4b67cd	0.19863816
198	0x3e8532af	0.2601523
199	0x3e64ff02	0.22362903
200	0x3e36b470	0.17842269
201	0xbe005cc3	-0.12535386
202	0x3ecb0d4b	0.3965858
203	0xbe5b7d5f	-0.21434544
204	0x3da85853	0.082199715
205	0x3dddb768	0.108259976
206	0x3dbfdc23	0.093681596
207	0x3dd64706	0.104627654
208	0x3da13ca2	0.07872893
209	0xbc1f64c2	-0.009728612
210	0x3ba90cd8	0.005159002
211	0xbe0ccec9	-0.13750757
212	0x3e1b5ed9	0.151729
213	0xbcde94a3	-0.027170485
214	0xbcd9f51f	-0.02660614
215	0xbcdf1d33	-0.027235603
216	0x3e84e158	0.25953174
217	0x3d25ebaf	0.04050797
218	0xbf0f5d77	-0.5600199
219	0x3f986176	1.1904743
220	0x3f8d226c	1.102613
221	0x3f8f9140	1.1216202
222	0x3f9595d7	1.1686352
223	0x3f8a0aeb	1.0784582
224	0xbd319e60	-0.04336393
225	0xbd962e8b	-0.07333096
226	0xbf0f2673	-0.55918044
227	0x3ded1def	0.11577975
228	0x3f68ccb1	0.90937334
229	0x3f7e0564	0.99226975
230	0x3f806ddc	1.0033526
231	0x3f8264f8	1.0187063
232	0xbca8a0d3	-0.0205845
233	0xbc83879d	-0.016055876
234	0xbe36247d	-0.17787357
235	0x3e6009d2	0.21878746
236	0xbda66072	-0.08123864
237	0x3b3357e8	0.0027365629
238	0xbd02ed5d	-0.03196465
239	0x3e222d54	0.15837604
240	0x3e4619c2	0.19345763
241	0xbe1f498f	-0.15555404
242	0xbf11e85e	-0.5699519
243	0x3f624172	0.8838111
244	0x3f5363c3	0.825741
245	0x3f6312c7	0.88700527
246	0x3f6425a5	0.8911994
247	0x3f65f129	0.89821106
248	0xbcbefcf9	-0.023313986
249	0xbe8530a4	-0.26013672
250	0xbd9fef07	-0.07809263
251	0xbe5568ef	-0.2084081
252	0x3f2970b7	0.66187614
253	0x3f370481	0.7149125
254	0x3f2e4e13	0.6808788
255	0x3f25ea28	0.6481042

transformer_encoder.layers.0.self_attn.in_proj_bias f4 [72]
0	0x3e2a4cec	0.16630906
1	0x3e8a9a83	0.27071008
2	0x3e82569f	0.25456712
3	0xbf5da256	-0.8657583
4	0x3e3f1ecd	0.18664093
5	0xbf2049fc	-0.6261289
6	0xbe31c2f3	-0.17359523
7	0x3ed6c01c	0.41943443
8	0x3e15e2ae	0.14637253
9	0x3f80688b	1.0031904
10	0x3f2ff2b1	0.6872969
11	0x3f3594df	0.70930284
12	0x3f7f22c5	0.9966243
13	0xbf6dad16	-0.92842233
14	0xbf4457c6	-0.7669643
15	0x3f78ed39	0.97236973
16	0xbdc8893e	-0.09791802
17	0xbf431134	-0.76198125
18	0x3ef858f6	0.48505372
19	0xbe5bd570	-0.21468139
20	0xbedf1d58	-0.43577075
21	0xbdf54311	-0.119756825
22	0xbe4a59ea	-0.19760862
23	0x3ed2b9e9	0.41157463
24	0xbbac5eaf	-0.0052603106
25	0x3ca0649b	0.019579222
26	0xbc1cd692	-0.009572642
27	0xbbb2a7ca	-0.005452131
28	0xbb7f8451	-0.0038988779
29	0x3cce2bfb	0.025167456
30	0x3c20ab06	0.0098064
31	0x3d355d7e	0.044278614
32	0xbc90acb1	-0.01766047
33	0xbbfb0fea	-0.007661809
34	0xbc24215c	-0.010017719
35	0xbbc14c9c	-0.005899025
36	0xbcc3812b	-0.023865303
37	0x3d2a7719	0.041617487
38	0xbd1797d4	-0.03701003
39	0xbc89a24d	-0.016801024
40	0x3cdda940	0.027058244
41	0x3ce0cb78	0.027440771
42	0x3c8f5bc9	0.017499821
43	0x3b27c8ad	0.002560179
44	0xbc627d34	-0.013823796
45	0xbd135254	-0.035967186
46	0x3ca5497c	0.020176642
47	0xbc39f29d	-0.011349347
48	0x3f6af2a5	0.91776496
49	0xbf9cb838	-1.2243719
50	0x3e81cf9f	0.25353715
51	0x3fb3a980	1.4036102
52	0x3efc5f57	0.4929149
53	0xbf6393dd	-0.88897496
54	0x3f1da8cd	0.61585695
55	0xbe824671	-0.25444368
56	0xbfc56364	-1.5420957
57	0xbf89a6b8	-1.0754004
58	0x3f83186c	1.0241828
59	0x3fb8efdf	1.4448203
60	0x3f532e71	0.8249274
61	0x3ec34cce	0.38144535
62	0x3f2aa207	0.66653484
63	0xbf6f3e50	-0.93454456
64	0x3ea91930	0.3302703
65	0x3fdb42fa	1.7129815
66	0x3f633a96	0.8876127
67	0x3f50343a	0.8132969
68	0xbf6f544b	-0.93487996
69	0xbf811ad1	-1.0086309
70	0x3f7309f8	0.94937086
71	0x3f71e183	0.9448473

transformer_encoder.layers.0.self_attn.out_proj.weight f4 [24, 24]
0	0x3ea9fd8a	0.33201247
1	0xbea0cd27	-0.3140652
2	0xbda9070d	-0.08253298
3	0x3e906409	0.2820132
4	0x3e280323	0.16407447
5	0x3dba21eb	0.090885006
6	0x3e37ded6	0.17956099
7	0xbdae09cf	-0.084979646
8	0xbe5ede2e	-0.21764442
9	0xbe786915	-0.24258836
10	0xbe709025	-0.23492487
11	0xbd5abb89	-0.053401504
12	0xbe421847	-0.18954574
13	0x3cf1edea	0.029532392
14	0x3de07bbd	0.10961101
15	0xbda0770b	-0.07835206
16	0xbe37a07c	-0.17932314
17	0x3e5d9e1c	0.21642345
18	0xbe988bc7	-0.29794142
19	0xbe66ecbd	-0.22551246
20	0xbdd4f65a	-0.1039855
21	0x3e4a3c2a	0.19749513
22	0xbe6d13dc	-0.23152107
23	0x3c634863	0.013872239
24	0xbc7b7eff	-0.015350102
25	0x3dd3de5a	0.103451446
26	0xbe34769a	-0.17623368
27	0xbc9c2b0b	-0.019063493
28	0x3ecf5348	0.40493226
29	0xbd9396d7	-0.07206505
30	0x3de7e41d	0.11322806
31	0x3d8b65ba	0.06806512
32	0x3e1296f0	0.1431539
33	0x3e2f65f4	0.17128736
34	0xbd17a745	-0.037024755
35	0xbc47c48e	-0.012192858
36	0x3e9f63f0	0.31130934
37	0x3e2e1d43	0.1700335
38	0x3e89be8a	0.26903182
39	0xbdff26bc	-0.1245856
40	0x3ccb6d06	0.02483226
41	0xbe05909f	-0.1304345
42	0xbd054633	-0.03253765
43	0x3c87fa0a	0.01659872
44	0x3db2d23f	0.087315075
45	0xbd09d259	-0.03364787
46	0x3dde3579	0.10850043
47	0xbe0f66b4	-0.14004022
48	0xbd086fd2	-0.033309765
49	0xbd2d18ec	-0.042260095
50	0x3ea87244	0.32899678
51	0x3e5e859f	0.2173066
52	0x3e038674	0.12844259
53	0x3e111c6d	0.14171
54	0x3e6e7968	0.232885
55	0x3e40bdd5	0.18822415
56	0x3ca9da23	0.020733899
57	0xbdf48b92	-0.119406834
58	0x3d6544ab	0.05597369
59	0xbc55a9e9	-0.013040998
60	0x3e35cc84	0.17753798
61	0xbe2501c3	-0.16113953
62	0x3e2528b3	0.16128807
63	0x3e44daa7	0.19224034
64	0x3d2dc64f	0.04242545
65	0x3ecb269f	0.39677903
66	0x3e7387b0	0.2378223
67	0x3db3fb90	0.08788216
68	0xbe94cc1b	-0.2906197
69	0xbf35e8df	-0.7105846
70	0x3c800d76	0.015631419
71	0xbd1208c4	-0.03565289
72	0xbdcc91d2	-0.099887505
73	0x3e9e437b	0.3091086
74	0x3e077006	0.13226327
75	0x3db8aac5	0.09016947
76	0xbe68fb82	-0.22752193
77	0xbe8c82d0	-0.27443552
78	0xbddd71f1	-0.10812748
79	0xbeb188cf	-0.3467469
80	0xbe260bcb	-0.16215436
81	0xbe293795	-0.16525109
82	0x3da0ec0b	0.078575216
83	0x3e26f306	0.16303644
84	0x3da7b377	0.08188527
85	0x3d8470a0	0.06466794
86	0xbe9b6a86	-0.30354708
87	0x3dd83fcf	0.105590455
88	0xbd219b97	-0.039455023
89	0x3d05a462	0.03262747
90	0x3ce6e18d	0.028183723
91	0x3df5a496	0.11994283
92	0x3c6b5c29	0.014365234
93	0x3c3c55bb	0.011495049
94	0x3e77b818	0.2419132
95	0x3c8ca8b3	0.017170286
96	0xbd2f9652	-0.042867966
97	0xbe7b934d	-0.2456791
98	0x3e97c470	0.29642057
99	0x3e3c91da	0.18415013
100	0x3e08e33f	0.13367938
101	0xbe1091bb	-0.14118092
102	0x3db529c7	0.08845859
103	0xbe8d07dc	-0.2754506
104	0xbe03a8a1	-0.12857296
105	0xbe2f9343	-0.1714602
106	0x3e3118fe	0.1729469
107	0x3ebd4709	0.36968258
108	0x3d3eabd4	0.046550587
109	0x3dfc7911	0.12327779
110	0x3dc7803a	0.09741254
111	0xbe8526c7	-0.26006147
112	0x3c86c359	0.01645057
113	0x3eca0dde	0.39463705
114	0x3da3a73e	0.07990883
115	0x3ec5f6f8	0.38664985
116	0x3e0845d0	0.13307881
117	0xbe8adf8e	-0.27123684
118	0x3e2dafb7	0.16961561
119	0x3de35f00	0.11102104
120	0x3e278f4d	0.16363259
121	0xbe906e8b	-0.28209338
122	0xbe2a6e39	-0.16643609
123	0x3d77adfa	0.06046865
124	0x3e1558b8	0.14584625
125	0x3dbd19ea	0.09233458
126	0x3e422e14	0.1896289
127	0x3d0d72d3	0.034533333
128	0xbca32ae5	-0.019917915
129	0x3c2718a5	0.010198747
130	0xbd9f9037	-0.07791179
131	0xbd84deb8	-0.06487793
132	0x3acf076e	0.0015795061
133	0x3e13608e	0.14392301
134	0x3e8d814c	0.27637708
135	0xbe7a06f5	-0.24416716
136	0x3d6ee860	0.05832708
137	0xbc8c7495	-0.017145434
138	0xbdaca904	-0.08430675
139	0x3d1ff2fb	0.039050084
140	0xbd07bcb6	-0.033138953
141	0x3d243cbe	0.04009699
142	0xbe351b48	-0.17686188
143	0xbd3f977c	-0.046775326
144	0xbd9bb9ca	-0.07603796
145	0xbeb2052c	-0.3476957
146	0xbdf6e316	-0.12055032
147	0x3c86b273	0.016442513
148	0xbe7a047f	-0.24415778
149	0xbdf47733	-0.11936798
150	0xbc86ec38	-0.01647006
151	0xbea08b6d	-0.31356373
152	0xbeae9cf7	-0.3410413
153	0xbe47fad9	-0.19529285
154	0x3e78e742	0.24306968
155	0x3de6127d	0.11233995
156	0x3e7042dd	0.23463006
157	0x3cdde857	0.027088327
158	0x3e65b3e8	0.2243191
159	0x3d752fc7	0.059860017
160	0x3dd4de72	0.103939906
161	0x3e8190b1	0.25305703
162	0x3e44a8ec	0.19205064
163	0x3ea0c846	0.31402797
164	0xbe82eeaf	-0.25572726
165	0xbdab3f67	-0.083617024
166	0x3e775527	0.24153577
167	0x3e78e9ae	0.24307892
168	0x3e96f7e9	0.29486015
169	0x3ea1ddf1	0.3161464
170	0x3c046c31	0.0080824355
171	0x3ec53d87	0.38523504
172	0x3ccedab2	0.025250766
173	0xbdf8c08a	-0.12146099
174	0x3ca5ce93	0.020240104
175	0x3e54ce7d	0.20781894
176	0x3d121826	0.03566756
177	0xbd214d22	-0.0393802
178	0xbe578e78	-0.21050441
179	0x3e08186f	0.1329057
180	0xbe68aeb9	-0.22722901
181	0xbe3a2228	-0.18177092
182	0xbe8271e6	-0.25477523
183	0x3e707a00	0.2348404
184	0xbe253332	-0.1613281
185	0x3d5c181b	0.053733926
186	0xbd4829f4	-0.048868135
187	0xbf159b17	-0.58439773
188	0xbe25e3e3	-0.16200213
189	0x3e267a58	0.16257608
190	0x3bdf8794	0.006821582
191	0x3e50aa8c	0.20377558
192	0xbd4dc1fd	-0.05023383
193	0xbce97546	-0.028498303
194	0x3e2a0349	0.16602816
195	0x3dd3a6f1	0.10334576
196	0x3e2418b8	0.16025054
197	0xbdbbb3d8	-0.09165162
198	0xbbfa0220	-0.007629648
199	0x3e94dd58	0.29075122
200	0x3c0fe404	0.0087823905
201	0xbdcd65b1	-0.10029162
202	0x3e5da983	0.21646695
203	0x3e98a671	0.29814485
204	0x3e1f2f63	0.1554542
205	0xbe293264	-0.16523129
206	0xbcc0182e	-0.02344903
207	0x3c298d86	0.010348683
208	0x3dd08b94	0.101828724
209	0x3ec528db	0.38507733
210	0x3ebff8b1	0.37494424
211	0xbb66ffa2	-0.0035247584
212	0xbe5f14df	-0.21785305
213	0xbebc4fc0	-0.36779594
214	0x3e40168a	0.18758598
215	0x3e287a26	0.16452846
216	0x3e7c0310	0.24610543
217	0xbeb94ead	-0.36192837
218	0xbe9a730e	-0.30165905
219	0x3e8e8387	0.27834722
220	0x3d3a9d7e	0.045560353
221	0x3e33f1c7	0.175727
222	0x3d79c9cd	0.060983468
223	0x3f0404f1	0.5157004
224	0xbf3729d7	-0.7154822
225	0x3cfb2d9a	0.030661393
226	0x3d0c1f00	0.03420925
227	0x3e642368	0.22279131
228	0x3eb89063	0.36047658
229	0xbd554963	-0.05207194
230	0xbe8ead91	-0.27866796
231	0xbe37436f	-0.17896818
232	0xbdc6b515	-0.097025074
233	0x3eb68402	0.3564759
234	0x3c79368c	0.015210759
235	0x3dd5d785	0.10441498
236	0xbe4561f6	-0.1927565
237	0xbdfcf757	-0.12351864
238	0xbd31d722	-0.043418057
239	0xbd5c43bb	-0.05377553
240	0xbc3e773f	-0.01162511
241	0xbeb0d538	-0.34537673
242	0xbe443336	-0.1916016
243	0xbeccafca	-0.39977866
244	0x3db0e8b4	0.086381346
245	0x3ecb648e	0.39725155
246	0xba5d67e0	-0.00084459595
247	0x3d81751e	0.063211665
248	0x3ea1f40d	0.31631508
249	0x3d92da28	0.07170516
250	0xbe122aa9	-0.14274086
251	0xbe96bd0c	-0.29441106
252	0xbeb3f60a	-0.3514865
253	0xbe445976	-0.19174752
254	0x3ea25540	0.31705666
255	0xbdb87082	-0.09005834

transformer_encoder.layers.0.self_attn.out_proj.bias f4 [24]
0	0xbcc22d5d	-0.023703272
1	0x3e041c43	0.12901406
2	0xbbe28773	-0.0069131195
3	0x3e167dee	0.14696476
4	0x3cb1b808	0.021694198
5	0xbc80815b	-0.015686681
6	0x3db1bff5	0.08679191
7	0x3d82227a	0.06354232
8	0xbf3429c4	-0.7037623
9	0xbcdd8909	-0.027042883
10	0x3e2fee9d	0.17180867
11	0x3d7704a2	0.060307153
12	0x3d6154ed	0.055012632
13	0xbec9be0a	-0.394028
14	0x3dc475fb	0.095928155
15	0xbe489984	-0.19589812
16	0xbe29116c	-0.16510552
17	0xbc963735	-0.018336872
18	0x3ce47c7d	0.027891392
19	0x3e7788b7	0.24173246
20	0x3b700def	0.0036629399
21	0x3e818446	0.2529623
22	0x3d87574f	0.0660845
23	0xbe6befc5	-0.23040684

transformer_encoder.layers.0.linear1.weight f4 [16, 24]
0	0xbea3c39f	-0.31985185
1	0xbe96bdf2	-0.29441792
2	0x3e8c1633	0.27360687
3	0x3e743f11	0.23852183
4	0x3dfa3789	0.12217624
5	0xbe83b3de	-0.25723165
6	0xbe42c36b	-0.19019859
7	0xbc9a2688	-0.018817201
8	0x3e42ed36	0.19035801
9	0x3e8de5bc	0.27714336
10	0xbeba0e7d	-0.3633918
11	0x3e96fc29	0.29489258
12	0xbd936264	-0.07196501
13	0xbdf993f9	-0.12186427
14	0x3e182c8d	0.14860745
15	0xbd43b7e3	-0.04778279
16	0xbca2d558	-0.01987712
17	0x3d377087	0.04478505
18	0xbf278a86	-0.65445745
19	0x3ec0c12a	0.37647372
20	0x3cebe4c7	0.028795613
21	0x3d3d7d2e	0.04626196
22	0x3e6242b6	0.2209576
23	0x3defa696	0.117016956
24	0xbe81163f	-0.25212285
25	0xbedfe139	-0.4372652
26	0x3d4cdd5c	0.050015792
27	0x3ebdc8c5	0.37067237
28	0x3bdb4de2	0.006692634
29	0xbea034b5	-0.31290212
30	0xbe355914	-0.17709762
31	0x3e30af4c	0.1725437
32	0x3e62db20	0.22153902
33	0xbe192287	-0.14954577
34	0xbe78593a	-0.24252787
35	0xbe11e1af	-0.14246248
36	0x3da9fabe	0.082997784
37	0xbe92cb7f	-0.2867088
38	0xbe0bf51c	-0.1366772
39	0xbe374bf2	-0.17900065
40	0x3b40e9f7	0.002943633
41	0x3ed5e4a1	0.41775993
42	0x3eebd6c0	0.4606228
43	0x3e3b3aa8	0.18284094
44	0x3efed151	0.4976907
45	0xbbb3fc41	-0.0054927175
46	0xbe626b4b	-0.22111242
47	0x3ecf255b	0.40458187
48	0x3e2dff2c	0.16991872
49	0x3e28427f	0.16431616
50	0xbe314fde	-0.17315623
51	0xbf00a3cf	-0.5024995
52	0xbe3d9d83	-0.18517117
53	0x3e9c4eec	0.30528963
54	0xbf8dc1a7	-1.1074723
55	0x3eac38af	0.33636996
56	0xbd151cf0	-0.03640455
57	0xbe7145ac	-0.23561734
58	0x3ef9f74a	0.4882148
59	0xbd550f8e	-0.052016787
60	0xbe301d32	-0.17198637
61	0x3e0f118a	0.13971534
62	0x3d8b30ef	0.06796443
63	0xbe877365	-0.26455227
64	0x3e4d1e6b	0.20031135
65	0x3edcea5a	0.43147546
66	0x3da292fa	0.0793819
67	0x3df83b5a	0.121206954
68	0xbdc4b5c1	-0.09604979
69	0x3dea8851	0.114517815
70	0xbe255bf8	-0.16148365
71	0x3d674ba4	0.05646862
72	0xbe998d5d	-0.29990664
73	0xbe3ca591	-0.18422534
74	0x3dc951fe	0.09830092
75	0xbeb5b5e1	-0.35490325
76	0xbdc4ae5d	-0.0960357
77	0xbdb23188	-0.087008536
78	0x3dd82756	0.10554378
79	0xbea6786f	-0.3251376
80	0x3d858207	0.065189414
81	0xbe39c4e5	-0.18141516
82	0x3ec14843	0.37750444
83	0x3ec1cfba	0.37853795
84	0x3d12257d	0.035680283
85	0x3eb3e4a0	0.35135365
86	0xbe97e1d8	-0.29664493
87	0x3d69c6df	0.057074424
88	0x3d209606	0.039205573
89	0xbe1e9434	-0.15486223
90	0x3eea5a27	0.45771906
91	0x3eaa3f89	0.33251598
92	0x3d9f8726	0.077894494
93	0x3daece9f	0.085355036
94	0xbf4c936d	-0.79912454
95	0x3d1504ce	0.036381535
96	0xbec73e9c	-0.38914955
97	0xbe37967b	-0.17928497
98	0xbe8f3b97	-0.2797515
99	0x3e544f4c	0.20733374
100	0x3e42e253	0.19031648
101	0xbd107197	-0.035264578
102	0xbde095ee	-0.10966097
103	0x3d6cbfcd	0.057800103
104	0xbe1663d4	-0.14686519
105	0xbee40ff0	-0.4454341
106	0xbd9759dd	-0.07390187
107	0x3e9f13be	0.3106975
108	0xbdb7dfc6	-0.08978228
109	0x3ee58773	0.44829902
110	0xbda60e43	-0.08108189
111	0x3e208d25	0.15678842
112	0x3f086477	0.532783
113	0xbe397c7d	-0.18113895
114	0xbe8320ef	-0.25611064
115	0x3da84eef	0.082181804
116	0x3eb654a9	0.35611466
117	0x3eff4c16	0.49862736
118	0xbec02ae7	-0.37532732
119	0x3e085d03	0.13316731
120	0xbc5d182e	-0.013494534
121	0x3ec1dc84	0.37863553
122	0xbc8a2fb9	-0.016868459
123	0xbeca5408	-0.39517236
124	0xbf09716a	-0.5368868
125	0xbb5acfd8	-0.0033388045
126	0xbed8a471	-0.4231296
127	0x3e0ecf9a	0.13946381
128	0x3e37c0fe	0.17944714
129	0x3e222539	0.15834512
130	0x3ead3ec3	0.33836946
131	0x3e1843b6	0.1486958
132	0xbeaf4d45	-0.3423864
133	0x3eae75ba	0.34074193
134	0xbde1a120	-0.1101706
135	0xbe48a5f2	-0.19594553
136	0xbd46ebc9	-0.048564706
137	0x3e80088d	0.25006524
138	0x3e8f799e	0.28022474
139	0x3eb0ffba	0.34570104
140	0x3d095270	0.033525884
141	0xbf27a241	-0.65481955
142	0xbe1037ad	-0.14083739
143	0xbca29e23	-0.019850796
144	0x3d6ec54a	0.05829362
145	0x3e1c85fc	0.15285486
146	0x3dca3ee2	0.09875275
147	0xbc960e6b	-0.018317422
148	0x3d8151d8	0.063144386
149	0x3e54c54f	0.20778392
150	0x3e33780a	0.1752626
151	0x3d4cb314	0.04997547
152	0xbe0e6703	-0.13906483
153	0xbf109144	-0.5647166
154	0x3de31332	0.110876456
155	0xbdb3cffb	-0.087799035
156	0xbd493fdb	-0.049133163
157	0x3d332b00	0.04374218
158	0x3e9fd2b3	0.31215438
159	0x3dc97568	0.098368466
160	0x3e9777b1	0.29583505
161	0xbf1324e9	-0.57478195
162	0x3dae2c41	0.085045345
163	0xbe2cf87a	-0.16891661
164	0xbe0f3d6b	-0.13988273
165	0x3d930079	0.071778245
166	0x3ea49bbf	0.32150075
167	0x3e8f7515	0.28019014
168	0x3d9c35d5	0.07627455
169	0xbf2b9c07	-0.67034954
170	0xbe4bc968	-0.19901049
171	0x3e4794c8	0.1949035
172	0xbeb2cb56	-0.34920758
173	0xbef4482d	-0.47711316
174	0x3e7e72bc	0.24848455
175	0x3e51c3df	0.20484875
176	0xbd9b682f	-0.07588231
177	0x3e4b7e02	0.19872287
178	0xbe3b002e	-0.18261787
179	0xbdafdfa3	-0.08587577
180	0x3e8e43e5	0.27786174
181	0x3d1245e8	0.0357112
182	0xbe09b8d3	-0.13449411
183	0x3f67b807	0.9051518
184	0xbd8be1f5	-0.06830207
185	0xbea01d01	-0.31272128
186	0x3ce46253	0.027878916
187	0x3e81a688	0.25322366
188	0x3e40e490	0.1883719
189	0xbc326183	-0.010887506
190	0xbd14a0bb	-0.036286097
191	0xbd90055c	-0.07032272
192	0xbe84ef9a	-0.2596405
193	0x3e286e44	0.16448313
194	0xbee2f8a8	-0.44330335
195	0xbeab0027	-0.33398554
196	0xbf2ff94e	-0.68739784
197	0xbd4c0b4b	-0.049815457
198	0xbdc12909	-0.09431655
199	0x3dddc824	0.108291894
200	0x3e33c674	0.17556173
201	0x3efafb59	0.49019888
202	0xbc9ffc54	-0.0195295
203	0x3c340c5c	0.010989275
204	0x3ec33f4a	0.38134223
205	0x3ea6b313	0.32558498
206	0x3e7cbc49	0.246812
207	0x3edc4960	0.4302473
208	0xbe4bb83a	-0.19894496
209	0xbc6875d0	-0.014188245
210	0xbdca211e	-0.09869598
211	0x3cb53319	0.022119092
212	0x3f0fb872	0.56140816
213	0xbf1d9239	-0.61551243
214	0xbe43b198	-0.19110715
215	0xbe26aa40	-0.16275883
216	0xbe0db12c	-0.13837117
217	0x3ebc8735	0.36821905
218	0x3d3020ce	0.043000035
219	0xbf1d4714	-0.6143658
220	0xbda862c0	-0.0822196
221	0x3e25022f	0.16114114
222	0xbc17d8c1	-0.009267987
223	0x3c6fbb1f	0.0146320155
224	0x3e9c9be9	0.305877
225	0xbda3f8fe	-0.08006476
226	0x3e567aec	0.20945328
227	0xbcdcd7f6	-0.026958447
228	0xb8b7f508	-8.7717606e-05
229	0x3ec01047	0.3751242
230	0x3db16a9c	0.08662912
231	0x3c677619	0.014127278
232	0x3dc059fb	0.093921624
233	0xbe0af07b	-0.13568299
234	0x3e573cbc	0.21019262
235	0xbe8a9031	-0.27063134
236	0x3e2141d6	0.1574777
237	0xbed13a5d	-0.4086484
238	0xbf110ecf	-0.5666322
239	0x3db8017a	0.08984657
240	0x3e6f3a0c	0.23361987
241	0x3ecc2b58	0.3987682
242	0xbe86c2da	-0.26320535
243	0xbe2f309f	-0.17108391
244	0x3ddf6da4	0.10909584
245	0x3e858ec1	0.26085475
246	0xbea4ebd2	-0.32211167
247	0x3ea00aeb	0.3125833
248	0x3dd32dee	0.10311495
249	0x3e94757c	0.28995883
250	0x3c37be49	0.011214801
251	0xbe32c646	-0.17458448
252	0xbd190640	-0.037359476
253	0x3ecc1953	0.3986307
254	0xbe47624c	-0.19471091
255	0x3e1dc797	0.15408169

transformer_encoder.layers.0.linear1.bias f4 [16]
0	0xbee49b68	-0.44649816
1	0xbe3e69a2	-0.18594983
2	0xbe3994cb	-0.18123166
3	0xbb601d0c	-0.0034197
4	0xbe935f85	-0.28783813
5	0x3d40fd54	0.047116593
6	0xbe75bca5	-0.23997743
7	0xbda5619b	-0.080752574
8	0xbd43a043	-0.04776026
9	0xbe110154	-0.14160663
10	0xbeb2c94d	-0.34919205
11	0xbde9f33f	-0.11423349
12	0xbe915fa0	-0.2839327
13	0xbdd6c135	-0.1048607
14	0xbe1e4b38	-0.15458381
15	0xbeb8d890	-0.36102724

transformer_encoder.layers.0.linear2.weight f4 [24, 16]
0	0xbe6aa2db	-0.22913687
1	0x3e428615	0.1899646
2	0x3ec72516	0.38895482
3	0x3ea204db	0.3164433
4	0x3e801b44	0.25020802
5	0xbd04e792	-0.032447405
6	0x3dd13621	0.102154024
7	0xbe7227b3	-0.23647957
8	0x3eb87ac9	0.36031178
9	0xbe9d9b03	-0.30782327
10	0xbddcca24	-0.10780743
11	0x3e816a8d	0.25276604
12	0xbd434d80	-0.04768133
13	0xbe2f5c5f	-0.1712508
14	0x3eacf4fc	0.33780658
15	0xbf097576	-0.53694856
16	0x3ed85011	0.42248586
17	0x3dea691f	0.114458315
18	0x3deb8b27	0.115011506
19	0xbe2eabfd	-0.17057796
20	0x3cff83e2	0.031190816
21	0xbec62a5d	-0.38704196
22	0xbe9ed5a2	-0.31022364
23	0x3dc07d31	0.09398878
24	0xbde8ec97	-0.11373251
25	0x3d6bd972	0.05758042
26	0xbd0044c4	-0.03131558
27	0x3e512c27	0.20426999
28	0xbee3825f	-0.44435403
29	0x3eaa651e	0.3328027
30	0xbd868f61	-0.06570316
31	0x3d86ace7	0.06575947
32	0xbed267ea	-0.41094905
33	0xbc84d4cd	-0.016214753
34	0xbcae7010	-0.02129367
35	0xbed2d6b8	-0.41179442
36	0x3e3da27b	0.18519013
37	0xbd973ae3	-0.073842786
38	0x3b02b5d9	0.0019944815
39	0xbe0c8145	-0.13721187
40	0x3e1ba20c	0.15198535
41	0xbe99bfce	-0.30029148
42	0xbe5ae5f3	-0.21376781
43	0xba7b2034	-0.0009579689
44	0x3ccc96a7	0.02497418
45	0x3df28afc	0.118429154
46	0xbd0b6d1e	-0.03403961
47	0x3dd24e23	0.1026881
48	0x3e181102	0.14850238
49	0x3dc7266c	0.09724125
50	0x3ee75fee	0.45190376
51	0x3dc19938	0.09453052
52	0xbe0bd002	-0.13653567
53	0xbeed1267	-0.46303102
54	0xbd41cbad	-0.04731338
55	0x3d63490c	0.055489585
56	0x3e64e8dc	0.22354454
57	0x3e9265ef	0.28593394
58	0xbf17baba	-0.592693
59	0xbf198e91	-0.59983164
60	0xbe3f4a6f	-0.18680738
61	0x3e2353b3	0.15949897
62	0xbece313d	-0.4027194
63	0xbe60110c	-0.21881503
64	0xbdfe2ac9	-0.12410504
65	0xbe249dbd	-0.16075797
66	0x3cc5cec7	0.02414645
67	0x3ddc4cf7	0.107568674
68	0xbef177e7	-0.4716179
69	0xb9ca1091	-0.00038540785
70	0xbdd16d9e	-0.10225986
71	0xbdbbdc9c	-0.09172937
72	0x3e9317f1	0.28729203
73	0x3e843648	0.25822663
74	0x3e63dfe6	0.22253379
75	0xbe64905d	-0.22320695
76	0xbe48ade1	-0.1959758
77	0xbe59ebb6	-0.21281323
78	0x3e777f28	0.241696
79	0xbe58ca75	-0.21170981
80	0x3da5a125	0.080873765
81	0xbdc4cf7a	-0.096098855
82	0x3e2f8895	0.17141946
83	0x3e06643b	0.13124172
84	0xbd618f0f	-0.055068072
85	0x3e8469ed	0.25862065
86	0x3d196e73	0.03745885
87	0x3de22848	0.11042839
88	0xbca6f311	-0.020379575
89	0x3f016214	0.5054028
90	0x3ee0bb20	0.43892765
91	0xbd6386c0	-0.05554843
92	0x3d743bc6	0.059627317
93	0xbf0662a6	-0.52494276
94	0x3ed58d37	0.417093
95	0xbeca1bfb	-0.39474472
96	0x3e9584ea	0.29202968
97	0xbd171764	-0.03688754
98	0x3e96bf1f	0.2944269
99	0x3d958971	0.073016055
100	0x3c2a162a	0.010381261
101	0x3d87318e	0.06601249
102	0xbe151ed3	-0.1456254
103	0xbeb74621	-0.35795692
104	0xbdd278f3	-0.102769755
105	0x3de183c6	0.11011462
106	0x3d9a32a8	0.07529193
107	0xbdeba683	-0.11506369
108	0xbf487c72	-0.7831489
109	0x3db4f0d1	0.088349946
110	0x3d86e7c5	0.06587175
111	0xbee91df8	-0.45530677
112	0x3b8e2e8a	0.004339044
113	0x3d8d7a0f	0.069080465
114	0xbecceb44	-0.40023243
115	0x3edbc9e8	0.4292748
116	0xbd1f2308	-0.038851768
117	0xbe24a7f3	-0.16079693
118	0xbdb6e483	-0.08930304
119	0xbd3511b4	-0.044206336
120	0x3efa16c8	0.48845506
121	0xbe955a9a	-0.29170686
122	0xbe209951	-0.15683486
123	0x3e51364e	0.20430872
124	0x3e28d38f	0.16486953
125	0x3e2983fb	0.16554253
126	0xbef300cc	-0.47461545
127	0x3f08bf06	0.5341648
128	0xbdc8edce	-0.09810983
129	0xbeb925b7	-0.36161587
130	0x3cc997de	0.024608549
131	0xbe6486ea	-0.2231709
132	0x3ed4eda6	0.4158756
133	0xbf283939	-0.65712315
134	0xbdf756b4	-0.12077084
135	0x3ee495b5	0.44645467
136	0xbe480069	-0.19531406
137	0x3d2dc7d0	0.042426884
138	0xbdf99b26	-0.12187795
139	0x3e8ecf30	0.27892447
140	0x3f189bdb	0.59612817
141	0x3e79e316	0.24403033
142	0x3dce4ad6	0.100728676
143	0x3e9580a5	0.2919971
144	0xbed7fb4c	-0.42183912
145	0x3e768cb6	0.24077114
146	0xbebadf05	-0.36498275
147	0x3edda48f	0.4328961
148	0x3ebfe779	0.37481287
149	0xbe84d95a	-0.25947076
150	0x3e95b526	0.29239768
151	0xbd87dcdd	-0.06633923
152	0xbeb37dcb	-0.3505691
153	0x3e9913a3	0.29897794
154	0xbe6cf9b8	-0.23142135
155	0xbda1c592	-0.07899012
156	0xbd59de50	-0.05319053
157	0xbce4f7b1	-0.02795014
158	0x3e015aae	0.12632248
159	0xbdddb913	-0.10826316
160	0x3f1430db	0.5788705
161	0x3e3d0764	0.1845985
162	0xbdac63e6	-0.084174916
163	0xbec6dade	-0.38838857
164	0xbcd5a6fd	-0.026080603
165	0x3e64f1d2	0.22357872
166	0xbcc3621d	-0.023850495
167	0x3cd2ea8d	0.025746608
168	0xbcd7d791	-0.026347907
169	0xbe54f0a0	-0.20794916
170	0xbe517fd3	-0.20458917
171	0x3e2a6c22	0.16642812
172	0x3e7b61d0	0.24549031
173	0xbe116134	-0.14197236
174	0x3e8b4350	0.27199793
175	0x3c63ac12	0.013896005
176	0x3c8ae8c9	0.016956704
177	0xbe2ffb44	-0.17185694
178	0xbe62a5e2	-0.22133592
179	0xbe8164ac	-0.2527212
180	0xbf05b2bd	-0.5222586
181	0x3e82a7dd	0.25518695
182	0x3d95de61	0.07317806
183	0xbe3858cc	-0.18002623
184	0x3e827609	0.2548068
185	0xbe435fd3	-0.19079523
186	0x3ec454c5	0.38345924
187	0xbed8a3bf	-0.42312428
188	0xbeb923e4	-0.36160195
189	0xbeb8de4f	-0.36107108
190	0xbd9f1c23	-0.077690385
191	0x3f3d5f74	0.73973775
192	0x3e7f3611	0.24922968
193	0xbe861122	-0.26184946
194	0xbe9f692f	-0.31134936
195	0xbecfdcfa	-0.4059828
196	0x3d269135	0.040665824
197	0x3e3cbcfa	0.18431464
198	0x3df75d60	0.12078357
199	0x3ef250f2	0.4732738
200	0xbe86f8bc	-0.26361644
201	0x3ea0da01	0.31416324
202	0x3e944c2f	0.28964373
203	0xbe2f5f04	-0.1712609
204	0x3cc77e02	0.024352077
205	0x3ec82b48	0.3909552
206	0xbd932675	-0.071850695
207	0xbd45d1d8	-0.048295826
208	0x3e76e59c	0.24111027
209	0x3e91bc3f	0.28463933
210	0xbf0e7231	-0.5564299
211	0x3eaf13bd	0.34194747
212	0xbe99ddcc	-0.3005203
213	0xbe35bbc2	-0.17747405
214	0xbe9b2a8b	-0.30305895
215	0x3e8db950	0.27680445
216	0xbe828dfc	-0.2549895
217	0x3cd21091	0.025642665
218	0x3bf8318c	0.007574266
219	0x3e8d9782	0.27654654
220	0x3d79ce48	0.06098774
221	0xbd871a73	-0.06596842
222	0x3e585694	0.21126777
223	0xbe5cac44	-0.21550089
224	0xbdea84e9	-0.11451132
225	0x3f3f4715	0.7471784
226	0xbe90d981	-0.28290942
227	0xbe982b5e	-0.29720587
228	0x3ddb50bc	0.10708758
229	0x3ee01c98	0.43771815
230	0xbc3f97db	-0.01169392
231	0xbd2a65ec	-0.041601107
232	0xbe8398e8	-0.25702596
233	0xbdbc0470	-0.09180534
234	0x3e45a023	0.19299369
235	0xbd952484	-0.072823554
236	0xbdaf63e0	-0.085639715
237	0xbb4b9440	-0.0031063706
238	0xbe40aa08	-0.18814862
239	0x3e621860	0.22079611
240	0x3eb1d180	0.34730148
241	0xbd269d57	-0.040677395
242	0x3e4ebc18	0.2018894
243	0x3db959fe	0.09050368
244	0x3e90d916	0.28290623
245	0x3dced60a	0.100994185
246	0x3d7e315a	0.062058784
247	0xbef4128e	-0.47670406
248	0xbeae4615	-0.34037843
249	0xbe08fcca	-0.13377681
250	0x3d925c9c	0.0714657
251	0x3ebf013d	0.37305632
252	0x3e8078d6	0.2509219
253	0xbedba61d	-0.42900172
254	0x3ebbae5b	0.3665646
255	0x3d25bbe6	0.040462397

transformer_encoder.layers.0.linear2.bias f4 [24]
0	0x3d08780b	0.033317607
1	0x3cc05c36	0.02348147
2	0x3bfde185	0.0077478313
3	0x3dfe3e42	0.124142185
4	0x3cbc12aa	0.022958118
5	0xbc72b928	-0.0148146525
6	0x3d469f8e	0.048492007
7	0xbca4e11a	-0.020126868
8	0x3d94c701	0.072645195
9	0xbb1821c2	-0.002321348
10	0xbd962a4b	-0.073322855
11	0xbc66cfa9	-0.014087596
12	0xbe08d800	-0.13363647
13	0x3dfe1ec0	0.12408209
14	0xbd61e59b	-0.05515061
15	0x3d2cab6c	0.04215567
16	0x3dbec0fb	0.09314152
17	0xbd12a9d6	-0.0358065
18	0x3c529486	0.012852794
19	0x3cd69d1b	0.02619796
20	0x3d4927e6	0.049110316
21	0xbdf915ff	-0.121623985
22	0xbd5cda27	-0.053918984
23	0xbbe07d20	-0.0068508536

transformer_encoder.layers.0.norm1.weight f4 [24]
0	0x3ebc39af	0.3676276
1	0x3f1229a9	0.5709482
2	0x3f20e4d0	0.6284914
3	0x3ea610d6	0.3243472
4	0x3eed2bf8	0.46322608
5	0x3e3934cc	0.18086547
6	0x3ec304a8	0.3808949
7	0x3efa033d	0.48830596
8	0x3f2c11bd	0.67214566
9	0x3ed574bc	0.41690624
10	0x3f140f87	0.5783619
11	0x3f1ba19d	0.6079348
12	0x3e8bb59d	0.27286997
13	0x3ead353b	0.33829674
14	0x3e8f4c3a	0.27987844
15	0x3ebb30e5	0.3656074
16	0x3f53c4fb	0.82722443
17	0x3f1c3954	0.61024976
18	0x3ea17592	0.31535012
19	0x3f22623a	0.6343113
20	0x3ed24428	0.41067624
21	0x3efa1f13	0.48851833
22	0x3ef9b889	0.48773602
23	0x3ec135c5	0.37736335

transformer_encoder.layers.0.norm1.bias f4 [24]
0	0x3cc8a13e	0.024490949
1	0xbdc330db	-0.09530803
2	0xbd474c63	-0.048656832
3	0x3de83185	0.1133757
4	0xbe28aae4	-0.1647144
5	0xbd82ad68	-0.06380731
6	0x3c771275	0.015080084
7	0x3c860553	0.01635996
8	0xbe73497c	-0.23758501
9	0x3cf125cf	0.029436974
10	0x3d0f4f99	0.03498802
11	0x3e7bc004	0.24584967
12	0xbe572577	-0.21010385
13	0xbd2ed040	-0.04267907
14	0xbd72fcad	-0.059323
15	0xbd09e3d9	-0.033664558
16	0x3c819a3d	0.015820617
17	0x3d80c4db	0.06287547
18	0x3d05ad84	0.03263618
19	0x3e8e2e6d	0.27769795
20	0x3a9c2e0e	0.0011915581
21	0xbdb3e104	-0.08783153
22	0x3e3e7de3	0.1860271
23	0xbd11653b	-0.03549693

transformer_encoder.layers.0.norm2.weight f4 [24]
0	0x3fa59955	1.2937418
1	0x3fe27c6c	1.769422
2	0x3fda8223	1.7070965
3	0x3fd054ad	1.6275841
4	0x3f7d5372	0.9895545
5	0x3fb1d4c1	1.3893052
6	0x3fa77193	1.3081535
7	0x3fe7a5c4	1.8097463
8	0x3fb051fb	1.3775018
9	0x3fa68b8c	1.3011336
10	0x3f8e07ab	1.109609
11	0x3fa43af4	1.2830491
12	0x3fdd8f2b	1.7309316
13	0x3f7fe633	0.9996063
14	0x3fe5dbc9	1.7957698
15	0x3fb8a7e0	1.4426231
16	0x3f6f688c	0.935189
17	0x3fd9e80d	1.7023941
18	0x3fcae0f4	1.58499
19	0x3fac4d60	1.3461113
20	0x3f9bfcc7	1.2186517
21	0x3f956c90	1.1673756
22	0x3fbdbee7	1.4823884
23	0x3f78e082	0.9721757

transformer_encoder.layers.0.norm2.bias f4 [24]
0	0xbd4146a0	-0.047186494
1	0x3e4a895e	0.19778964
2	0xbd6727d2	-0.05643446
3	0x3b359ee1	0.0027713107
4	0xbd98c580	-0.07459545
5	0xbcf4f85d	-0.029903585
6	0x3bd48587	0.0064856443
7	0x3e027f2b	0.12743823
8	0xbdd8cd03	-0.10585978
9	0x3d6f181b	0.0583726
10	0x3e2b9d80	0.167593
11	0x3e2fc887	0.17166339
12	0xbd512a2a	-0.0510656
13	0xbe4721b1	-0.19446446
14	0x3e37fc44	0.17967325
15	0xbe26985e	-0.16269061
16	0x3cf9abac	0.030477367
17	0xbde31918	-0.11088771
18	0x3e8ed603	0.27897653
19	0x3dd0f2e1	0.102025755
20	0x3d1c23d1	0.038120095
21	0xbd6d43e7	-0.057926085
22	0xbe5f69d0	-0.21817708
23	0xbda12f5c	-0.07870361

MLP_encoder.weight f4 [8, 8]
0	0x2dab8c64	1.9502795e-11
1	0x2ecfedeb	9.455533e-11
2	0xaed2c977	-9.585482e-11
3	0xae99831d	-6.980925e-11
4	0xae410698	-4.3888976e-11
5	0x2ec51b09	8.963325e-11
6	0xaeb06cbc	-8.0228685e-11
7	0xaec33b38	-8.878093e-11
8	0xac81ec8d	-3.692663e-12
9	0x2e75e0e8	5.5906307e-11
10	0xaedb39db	-9.969244e-11
11	0x2ea48f00	7.4832585e-11
12	0xae42b175	-4.4268107e-11
13	0x2ea50a0f	7.505118e-11
14	0x2db1e3d6	2.022375e-11
15	0xae68f531	-5.2968466e-11
16	0x2e9bbac4	7.08176e-11
17	0x2ec16b8d	8.795729e-11
18	0x2ec16af1	8.7956205e-11
19	0xae421f11	-4.4138086e-11
20	0x2cacff73	4.9168946e-12
21	0xaea9de6c	-7.72474e-11
22	0x2e1214b9	3.3214962e-11
23	0xae2c9873	-3.9243674e-11
24	0xac7535f4	-3.4846544e-12
25	0xae060e17	-3.0480587e-11
26	0x2ec76d25	9.06886e-11
27	0x2e51996b	4.765736e-11
28	0x2e562920	4.8694493e-11
29	0xaeca280c	-9.19301e-11
30	0xae1a74a7	-3.5119154e-11
31	0xadf427e9	-2.7757312e-11
32	0x2de804cb	2.6377475e-11
33	0xae09cd0d	-3.1332315e-11
34	0xae9af3fa	-7.046448e-11
35	0x2ca996b6	4.820001e-12
36	0x2e6e8047	5.4228868e-11
37	0xad03e24f	-7.4967385e-12
38	0xae89b931	-6.262935e-11
39	0xad843be3	-1.5033258e-11
40	0xaeaf185c	-7.962406e-11
41	0xae1db90b	-3.5862018e-11
42	0x2ec00c5f	8.733347e-11
43	0xacb771ed	-5.213821e-12
44	0xae3bee39	-4.273046e-11
45	0xad6f38eb	-1.35982154e-11
46	0xad041888	-7.508778e-12
47	0x2e6785b8	5.2642085e-11
48	0x2ea3e2bf	7.45266e-11
49	0x2d669049	1.3106024e-11
50	0xae515c18	-4.7602894e-11
51	0x2e91cf95	6.6307106e-11
52	0x2e6ae30c	5.3407098e-11
53	0x2dbdc6b6	2.1575058e-11
54	0xae4b2618	-4.619069e-11
55	0xac0120dc	-1.8350243e-12
56	0x2dbe9809	2.1668016e-11
57	0xad38c7a5	-1.0503519e-11
58	0xae06df94	-3.066665e-11
59	0xaed09aea	-9.486263e-11
60	0xae6fd636	-5.4532566e-11
61	0x2ed81ab4	9.827286e-11
62	0xae4f5248	-4.713943e-11
63	0xae8d6b16	-6.43096e-11

MLP_encoder.bias f4 [8]
0	0xbe1ec01c	-0.15502971
1	0x3e6426a8	0.22280371
2	0xbdeb82f3	-0.11499586
3	0xbe0bf9ad	-0.13669463
4	0xbd45a32b	-0.048251312
5	0xbe3de27f	-0.18543433
6	0x3e886e17	0.26646492
7	0xbe5f1fb8	-0.21789443

mlp.0.weight f4 [24, 24]
0	0xbea4bc43	-0.32174882
1	0x3f3456e8	0.7044511
2	0x3e3db7d0	0.1852715
3	0xbecfdb3b	-0.40596947
4	0x3e8da87e	0.27667612
5	0x3e8d08ab	0.27545676
6	0xbe1e3ec2	-0.15453628
7	0x3e1a1fcf	0.15051197
8	0x3f0b5f22	0.54442036
9	0xbdb79c1b	-0.08965322
10	0xbd1f9468	-0.03895989
11	0x3d8fc981	0.07020856
12	0xbc7a6442	-0.015282692
13	0x3ea37d17	0.31931373
14	0xbdf20b84	-0.11818603
15	0xbf07bb62	-0.530203
16	0x3e0f9669	0.1402222
17	0xbf3f7d28	-0.7480035
18	0x3d8dd499	0.069253154
19	0xbef1edee	-0.47251838
20	0xbea4ac55	-0.3216273
21	0xbec0f059	-0.3768337
22	0x3ed77d0b	0.42087588
23	0x3b07c737	0.0020718107
24	0x3db0e132	0.086367026
25	0x3ec62c42	0.3870564
26	0x3e306ff4	0.17230207
27	0xbece0f4b	-0.40246043
28	0x3e9fc8b1	0.31207803
29	0xbcdcfeb3	-0.026976919
30	0x3e02aa8b	0.1276037
31	0xbe96e9c3	-0.2947522
32	0xbe007467	-0.12544404
33	0xbe7c8f99	-0.24664153
34	0x3f1d5cdf	0.61469835
35	0x3eba3ef2	0.36376148
36	0x3e379777	0.17928873
37	0xbeba2a78	-0.36360526
38	0xbe7745c6	-0.2414771
39	0xbee68ac3	-0.45027742
40	0xbf07bdf5	-0.53024226
41	0x3e151a3e	0.14560792
42	0x3ec7506a	0.3892854
43	0xbe3df0b7	-0.18548857
44	0xbf0872df	-0.5330028
45	0x3eaaba59	0.33345297
46	0x3e53c357	0.20679985
47	0xbdf91ab6	-0.12163298
48	0xbe1d0201	-0.15332796
49	0xbe9bd7df	-0.30438134
50	0x3ea44942	0.3208714
51	0x3e9cc8a1	0.30621818
52	0x3f1e59f2	0.61855996
53	0x3e9980db	0.2998112
54	0x3c32b8dc	0.010908332
55	0xbe6b3722	-0.2297025
56	0x3d28d7bf	0.041221377
57	0x3cd90ecb	0.026496312
58	0xbe7e5db9	-0.2484044
59	0x3ec20513	0.37894496
60	0xbf41eb92	-0.75750077
61	0x3dfb92ec	0.122838825
62	0xbe9ff07f	-0.3123817
63	0x3db8b4fa	0.090188935
64	0xbdc68708	-0.09693724
65	0xbddaa9a6	-0.10676889
66	0xbe1ea38b	-0.15492074
67	0x3e8e9bdf	0.27853295
68	0xbf2ba199	-0.67043453
69	0x3f48b9ea	0.7840868
70	0xbdb2cf68	-0.08730966
71	0xbe26aed1	-0.16277625
72	0x3e0b13b8	0.13581741
73	0xbe999707	-0.29998037
74	0x3dd718f6	0.10502808
75	0x3e57126c	0.21003121
76	0x3f0bf91a	0.54676974
77	0x3f4b540d	0.79425126
78	0xbdb7ea9f	-0.08980297
79	0xbf24a61b	-0.64315957
80	0x3e3f6557	0.18691002
81	0xbc82ce7f	-0.015967606
82	0xbed50649	-0.41606358
83	0xbf17a11d	-0.59230214
84	0x3f676ff1	0.90405184
85	0xbe5f46e3	-0.21804385
86	0x3ef5f133	0.48035583
87	0xbe7ae022	-0.24499562
88	0xbe8f123c	-0.279436
89	0xbd22f826	-0.039787434
90	0xbece97d5	-0.40350214
91	0xbf079456	-0.5296072
92	0x3e3c60e6	0.18396339
93	0x3eb88fab	0.3604711
94	0x3ead9a77	0.3390691
95	0x3e6032a0	0.21894312
96	0xbea36b47	-0.31917784
97	0xbda6a699	-0.08137245
98	0xbe9dd9cb	-0.30830225
99	0xbdc4d6d3	-0.09611287
100	0x3f026c08	0.5094609
101	0xbe5eb737	-0.21749578
102	0x3e34ddaa	0.17662683
103	0x3d22f1e0	0.03978145
104	0xbcd7fae9	-0.02636476
105	0xbe9a8a57	-0.3018367
106	0xbe83b040	-0.25720406
107	0x3f3247dd	0.69640905
108	0xbdd01867	-0.101609044
109	0x3f276a90	0.65396976
110	0x3e5a88d9	0.21341266
111	0xbe579ae6	-0.21055183
112	0xbd9451d4	-0.0724217
113	0x3ef4e77b	0.47832856
114	0xbf433567	-0.7625336
115	0xbf1c01ed	-0.6094044
116	0x3e9e42d6	0.30910367
117	0xbe835d64	-0.2565719
118	0x3dae9777	0.085249834
119	0x3e94abc0	0.29037285
120	0xbe1100ef	-0.14160512
121	0x3ea07e5b	0.31346402
122	0xbddd0f97	-0.10793989
123	0xbe7445a6	-0.23854694
124	0x3c80225c	0.015641384
125	0xbcd08df1	-0.025458308
126	0xbef28afd	-0.47371665
127	0x3e35be43	0.1774836
128	0xbe299043	-0.16558938
129	0xbf09b39b	-0.5378968
130	0x3e85b776	0.26116532
131	0x3ec86ce3	0.39145574
132	0xbe9f6a8a	-0.3113597
133	0xbc5cbe02	-0.013473036
134	0x3e42cc36	0.19023213
135	0xbefbca81	-0.49177936
136	0x3db77d21	0.08959413
137	0x3f879ae5	1.0594145
138	0xbf0a5944	-0.5404246
139	0x3ee83c57	0.45358536
140	0xbe164670	-0.14675307
141	0x3de23ee9	0.110471554
142	0x3e8e6585	0.27811828
143	0xbe253260	-0.16132498
144	0xbd9e1e95	-0.07720677
145	0xbdecc2e5	-0.11560611
146	0x3e4c6cf7	0.19963442
147	0x3f157f94	0.58397794
148	0x3eb6a77b	0.35674652
149	0xbf4b5de7	-0.7944016
150	0x3d2d5e8c	0.042326495
151	0xbd4c8609	-0.049932513
152	0x3ef43a96	0.47700948
153	0x3f29fdda	0.6640297
154	0xbf3586b1	-0.7090865
155	0xbea3c6d2	-0.31987625
156	0x3c99daca	0.018781085
157	0x3f245d41	0.64204794
158	0xbf24cf5d	-0.6437891
159	0xbf10aba9	-0.5651193
160	0xbd5788d0	-0.05262071
161	0x3ed5af65	0.41735378
162	0xbe935202	-0.28773504
163	0x3dc2167e	0.09476946
164	0xbecb50d8	-0.39710116
165	0x3ded515e	0.11587785
166	0x3e1cd66c	0.1531617
167	0x3cd71399	0.026254462
168	0xbe843306	-0.25820178
169	0xbe3b0e7a	-0.18267241
170	0xbf088f55	-0.5334371
171	0x3df0305a	0.11727972
172	0x3ec92f9c	0.39294136
173	0x3eaa718f	0.33289763
174	0x3f1e10fe	0.6174468
175	0x3d8ab35d	0.06772492
176	0xbeff2248	-0.49830842
177	0xbe0cb6e9	-0.1374165
178	0xbe90078b	-0.28130755
179	0x3ebfd5e6	0.3746788
180	0x3e884b77	0.26620075
181	0x3efa7d5e	0.48923773
182	0xbed08ddc	-0.4073323
183	0xbed99d8d	-0.42503014
184	0x3f3c78eb	0.73622006
185	0xbed6b471	-0.4193454
186	0xbd45b8c4	-0.04827191
187	0xbcb7e786	-0.022449266
188	0x3c16c313	0.009201783
189	0x3e663c2d	0.22483893
190	0xbeafbf46	-0.34325618
191	0xbde1b6f8	-0.11021227
192	0xbe654e56	-0.22393164
193	0xbe5d79b5	-0.21628459
194	0x3f223e7d	0.633766
195	0x3f0193be	0.5061606
196	0xbe930599	-0.28715208
197	0xbf361537	-0.7112612
198	0x3e09d5a4	0.13460404
199	0xbe3f3396	-0.18672022
200	0x3d85e857	0.06538456
201	0xbecc0fc8	-0.3985579
202	0x3cfc093d	0.030766124
203	0x3dae3528	0.085062325
204	0xbe8b4cf3	-0.27207145
205	0xbf058625	-0.52157813
206	0x3e7c213e	0.24622056
207	0xbebf577b	-0.3737143
208	0xbdd260e0	-0.10272384
209	0x3d0ca73e	0.034339182
210	0x3f108244	0.5644877
211	0x3f2974d4	0.6619389
212	0x3e33c898	0.17556989
213	0xbe44552e	-0.19173118
214	0xbf03ef70	-0.5153723
215	0x3ef9b7ec	0.48773134
216	0xbdd64608	-0.10462576
217	0x3f1df2a2	0.61698353
218	0x3de7ef75	0.1132497
219	0x3ea5ec12	0.3240667
220	0x3e0a543c	0.13508695
221	0xbd5972f6	-0.05308815
222	0xbe95182d	-0.29120007
223	0x3f0d3f6e	0.5517491
224	0x3f1a78d3	0.60340613
225	0x3ec1f3f2	0.37881428
226	0xbd60f7aa	-0.05492369
227	0x3e6bd9e2	0.23032334
228	0x3e8b0d6e	0.27158684
229	0xbdd6c2f8	-0.10486406
230	0xbe828ca6	-0.2549793
231	0xbed7c1ab	-0.42139944
232	0x3cee4552	0.029085789
233	0x3e7bbd60	0.2458396
234	0xbef45d02	-0.4772721
235	0x3bbc8f91	0.005754419
236	0xbdfc2725	-0.12312154
237	0xbe65228c	-0.2237646
238	0xbe37776a	-0.17916647
239	0xbf136453	-0.5757496
240	0x3edb7a1c	0.428666
241	0xbe6e69c0	-0.23282528
242	0x3ebd44ce	0.36966556
243	0xbee93831	-0.45550683
244	0xbe71df79	-0.23620404
245	0x3e00aae2	0.12565187
246	0xbe87550d	-0.26432076
247	0xbddd1fcd	-0.10797081
248	0x3dc14865	0.09437636
249	0x3bb6b20a	0.005575423
250	0xbd3274cd	-0.04356842
251	0x3db3756b	0.0876263
252	0xbe966ca1	-0.29379752
253	0x3e252215	0.16126283
254	0x3d8ae611	0.06782163
255	0x3e9abda5	0.30222812

mlp.0.bias f4 [24]
0	0xbe2350ab	-0.15948741
1	0x3d845096	0.06460683
2	0x3e1c2671	0.15249039
3	0xbe7c9acd	-0.24668427
4	0xbddf0acf	-0.108907335
5	0x3dad9f06	0.08477597
6	0xbf0762f9	-0.52885395
7	0x3dca5935	0.09880296
8	0x3e04465e	0.12917468
9	0x3f13e323	0.5776846
10	0xbe48d258	-0.1961149
11	0xbe4952af	-0.19660448
12	0xbda261a7	-0.07928782
13	0x3e6e76db	0.23287527
14	0xbe8d8d90	-0.27647066
15	0xbd612864	-0.05497016
16	0xbe0024f9	-0.12514104
17	0x3c36037c	0.011109229
18	0x3d333b05	0.043757457
19	0xbeb3fb6e	-0.35152763
20	0x3d71af44	0.059005037
21	0x3ed905b3	0.4238716
22	0xbec8f27f	-0.3924751
23	0xbd422b76	-0.04740473

mlp.2.weight f4 [6, 24]
0	0x3f167153	0.5876667
1	0xbe9fb01b	-0.31189045
2	0xbe2cc011	-0.16870143
3	0xbea7c827	-0.32769892
4	0xbefe11d0	-0.49622965
5	0x3e204121	0.15649845
6	0x3f1eb787	0.6199879
7	0xbf4864da	-0.7827889
8	0xbeacc148	-0.33741212
9	0xbef62348	-0.48073792
10	0xbdcc5370	-0.09976852
11	0x3e969aa0	0.29414845
12	0x3eb842b6	0.35988396
13	0x3de6c2f1	0.11267651
14	0x3cf95f53	0.030440962
15	0x3bed96b5	0.0072506317
16	0xbeb91ee2	-0.36156374
17	0xbd88c5f3	-0.06678381
18	0xbc7b0b58	-0.015322529
19	0xbef74548	-0.48295045
20	0xbea1249e	-0.3147325
21	0x3e49fe21	0.19725849
22	0x3f0e5388	0.5559621
23	0x3e00f060	0.12591696
24	0x3d4b716b	0.04966871
25	0xbf2a3c16	-0.66497934
26	0x3db68cf7	0.08913606
27	0xbf2eaa2a	-0.682284
28	0xbf68e06a	-0.9096743
29	0x3e28d406	0.1648713
30	0x3d4a6a10	0.049417555
31	0x3f20a392	0.6274959
32	0x3e93b0f5	0.28845945
33	0x3f4d909e	0.80298793
34	0xbf2222d2	-0.6333438
35	0xbf36f62f	-0.71469396
36	0x3def12ef	0.11673533
37	0xbeb7ab47	-0.35872862
38	0xbf6ae365	-0.91753227
39	0x3e8a1aa9	0.26973465
40	0xbf3dbe20	-0.7411823
41	0x3ef1a0b4	0.4719292
42	0x3e46b86f	0.19406293
43	0xbef60bb0	-0.48055792
44	0x3edae1f9	0.42750528
45	0xbeef10fb	-0.46692643
46	0x3d9b9148	0.075960696
47	0x3f006702	0.5015718
48	0xbe6723a8	-0.22572196
49	0xbd9955c1	-0.074870594
50	0xbf5638f5	-0.8368066
51	0x3f455ffe	0.770996
52	0xbea845ca	-0.32865745
53	0x3f4d47e9	0.8018785
54	0x3f840749	1.0314723
55	0x3ef0bece	0.47020572
56	0x3f47784d	0.7791794
57	0xbec27d0d	-0.3798603
58	0x3f57887f	0.8419265
59	0xbd5acab4	-0.05341597
60	0xbf32f4f2	-0.69905007
61	0x3f2a7d78	0.665977
62	0x3eb41af2	0.35176808
63	0xbfa60e97	-1.2973202
64	0xbea67d5e	-0.32517523
65	0x3e94dd3c	0.29075038
66	0xbf058e94	-0.5217068
67	0x3fa2316b	1.2671331
68	0xbf123d13	-0.5712444
69	0xbf013c46	-0.50482595
70	0xbf8f6d54	-1.1205239
71	0xbf009399	-0.50225216
72	0x3c9ac52f	0.018892853
73	0x3e821eef	0.25414225
74	0x3f06eb19	0.5270248
75	0xbf1f38ec	-0.6219623
76	0x3db30b58	0.08742398
77	0xbee67028	-0.45007443
78	0xbf92e3ab	-1.1475729
79	0x3e007c64	0.12547451
80	0xbf31b342	-0.6941415
81	0x3e581431	0.21101452
82	0x3e5ec959	0.21756496
83	0x3eb65c80	0.35617447
84	0x3eb81486	0.35953158
85	0xbf4f0b6f	-0.8087682
86	0xbf34f8ca	-0.7069212
87	0x3c86bc3a	0.016447175
88	0x3f3b6acb	0.7320983
89	0xbdb103a2	-0.08643271
90	0xbecac593	-0.39603862
91	0xbf37fc55	-0.71869403
92	0xbedd82ba	-0.432638
93	0x3eafbbb7	0.34322903
94	0xbed25a7a	-0.41084653
95	0x3edd5ff5	0.43237272
96	0xbf83c5bb	-1.0294718
97	0x3ebd31be	0.36952013
98	0x3e543889	0.20724691
99	0x3f643125	0.8913749
100	0x3f529614	0.8226025
101	0xbf01d04d	-0.50708467
102	0xbf6184e9	-0.8809343
103	0xbde92827	-0.113846116
104	0xbe493782	-0.19650081
105	0x3e844bec	0.25839174
106	0xbf39c49a	-0.72565615
107	0xbf33605b	-0.700689
108	0xbf474d32	-0.77852166
109	0x3eae223a	0.34010488
110	0x3f21bb53	0.6317646
111	0x3df7e7dd	0.12104771
112	0x3e769b96	0.24082789
113	0xbf29ab7e	-0.662773
114	0x3e1e09b0	0.15433383
115	0xbdba494c	-0.090960115
116	0xbd05cdea	-0.032667078
117	0x3f13c2d3	0.57719153
118	0x3e5b0b18	0.2139095
119	0xbf81b850	-1.0134373
120	0x3eb57468	0.35440373
121	0x3e21e0da	0.1580843
122	0xbddf0f4a	-0.10891588
123	0xbea0d268	-0.31410527
124	0x3e9d570a	0.30730468
125	0xbe40b27b	-0.18818085
126	0x3d469bde	0.04848849
127	0xbebeef8d	-0.37292138
128	0xbd7cad7a	-0.061688878
129	0xbed92e1c	-0.4241799
130	0xbcfdfd97	-0.03100471
131	0x3ecbbaf5	0.39791074
132	0x3e63105a	0.22174206
133	0xbe827733	-0.25481567
134	0x3e93d1e5	0.28871074
135	0x3e8a2cb1	0.26987222
136	0x3dd1cebc	0.102445096
137	0x3cc86785	0.024463424
138	0x3eb5725b	0.3543881
139	0xbe956d63	-0.29185018
140	0x3f1413e6	0.5784286
141	0xbe483945	-0.19553097
142	0x3e047813	0.1293643
143	0xbd6d5e7d	-0.05795144

mlp.2.bias f4 [6]
0	0x3f046d4c	0.51729274
1	0x3d152333	0.03641052
2	0xbee29868	-0.44256902
3	0x3e86cce0	0.26328182
4	0xbe365303	-0.17805104
5	0xbe62054a	-0.2207233
