experiments/HMS/trans/models/hms_transformer_fold=3.pt (torch, 23594 bytes, 18 tensors)

transformer_encoder.layers.0.self_attn.in_proj_weight f4 [72, 24]
00000000: 35fb b63e 8867 0d3e 7060 97bb 25de e5be
00000010: 137a c5be 74c7 a9be e2cc cabe 4fbe c8be
00000020: e8bc 98be fc90 123f 5dfb 603e 0db9 e8bd
00000030: cb0b d1be 8548 c3be db60 a0be 4bcc cdbe
00000040: 9143 cbbe f59f 08bf a086 dd3c c6c7 b4bb
00000050: acef be3d 08dc e63d e11a 3abd f845 063e
00000060: 182f 1b3f 4d6d 2c3d facb ac3d 245e a3be
00000070: 8573 bebe 88b0 aebe 4ee1 bbbe adc5 b7be
00000080: 2d2f 233e ecc9 813e a13e 2f3d f22f b33c
00000090: 2c3c a6be ab36 8abe 2243 a6be e96d aebe
000000a0: fb6d 5dbe b11a 1bbd 5f03 e33d c266 b63c
000000b0: 7578 b73e 16cb 743e 8491 bb3d 3701 e63c
000000c0: 86af 8bbe 4524 0bbe 13ff 0d3e a243 2cbc
000000d0: cec5 bcbc da30 75bd b60b dcbc 919d e7bc
000000e0: e11a b4be 9ef4 1b3e 5ddd c0bd c0eb 613e
000000f0: 0e4d 833d 1ada dc3c e858 cf3c 1379 123c
00000100: 008e 913e 3de5 0abe 1a0b 4fbe c14b 34be
00000110: 05dc 3c3d 724c 58be 5feb 1fbe ab39 94bd
00000120: da00 2d3e 6441 243e 6050 6f3e 6820 30bf
00000130: 76b6 40bf 486a 3fbf 2d9a 2cbf d346 40bf
00000140: 4249 10bf de40 c43e d70e 65bd 0197 5a3d
00000150: 0328 0cbf 16b9 1dbf 351a 1cbf 4292 2abf
00000160: dfa4 56bd fc02 d1be d58e c3bd a223 3dbe
00000170: edca 133e 51ad bd3d 4396 17be 7ca2 0abe
00000180: d361 933e f6b5 773e 6d1f b5bd 4eaa bdbe
00000190: 159d acbe ca6c 63be e50c a2be a084 6abe
000001a0: feee 073e ab42 acbc 719d e03e d920 c8be
000001b0: 6f79 d9be 1b47 c9be 4072 dcbe e3fa bebe
000001c0: 6b9a a0be 7ed3 1fbe 9640 c73e 0405 5a3e
000001d0: 6314 e8bd bb9f 6e3d 7f7d babd 2dfe 583c
000001e0: 4f3b 4e3e e660 97be 06e0 44be 1f9f df3e
000001f0: 417d d53e ce59 f13e 1d01 013f d23a ed3e
00000200: c610 ee3e 3614 243d e6d6 1bbe a498 01be
00000210: 3751 923e 822a b43e 12ac 9f3e 374a c93e
00000220: 723a acbe 1439 c3bd 90aa b83b 3616 b3bd
00000230: 6243 9c3d 1c23 4a3e 9583 b73e a139 dc3d
00000240: cf76 9b3e 881d 59be 870c 8b3c e2d5 8f3e
00000250: 7d17 8b3e 52e2 6e3e 44a7 753e 806b 8b3e
00000260: 9908 0a3d c2a3 5ebc 79af bf3d 6554 dc3d
00000270: 0710 973e 03f9 9b3e d783 933e 3730 893e
00000280: b033 103d f315 f9bd 9146 263d 9ca3 f6bc
00000290: d66e a63e 4c54 b1bd f1e8 09bd 489b 9ebd
000002a0: 840c 30bd 7aad 50bf a9c3 2cbf 266a c63f
000002b0: 5ab4 da3f 2138 e43f 99be df3f 3616 dd3f
000002c0: d7e4 293f c73d 14bf 1058 ac3c f54d 1bbf
000002d0: 8297 943f 8de6 a53f 1133 a53f 769d a53f
000002e0: 7ac5 20be 4818 35be 1e77 653e 2c62 ad3c
000002f0: 9c45 273e 6896 b6be 096a 573e e44e e6bd
00000300: 383f b73e c232 163f 7333 623e 734c 3cbf
00000310: d545 2dbf d9e1 29bf 855e 27bf d7e9 29bf
00000320: 4d07 86be b395 a13e 7bcd 183f 230f 16bd
00000330: 7f22 06bf d4e0 07bf 5626 09bf 9005 14bf
00000340: 6753 603c e2f1 17bd fbe5 853e 0e58 543e
00000350: 0071 a1bc 1b42 863b 5b10 efbe 6973 1e3e
00000360: f900 b5be abe7 b1be 2fa2 a9bd f55d bc3e
00000370: 8381 893e d3fa 903e 32a7 913e c2b5 5c3e
00000380: 206c e1bd 3bfa d1be 8f41 80be 69a5 c33d
00000390: 3307 853e 9af2 873e c571 8a3e 8454 5c3e
000003a0: a6b7 883e 02c0 293c a432 8bbd d6c5 f9bd
000003b0: 2b76 91bc b610 a1be 17e5 b23c 1ddd d5bd
000003c0: 402b 6dbc bd41 0d3e d839 123e e929 2dbe
000003d0: 2486 25be d350 40be 9f62 70be 1645 28be
000003e0: 7c3c 38be 515f 393f 5811 36bd 7b35 a13d
000003f0: 61ec 21be 8fb3 37be 7537 36be 67f7 efbd
0.3573853 0.13809025 -0.0046196505 -0.44896045 -0.38569698 -0.33159983 -0.39609438 -0.39207694
-0.29831624 0.5725248 0.21970887 -0.11363421 -0.4082931 -0.38141266 -0.31323895 -0.40194926
-0.39699987 -0.53369075 0.027041733 -0.005516979 0.093230575 0.112724364 -0.04543579 0.13112628
0.60618734 0.042096425 0.08437343 -0.3190776 -0.3719751 -0.34119058 -0.3669533 -0.35893002
0.15935965 0.25349367 0.042784337 0.021873448 -0.32467782 -0.26994833 -0.32473093 -0.3406823
-0.21623985 -0.03786725 0.11084627 0.022265796 0.3583409 0.23905596 0.09158614 0.028076751
-0.2728235 -0.13588054 0.13866834 -0.010514172 -0.02304354 -0.05986104 -0.026861053 -0.028273376
-0.35176757 0.15230033 -0.09417222 0.22062588 0.064111814 0.026959468 0.025310948 0.008939999
0.2842865 -0.1356401 -0.20219079 -0.17607023 0.046108264 -0.21122912 -0.1561713 -0.07237562
0.16894856 0.1604057 0.23370504 -0.6879945 -0.75278413 -0.7477155 -0.67422754 -0.7510807
-0.5636178 0.3833074 -0.055922356 0.053366665 -0.54748553 -0.61610544 -0.6097749 -0.6662942
-0.052403327 -0.4082259 -0.095487274 -0.18470624 0.14432879 0.09261573 -0.14803414 -0.13538545
0.2878557 0.24190506 -0.088438846 -0.37043995 -0.33713594 -0.22209468 -0.31650463 -0.22902155
0.13274762 -0.021027884 0.43870118 -0.3908756 -0.4247546 -0.39312062 -0.43055916 -0.37300786
-0.31367812 -0.15608022 0.38916463 0.21290976 -0.113320135 0.0582578 -0.09105968 0.013244194
0.20139812 -0.29566115 -0.19226083 0.43676087 0.41697124 0.47138828 0.50392324 0.4633394
0.46497172 0.040058337 -0.15218696 -0.12655884 0.28577587 0.3518868 0.31185967 0.39314434
-0.3363834 -0.09532371 0.005635567 -0.08744471 0.0763004 0.19739956 0.35842577 0.10753179
0.3036408 -0.21202672 0.016973747 0.28092867 0.27166358 0.23328522 0.23989588 0.27230453
0.033699606 -0.013588848 0.09359641 0.107582845 0.29504415 0.30463418 0.28811523 0.26794598
0.035205543 -0.121623896 0.04059464 -0.030107312 0.32506436 -0.086586565 -0.033669416 -0.07744461
-0.042980686 -0.81514704 -0.67486054 1.5501144 1.7086289 1.7829629 1.7480041 1.7272403
0.66364807 -0.57906765 0.021038085 -0.6066583 1.1608737 1.2960984 1.2906209 1.2938678
-0.15700331 -0.17685044 0.22408721 0.021164976 0.16335148 -0.35661626 0.21036543 -0.11245516
0.3579042 0.586712 0.22089939 -0.7355415 -0.6768468 -0.6636024 -0.653786 -0.66372436
-0.26177445 0.31559524 0.5968854 -0.03663553 -0.52396387 -0.53077435 -0.5357412 -0.5782099
0.01369176 -0.03709591 0.26152024 0.20736715 -0.019707203 0.004097236 -0.46692166 0.15473713
-0.35352305 -0.3474706 -0.08282887 0.36790434 0.26856622 0.28316364 0.28447872 0.2155371
-0.11006951 -0.41011223 -0.25050017 0.09553034 0.25982055 0.26552278 0.27039924 0.21516615
0.26702613 0.01036072 -0.06796768 -0.12195937 -0.017756542 -0.31458062 0.021837754 -0.10442565
-0.014475644 0.13794608 0.14279878 -0.16910519 -0.16164452 -0.18780832 -0.23475121 -0.16432604
-0.17991823 0.72411066 -0.044450134 0.07871529 -0.15812828 -0.1793959 -0.17794593 -0.1171711

transformer_encoder.layers.0.self_attn.in_proj_bias f4 [72]
00000000: 5431 bbbe 1bb7 a4be 773d 603d ab67 20bf
00000010: 5460 cabe e540 b03e 05d0 9d3e 1ebb a53f
00000020: c6d7 13bf d906 733e 6b31 03be 9a43 c53e
00000030: 25cf ad3c acc9 e93e c3d9 88bf cdd3 ea3e
00000040: 817e b2be 44ca c0be 321c 563f b4c7 083e
00000050: dca0 22bf 886e 32bf 186c b9be 6dba 933f
00000060: d618 b73d 09aa 88ba 1a82 933d cd5f 973c
00000070: 4b99 83bc 9ce6 b1bd 7ecf a3bd d754 453c
00000080: 36c0 84bc 5c7c 7ebb 1742 36bd 781d 013d
00000090: 8be7 e8bc 25a2 9c3d 1810 243d ebed d339
000000a0: f9b4 363c 8ac5 11bb f7f7 79bd b2cb 2bbd
000000b0: 3683 633d f074 b43c 940d 3ebd d0c0 b2bc
000000c0: 9235 e93f d6c6 503f 9be1 583f 63c9 d9bf
000000d0: a856 c93e 466d ddbe 7c23 85bd 7932 2a3e
000000e0: c715 9cbe 585f a43f d648 193f be23 0fbf
000000f0: 8cad 933f 1126 b0bf 54bc 9f3f f52b 8ebf
00000100: 9c8e 81bf f07f 923f 32b1 b9bd 6b91 f03d
00000110: a2d9 38bf 926d 6abd a2b9 e23f df79 4abf
-0.36561072 -0.32170948 0.054746117 -0.62658185 -0.39526618 0.3442451 0.3082277 1.2947729
-0.5775112 0.23733081 -0.1281182 0.38528138 0.021216938 0.45661676 -1.0691456 0.45864716
-0.3486214 -0.37654316 0.8363677 0.1335743 -0.635267 -0.6969991 -0.3621528 1.1541268
0.08940284 -0.0010426651 0.07202549 0.018478299 -0.016064307 -0.086865634 -0.0799856 0.012044153
-0.016204935 -0.0038831448 -0.044496622 0.031522244 -0.02843072 0.07648114 0.04005441 0.0004042232
0.011151546 -0.0022242987 -0.061027493 -0.041942306 0.055545054 0.022028416 -0.046399668 -0.021820456
1.8219473 0.815534 0.84719247 -1.7014583 0.39323926 -0.43247432 -0.06500909 0.16620816
-0.30485365 1.2841597 0.59876764 -0.55913913 1.1537337 -1.3761617 1.2479348 -1.1107165
-1.0121646 1.1445293 -0.090670004 0.11746486 -0.7220708 -0.0572334 1.7712901 -0.7909221

transformer_encoder.layers.0.self_attn.out_proj.weight f4 [24, 24]
00000000: b9ae 803e f946 053d 3a2e fb3b 0836 d0be
00000010: 2394 3abd e297 64be 9e14 873e b99d 233d
00000020: 0a1f 4abe 453e eb3d d672 d13d c750 ad3d
00000030: 1b97 293e 0cef a3be cc4e e03e 2361 31be
00000040: 6097 acbe 6a1b 0d3e 654a d23d afdf e83e
00000050: 0d93 ea3d e75a 44be a772 613e a680 70be
00000060: 9c10 613e d496 b33c 7538 373d 7f07 5ebe
00000070: 328d 3b3e 23ec 26be 66d2 623d eb46 4f3d
00000080: 8f98 80be 5a83 2e3e 7916 5fbd 331c 90be
00000090: c267 8b3e 008a 5fbc 191f a23e 6acf c63d
000000a0: d784 fcbd 83cc 693e 4cec 8cbe 903f 19bc
000000b0: d78f 47be f2d3 3fbd 2732 d33e 267c 1fbe
000000c0: f7e0 00bf c340 37be ce6f fdbd fb4d 423e
000000d0: dbf4 27be f3cf 27bd f30a 1d3e 7ade 23bd
000000e0: 1607 01be 40b2 0fbe 8860 d23b 641e b83d
000000f0: 2613 04be 32da a73e 12ed 5fbe bbd9 953e
00000100: 6c33 413e cd13 e63d a402 2ebe 3def f53d
00000110: 724c 933d d2cc 833e 11e2 1cbe b55b 843d
00000120: a062 05bf e31d 04bd 94af c7be f26a 113e
00000130: d296 c83d 3ad3 bebd c2d5 84bd a342 bb3d
00000140: 1777 fbbd 1db1 11be b949 3fbe 5a21 23be
00000150: fadc 8f3d 31fd 8f3e 482a 183e 59d9 4f3e
00000160: da3a ec3d fc27 4f3e 9dc3 2c3e 3e0d 12bd
00000170: fa58 8d3e 72ad 3f3e c77a bbbe 4597 623e
00000180: a5c0 12bf 83cd e4be e149 743e 9ee8 b93e
00000190: 474b 21bd f14b cf3d 33a3 173c 1afb debe
000001a0: 824a 903c a318 ebbd 8303 88bd 2820 bd3c
000001b0: e966 47be 9031 263d 199f a8bd 0a2d 8cbe
000001c0: b7cf 0c3d ab79 eabe 2125 983d a322 7a3e
000001d0: 723b 1b3e 8510 afbe c72e 6abd 2df2 8c3e
000001e0: 2340 48be 61a0 89be 2eb8 00be 9974 b73d
000001f0: 6e96 b5be 9ac4 d4bd 3ebc fa3b 5423 923d
00000200: dbf5 a8be eb3a c33d b5b2 76bc 79b2 fd3d
00000210: 9bff 2d3e 4745 453e 0b27 abbe b2a4 693e
00000220: ee21 bbbc c477 dbbd 78b9 4bbe a200 103e
00000230: c482 c3bd 8944 39bd 3d51 c3bd 03f4 8abc
00000240: ebaf a4be 5d4e aa3d bb37 983e 2a6d f53e
00000250: 9ac2 0e3e a676 60be b3a5 a03d b873 babe
00000260: 01f3 9e3c c6e5 6dbe 17d5 2c3d 0421 d0be
00000270: e534 85bd 1a0d e2be aada e23c 4a68 c23d
00000280: 1cf0 bc3e c213 22be 63dc 26be 5b85 b33d
00000290: 76af 943e 452a 813d 233a 313e df5e e7be
000002a0: 7f44 473e 42cc 963c ac17 4dbc 8a34 2ebd
000002b0: d67c 20be 83df ba3d 6057 c8be 6bca 94bd
000002c0: 2356 783d fa7b 033d f3dd 063e 1726 efbb
000002d0: 83d7 b63d b5df 63be 01fa 88bc bead b9be
000002e0: bf5e a73c f58c 10be 738d 8d3e 15c1 24be
000002f0: 0ccd 773e 9461 91bd a3f9 3dbd 6d0f 993e
00000300: 521d ddbd cb26 96be c5e4 5ebb ee9d a13e
00000310: e002 843c 858d 063e 1541 68bd 4a75 7d3d
00000320: a994 193e b192 90be e62f a13d 3f86 d9bd
00000330: 907f b1bd 9ea4 013e d8d2 343e bef8 ef3e
00000340: 29b2 053e 37cc 30be b34f 0ebf 4f05 c8bb
00000350: 7f11 303e 362c a13c d096 47be dbc7 1e3d
00000360: 4419 523e afc9 8e3e eaee cbbc 0671 013f
00000370: beec 2dbe d813 a43d 02bd 5ebe f6e5 953e
00000380: f560 ca3e 7771 b6be 052f 263e b4f3 963d
00000390: 3dbb 91be fc9d 69be 4bbf 043e 96ff df3e
000003a0: 2a38 4b3e 2b04 e7be fe9a a3be 3045 f1be
000003b0: bdb0 9b3e a369 1abe f43f 0ebf 84db 21be
000003c0: 7164 2a3e 7297 13be 658e e3bd 1073 aebe
000003d0: 947a 8a3c 0ed4 993d 570b b3bd 1630 77bc
000003e0: 75ed 263e 626c d23c 60f8 3fbd f343 0d3e
000003f0: 7de0 0cbd a864 1f3d ee83 053f 79ce 92be
0.25133303 0.032538388 0.0076654227 -0.40666223 -0.04555143 -0.22323564 0.26382917 0.039945338
-0.19738403 0.11486486 0.10226981 0.08462673 0.16561548 -0.32018316 0.43810117 -0.17322211
-0.3370924 0.13779989 0.10268096 0.45483157 0.11453829 -0.19175301 0.22016393 -0.23486575
0.21978992 0.021922506 0.044731576 -0.21682547 0.1831558 -0.16301017 0.055376433 0.050604742
-0.25116393 0.17042294 -0.05446479 -0.28146514 0.27227598 -0.013643742 0.3166435 0.0970753
-0.12330025 0.22831921 -0.2752403 -0.009353533 -0.19488464 -0.046832986 0.412492 -0.15574703
-0.5034327 -0.17895798 -0.12374841 0.1897506 -0.16401999 -0.0409698 0.15336208 -0.040007092
-0.1260036 -0.1403284 0.006420199 0.089901716 -0.1289793 0.32783657 -0.21867779 0.29267678
0.18867272 0.112342454 -0.16993195 0.12008522 0.07192315 0.25742203 -0.15320612 0.06462804
-0.52103615 -0.032255065 -0.39001143 0.14200953 0.09794392 -0.09317632 -0.064860836 0.09143569
-0.12278574 -0.1422772 -0.18680467 -0.15930691 0.0702457 0.28122857 0.14859879 0.20297755
0.115346625 0.20230097 0.16871496 -0.03565716 0.27606946 0.18718508 -0.3661711 0.22128017
-0.573252 -0.44688043 0.23856308 0.36310285 -0.03937843 0.101219065 0.009255218 -0.4355095
0.017613653 -0.114793085 -0.06641295 0.023086622 -0.19472851 0.04057461 -0.082334705 -0.27378112
0.03437778 -0.4579595 0.07428957 0.24427275 0.15159395 -0.3419229 -0.057173517 0.27528515
-0.19555716 -0.26880172 -0.12570259 0.08957786 -0.3546633 -0.10389061 0.0076518347 0.071356446
-0.33000073 0.09532722 -0.0150572555 0.123875566 0.16992037 0.19264708 -0.33428225 0.22816733
-0.022843327 -0.10716203 -0.1989497 0.14062741 -0.09546426 -0.045231376 -0.09536979 -0.016962057
-0.32165465 0.08315728 0.2973002 0.47934848 0.13941422 -0.21920261 0.078441046 -0.3641641
0.019402983 -0.23232183 0.042195406 -0.4065019 -0.065042295 -0.4415062 0.027692158 0.09492548
0.3690194 -0.1582785 -0.16295008 0.0876567 0.29040116 0.063068904 0.17307334 -0.45189568
0.19459723 0.018407945 -0.012517851 -0.042530574 -0.15672621 0.09124663 -0.39129162 -0.07265171
0.06062902 0.032100655 0.13170604 -0.007298242 0.08927824 -0.22253306 -0.016720774 -0.36265367
0.02043092 -0.14116271 0.2764698 -0.1608928 0.24199313 -0.0709869 -0.04638065 0.2989458
-0.10796608 -0.29326472 -0.003401087 0.31565803 0.016114652 0.13139923 -0.056702692 0.061879434
0.14998116 -0.28236917 0.07870464 -0.106213085 -0.08666909 0.12660453 0.17658556 0.46869463
0.13056244 -0.17265402 -0.5559036 -0.0061041485 0.17194174 0.019674402 -0.19491124 0.038764816
0.2051745 0.27888247 -0.024894197 0.50563085 -0.16984841 0.080115974 -0.21751788 0.2927701
0.39527097 -0.35633442 0.16228874 0.073707014 -0.28463164 -0.22814173 0.12963597 0.43749684
0.19845644 -0.45120367 -0.31954187 -0.47123098 0.30408278 -0.1507936 -0.55566335 -0.15806395
0.16639878 -0.1441324 -0.11111144 -0.3407216 0.016904153 0.07511149 -0.08742397 -0.015087148
0.1630152 0.025686447 -0.04686773 0.13795452 -0.034393776 0.038914353 0.52154434 -0.2867315

transformer_encoder.layers.0.self_attn.out_proj.bias f4 [24]
00000000: 6725 febd 10f4 fa3c e53d 0bbe a69d 173f
00000010: 5693 f03c 1291 d73e 78fe 34be 8688 8dbd
00000020: a894 023e cb4c 6d3d 45a7 a03d 95a7 afbc
00000030: 06b4 043e 416b 773c de91 a6bd c597 81bd
00000040: 0b28 6fbd fd9b b43d 776f 90bd b1ea 98be
00000050: 0230 aebd 37ad 96bd 3c98 163e 85bc 3ebe
-0.12409478 0.030633956 -0.1359783 0.5922493 0.02936713 0.42102867 -0.17675197 -0.069108054
0.1275202 0.057934564 0.07844404 -0.021442214 0.12959298 0.015101255 -0.08133291 -0.06327776
-0.058387797 0.08818815 -0.0705251 -0.29866555 -0.085052505 -0.07357257 0.1470651 -0.18626602

transformer_encoder.layers.0.linear1.weight f4 [16, 24]
00000000: 4147 573e aa33 b93d 4b21 b6be 64c1 44be
00000010: 8c02 3b3e bbb5 48be 7919 8c3e a267 c9be
00000020: 6e4d d7bb 4747 203e a9d3 e4bd 006e a7bc
00000030: 9230 17bd fe5b df3c 2443 993e a22c 833d
00000040: 4637 26be 847e 0f3f 2aac e03d c715 733e
00000050: 442a d9be 15f1 27bf 636c b73e 3ee1 86be
00000060: d641 103f 9f12 b53c c891 c5bd 1189 25be
00000070: ad3b 243e 2a93 7e3e dfcc 7abe ae48 353e
00000080: 96fa 8fbe cbbd 00be db20 173e 2bfb ccbd
00000090: cf89 d63d 454b efbd 98e9 a33e 5238 b5bd
000000a0: 5c5d 683e afaa f83d 3ff6 92bd cac9 883b
000000b0: 1fad e9be 8437 c1be 37b7 a7bd 43a6 a1bc
000000c0: b16a 88be 4608 54be 779f a43e a94e 203e
000000d0: 8ffe bebd e618 27be 8d26 c03d 99d9 82be
000000e0: 01fc 9bbd d57a 36bd 8789 b2be 14e7 2ebe
000000f0: eb45 cebc 1a1f 95be b7f8 aabe f506 243f
00000100: 49cf a33e ab19 013f 8ea3 3a3d f7ab 413f
00000110: 9f21 553d db3d 12bf fa9e f13c eb44 1dbe
00000120: 6886 4c3e 8fa5 89be cd94 5a3d 7f08 5fbe
00000130: 6447 a23d 9e15 b03d 0a61 0c3e 9880 a63d
00000140: 401f 2abd 9e72 a0bd f99e 2b3e 79d4 463f
00000150: 8a9b 013f 3cc7 1d3e 7252 44be d843 02be
00000160: 2c6f acbd d449 7cbe 5ab0 5fbe 0562 e9be
00000170: abc5 853d c3b8 653d a9ec d9be b8f3 263e
00000180: 75bb 913e 291e ba3d feef e5bc a9b7 e5be
00000190: e292 eb3c 2ffe 1b3e 26a4 4d3e ee01 adbe
000001a0: f40c f2bd 1bb7 f43c f444 d6be 406d ce3e
000001b0: a4bc 1b3f a9dd 823e 91ca 223d 2d44 abbd
000001c0: fc77 d2bd 9c19 803e c07d a7be 6874 a83c
000001d0: 03d4 d13c b9f1 2abe a462 14be 0730 e2bd
000001e0: 664a 1bbd 9412 75be 08a9 80be 389a 40be
000001f0: 1260 3b3f 3a67 9cbe 4bf6 a63e 25e6 ec3e
00000200: 3d63 99be c20d 94bd 94d6 17bd 178b fc3c
00000210: 20c3 7a3d ceb0 b9bc 25cb 033e babf 02be
00000220: f2b5 17bd 4ca6 883d ab27 c5be 85d3 263e
00000230: f1c1 d43d 3c1e 9e3e cd21 893c 0958 9fbe
00000240: 7dee 02be 5639 a7be 8605 0c3e e9b1 d0be
00000250: 07a4 30bd edda f83e 99d8 ffbd 1cee a5be
00000260: 41f4 70bc 058c bc3e 3cd8 fdbe 71f8 303c
00000270: c097 1ebc a7db e83e 7627 1cbe d02b ad3d
00000280: 9739 1dbe d2c4 a93d 8b23 24be 0e98 933e
00000290: 61d4 b8be b2ab 04be 08f9 3d3d 5fd1 163f
000002a0: d3c2 6c3e 4559 bf3e 778d 7fbe acfc b4be
000002b0: 5e25 dcbe 8b90 52bd b56b 62be 03b6 bfbe
000002c0: d7df 8ebe 35bb 86be 13d4 debe 94d4 aabd
000002d0: 7614 8d3e 60c3 643d b330 7c3e c8d2 533e
000002e0: 2603 87bd dea0 1b3f d12d 673e 3fc9 29bd
000002f0: c634 db3d 121b 0cbe f5c9 c23e 5aa7 28be
00000300: f2b7 07bc 4877 05be fa0e 9e3d 3f92 5ebe
00000310: 6e7c 213f 31cd 4d3e 2aab dbbb ca90 463e
00000320: 922b 213e 7cda bdbd 2a8e d23e 8f3e ea3e
00000330: 4fcc 9ebe a328 18bd 361e cd3d ba95 c23c
00000340: 1f6b 933c 098d ccbe e2b4 4abd c0bc 10be
00000350: 8b6a 3bbf 7dc3 b9be 55d0 c5bd a605 0e3e
00000360: f8f3 993e 707c 943e 2995 0b3f 97ac 143e
00000370: e0fb 44bd facd c63e df7e 643e 9986 97be
00000380: fdcc 083e e8bc 74be 873f 53be 0c1f a73e
00000390: f135 8d3e 91c6 00be ab2d b6bd 7d16 f4bd
000003a0: e6c3 f4bd 5a7e 94be 671d 8ebe 834b d93e
000003b0: 1949 913d 51ed afbe 74f0 a9be 236b 213d
000003c0: 6056 90bd 50f4 2d3e 8a36 d63d 2365 0dbf
000003d0: e823 2bbe 474b 123d b8da 8abd 2013 e1be
000003e0: 77de cc3e c486 713e 373e 113e 8e88 6e3e
000003f0: 6c4f 2e3e 1255 69be 43ad 5bbe 4d79 073f
0.21023275 0.09043057 -0.35572276 -0.19214398 0.1826269 -0.19600575 0.27363184 -0.39336878
-0.0065705096 0.1565219 -0.111731835 -0.020438194 -0.036911555 0.027265545 0.29934037 0.064049974
-0.16232023 0.5605242 0.10970338 0.23738776 -0.4241506 -0.65602237 0.3582488 -0.2634372
0.5635046 0.022103606 -0.09646946 -0.16165568 0.1603839 0.24860826 -0.24492215 0.17703506
-0.2812087 -0.125724 0.14758627 -0.10008844 0.10475504 -0.116842784 0.32014155 -0.08848633
0.22691864 0.1214193 -0.07175874 0.0041744458 -0.45639893 -0.37737668 -0.08189242 -0.0197326
-0.266439 -0.20706281 0.32152912 0.15655006 -0.09325897 -0.16318092 0.09382353 -0.2555664
-0.07616425 -0.044550736 -0.3487055 -0.17080337 -0.025179824 -0.2912529 -0.3339288 0.64073116
0.31994084 0.5042979 0.045566134 0.7565302 0.052034017 -0.57125634 0.029494751 -0.15358321
0.19973147 -0.26884124 0.053364564 -0.21780585 0.07923773 0.08597873 0.13708892 0.08129996
-0.04153371 -0.078343615 0.16759862 0.7766796 0.5062796 0.15408033 -0.19172075 -0.12721193
-0.08419642 -0.24637538 -0.21844617 -0.45582595 0.06531843 0.056084406 -0.4256337 0.16303909
0.2846333 0.09087784 -0.028068539 -0.44866684 0.028756563 0.15233682 0.20082149 -0.33790535
-0.11818877 0.029872468 -0.41849482 0.40317726 0.6083472 0.25559738 0.039743964 -0.08362613
-0.102767915 0.25019538 -0.32713127 0.02056332 0.02561379 -0.16693772 -0.14490753 -0.11044317
-0.03791275 -0.23932868 -0.2512896 -0.1880883 0.73193467 -0.30547506 0.32609782 0.46269336
-0.29958525 -0.072291866 -0.037069872 0.030828042 0.061221242 -0.022667315 0.12870462 -0.1276845
-0.03703875 0.066723436 -0.38506827 0.16291626 0.10388554 0.30882442 0.01673975 -0.31121853
-0.12786289 -0.3266093 0.13673982 -0.40760735 -0.04312518 0.48604527 -0.124924846 -0.32408226
-0.014706672 0.36825576 -0.49579036 0.010801421 -0.009679735 0.4548008 -0.15249428 0.08455622
-0.15354 0.082894936 -0.16029184 0.28826946 -0.36099532 -0.12956122 0.046380073 0.58913225
0.23121195 0.37372795 -0.24956308 -0.35349023 -0.4299726 -0.05140738 -0.221114 -0.3744355
-0.2790515 -0.26314703 -0.43521175 -0.08341327 0.27554673 0.055850387 0.24627952 0.20685875
-0.065923974 0.6079234 0.22576071 -0.04145169 0.10703425 -0.13682202 0.38044706 -0.1647009
-0.008283602 -0.13033783 0.077177 -0.21735476 0.6308049 0.20097806 -0.006703754 0.1939117
0.15739277 -0.09270188 0.41124088 0.45750853 -0.3101525 -0.03714813 0.10015528 0.023753036
0.017995415 -0.3995135 -0.04948891 -0.14134502 -0.73209447 -0.36281958 -0.09658877 0.13869342
0.30068946 0.29001188 0.54524475 0.14518963 -0.04809177 0.38829023 0.22314022 -0.29594877
0.13359447 -0.23900187 -0.20629703 0.32640874 0.27580217 -0.12575747 -0.08895429 -0.11918352
-0.11951427 -0.2900265 -0.27756807 0.42440423 0.070940204 -0.34360746 -0.33191264 0.039408814
-0.07047725 0.16987729 0.10459621 -0.5523245 -0.16712916 0.03571632 -0.067799985 -0.43959904
0.40013477 0.23586565 0.1418389 0.23294279 0.17022485 -0.22786358 -0.21452813 0.52919465

transformer_encoder.layers.0.linear1.bias f4 [16]
00000000: 588d 2abe a0e3 c8be 31d2 68be 1e3c 54be
00000010: ec58 6fbe 0f06 5abe e31b aabd b78b c3bc
00000020: 1637 71be bd69 37be 63e3 72be 5ab5 e2bd
00000030: 54ce aabe 8a06 11be 8340 a6be f5a3 53be
-0.16655481 -0.39236164 -0.22736432 -0.20726058 -0.23373765 -0.21291374 -0.083061 -0.023870332
-0.2355617 -0.1791143 -0.23719554 -0.11069746 -0.3336054 -0.1416265 -0.32471094 -0.20668013

transformer_encoder.layers.0.linear2.weight f4 [24, 16]
00000000: 4d43 99be ae4f 51bd 3cad dbbc 9fa1 25be
00000010: 4c1b e13d 0f64 cc3d 3b90 36bd b3c1 b7bd
00000020: 41d1 04be 7796 02be c803 cb3d aeb2 833e
00000030: 376e f03e d577 173e 9de1 81be fd8c 683d
00000040: 92ba 443e 27cb f73d 8718 febd 55a9 f33d
00000050: e889 d73d 2e20 0d3e d2e0 b2be 6e33 b7be
00000060: f544 08bf 9fe2 67bd 8b17 c53e a51e 81be
00000070: 2d1d dbbc 10b2 94bc 97b0 55be de79 b5bd
00000080: 28d2 4e3e ac81 ddbe 5802 563d 5f76 253e
00000090: dda9 363d 5550 91bc e0e1 5d3e 950c 4bbe
000000a0: 57a2 593e 5555 353d b7b5 f8bd 3ace ffbd
000000b0: 3305 cbbe 35c4 41be 5547 58be ce3c 053f
000000c0: 0bf0 003e 9ffc 0a3e 76fe 5b3e 8c5a 21bd
000000d0: e2bb 063e fab9 84be 1563 d3be 00ae a7be
000000e0: 26d0 683e d309 77bd 8fb4 903d 13a9 13bf
000000f0: 980a bdbe 5164 19bf bf17 0f3e 5163 903d
00000100: aece 393c 2212 7a3c 21cd e43d 78f6 873e
00000110: d550 febe 1404 e1be e663 de3c 4fee c43d
00000120: b045 8abd ef08 3fbe d76d 43be 9775 d33e
00000130: d73c 2cbe 3f23 933e cf51 a4be 8713 14be
00000140: e772 ca3e 2a6b d7be 7dad 98be 22a0 95be
00000150: b174 a2be 9087 ac3e c26d 303e 45fc 54be
00000160: f1e0 dd3b e458 97be a864 34be b3d4 dc3e
00000170: 3695 c83e 27c5 cfbe 6e21 f9be 5079 62bd
00000180: d22b 3dbe e178 bd3e 9eab 833d ef3e febd
00000190: ca03 8f3e 949c d6bd 12b8 903e 2fb6 673e
000001a0: fff1 9c3c e5f2 0c3d 529b d73c d49f 93be
000001b0: e555 31be 2e18 883e 8423 063f a62d a6be
000001c0: 4379 993e fedf bebe f62d f0be 809e 61be
000001d0: e7ca 90bd 9b13 f8be e1f5 863e 86e9 e43d
000001e0: 4392 f6be 44ab 53be 1350 873d ee9c 913d
000001f0: 3c06 383e b235 bcbe cc47 943d 7ecc c73e
00000200: d370 13be b99c e13d 3c0b 5b3e b5af 81be
00000210: fbde 00bf 68d5 a9bd 4f91 75be f2d0 ed3e
00000220: 256d a9be 36a0 55be b2a1 92be abb6 813e
00000230: 2840 93be 77ae 983d 06ee 86be f33b f63e
00000240: 6e24 e1be 9e0b 8abe ed0c 133f 8e33 313e
00000250: 357f 0fbe 4aed 353e 7f14 aa3e 500f f13e
00000260: bee0 243e 07c5 1a3e 503b 27bf d06e 913c
00000270: 21cf 213e ae7b e1bd 3e98 293e c320 2dbe
00000280: 151e cebd 4bce dc3c 843f 3e3e 89c8 d13e
00000290: 3ec4 613e 6057 60be 1d6f 3b3e 76fd 203e
000002a0: ebd2 f9be 56bf 4cbc 140c 64bd 2367 cfbc
000002b0: f89c 47be 69e7 033e 94d3 bbbe acb9 11bf
000002c0: b8e8 92be 51a3 773d 9eb0 9d3d 5b8b 33bf
000002d0: 1195 0abe 9f1e ad3e 9cfe ef3c 6a58 2e3e
000002e0: 09e7 8fbd a764 5dbd 334d b43e 1d87 a1be
000002f0: bd2d 9bbe 0482 b73e a3e7 ce3d a202 0c3e
00000300: ca11 873e 3473 5bbe c7d7 5fbd 06af 45be
00000310: c1a0 0c3e 8369 e53d e8bb bfbe a250 15be
00000320: 2f88 1e3f f2ac d0be 5b94 5cbe 75e3 2ebe
00000330: 3c0a ce3e 3700 ef3d 2690 083f 4888 23be
00000340: 421d 26be cef1 3d3f 50aa c73e 5cc5 38be
00000350: d499 a93d 3db9 713e 0b5a c4bd ca27 ccbd
00000360: efe5 893d fa6d c43e b3b3 bb3e 63aa d43d
00000370: cc90 8ebe 026f 36be eccb 703d 7f1e acbe
00000380: eb48 d7be f9f4 d53e 67db c1be 46ac 0e3e
00000390: 40d7 f3bd 7f54 b43d 801b 423e e243 e43e
000003a0: 6ca6 57be 238b 863e 0716 d7be f1b0 dcbe
000003b0: ed13 5fbe 5350 84bd 6546 633c 25f5 533e
000003c0: b683 39be 2015 003e 856b c5be 71f1 193e
000003d0: 9d29 e73e 31da f4bd 8d2a 64be a7ab 53bd
000003e0: 9dd5 b43c c2df bd3e 62e3 4bbd 7bc7 483e
000003f0: 7cea 04be 9583 4b3e 17e0 94be aadb 0bbe
-0.2993416 -0.05110138 -0.026816003 -0.16174935 0.109915346 0.09980022 -0.044571143 -0.08972492
-0.12970449 -0.1275271 0.099128306 0.2572226 0.46959087 0.14791806 -0.25367442 0.056775082
0.19211796 0.12099295 -0.12407022 0.11897532 0.105243504 0.13781807 -0.3493715 -0.35781425
-0.5323022 -0.056612607 0.38494524 -0.25218692 -0.02674731 -0.018151313 -0.20868145 -0.08861135
0.20197356 -0.43262994 0.05224833 0.16158436 0.044595588 -0.0177385 0.21668196 -0.19829018
0.21253334 0.044270832 -0.12144034 -0.124905065 -0.39652404 -0.18922503 -0.21120961 0.52045906
0.12591569 0.1357293 0.21483788 -0.039392993 0.13157609 -0.2592314 -0.4128653 -0.3274994
0.22735652 -0.060312103 0.07065689 -0.5767986 -0.36922145 -0.59918696 0.13973902 0.07050193
0.01134078 0.015263112 0.11171938 0.26555228 -0.49671045 -0.43948424 0.027147245 0.09615766
-0.06751573 -0.18655752 -0.1908487 0.4130065 -0.16820084 0.28737828 -0.32093665 -0.14460574
0.3954079 -0.42073947 -0.2981986 -0.29223734 -0.31729653 0.33697176 0.1722937 -0.20799358
0.0067712 -0.29560006 -0.17616522 0.43131027 0.3917634 -0.40580103 -0.48658317 -0.055291474
-0.18473747 0.37006286 0.06429218 -0.124143474 0.27932578 -0.10479084 0.28265435 0.22628091
0.019158361 0.03441133 0.02631918 -0.28832877 -0.17317922 0.26580948 0.5239794 -0.32456702
0.29975328 -0.37280267 -0.46910065 -0.22033119 -0.070699506 -0.48452458 0.26359466 0.111773536
-0.48158464 -0.20670801 0.0660707 0.0711001 0.17971128 -0.36759716 0.07240257 0.39023203
-0.14398508 0.110162206 0.21391004 -0.25329366 -0.5034024 -0.08292657 -0.23981212 0.46448475
-0.33091083 -0.20861897 -0.2863899 0.25334677 -0.28759885 0.074551515 -0.26353472 0.48092613
-0.43973106 -0.26961988 0.574416 0.17304823 -0.1401337 0.177663 0.33218762 0.47081995
0.16101357 0.15114222 -0.6532488 0.017753035 0.1580167 -0.11009918 0.16561982 -0.16907029
-0.100643314 0.026953837 0.18578917 0.4097331 0.22047517 -0.21908331 0.18304105 0.15721688
-0.4879373 -0.01249679 -0.05567558 -0.025317734 -0.19493473 0.12881245 -0.3668486 -0.5692394
-0.28693175 0.060458485 0.07699703 -0.70134515 -0.13533427 0.33812425 0.029296212 0.17025915
-0.07026488 -0.054051068 0.35215148 -0.31548396 -0.30308333 0.35841382 0.10102775 0.1367288
0.2638076 -0.21430665 -0.05464914 -0.19305047 0.13733198 0.112017654 -0.3744805 -0.1458154
0.6192655 -0.40756947 -0.21540968 -0.17078955 0.40242183 0.11669963 0.53344953 -0.15969956
-0.16222098 0.7419709 0.38997126 -0.18044037 0.082812935 0.23605819 -0.09587487 -0.09968527
0.067333095 0.38365155 0.36660537 0.10384061 -0.27844846 -0.17815784 0.058788225 -0.33617017
-0.4204782 0.41788462 -0.37862703 0.13932905 -0.1190629 0.08805179 0.18955803 0.4458304
-0.21059579 0.26278028 -0.42008993 -0.43103746 -0.21784945 -0.06460633 0.013871764 0.20698984
-0.1811665 0.12508059 -0.38558593 0.15033509 0.45148936 -0.11955679 -0.22281857 -0.051677372
0.022074515 0.37084776 -0.049777396 0.19607346 -0.12980074 0.19874413 -0.29077217 -0.13658014

transformer_encoder.layers.0.linear2.bias f4 [24]
00000000: cc4f 24be 527e 5fbd 6226 c63d 8720 073e
00000010: c14d 1c3e a88e dc3d cff1 09be 6abc ce3c
00000020: 88c5 ec3c a59f d1bd a244 f93c 457e 993c
00000030: 4ef5 473d b1b6 25bd d69e 813c 88fa 203e
00000040: efc2 e63d 3cc6 09bd f385 31be 203f 71bc
00000050: 061e 90bc ce21 61be fdca 15be 2b64 743c
-0.16046065 -0.054563828 0.0967529 0.13196002 0.15264036 0.10769397 -0.13471149 0.025236327
0.028902784 -0.10235528 0.030428234 0.018736968 0.048817925 -0.04045743 0.01582281 0.1572057
0.112676494 -0.033636317 -0.17336254 -0.014724523 -0.017592441 -0.21985552 -0.14628215 0.01491646

transformer_encoder.layers.0.norm1.weight f4 [24]
00000000: a044 373f ff9a 073f 0cff c13e e655 403f
00000010: 9fa4 d13e 8c58 1b3f a7fc 803e 8f65 f23e
00000020: 2555 d63e 3227 1d3e aea0 0d3f 4866 b33e
00000030: 1dca b43e 2bbe b83e 742f ef3e ec52 553e
00000040: f6f6 9d3e 479b b23e c969 9c3e ecf5 1b3f
00000050: 7feb 0a3f ba9c fd3e c1ba c03e c188 0c3f
0.7158909 0.5297088 0.37889898 0.7513107 0.40945908 0.60681987 0.25192758 0.47343108
0.41861835 0.15346983 0.553233 0.35038972 0.3531045 0.36082587 0.4671589 0.20832413
0.3085248 0.34884092 0.30549458 0.6092212 0.5426559 0.49533635 0.37642482 0.5489617

transformer_encoder.layers.0.norm1.bias f4 [24]
00000000: db63 b2be 8a43 7abe 293d bb3c 7761 8d3e
00000010: 5fa4 133e 172c ca3b b300 89bd 59d6 a13d
00000020: 6747 e03d 2f9a b73d 3d0e e5bd fb7e e1bd
00000030: a01d b5bd cc17 073e 9383 49be e4d5 d0bc
00000040: dca1 c63c cbb2 e63c 7f65 8abd 2dea 173e
00000050: 5e40 eebd f62b d5bd dbb3 743d 2952 d23d
-0.3484181 -0.24439827 0.022856312 0.27613422 0.14418171 0.0061698067 -0.066895865 0.07902212
0.10951119 0.08964955 -0.11184356 -0.11010548 -0.08843541 0.13192672 -0.19679098 -0.025492616
0.024247102 0.028161427 -0.0675764 0.14835425 -0.11633371 -0.104087755 0.059741836 0.10269577

transformer_encoder.layers.0.norm2.weight f4 [24]
00000000: e205 cf3f aab0 883f e5e7 b43f 040d 4d3f
00000010: 8a95 d73f f9bb 993f 6c3c b03f a92a ce3f
00000020: 47e0 963f b334 c73f 34d8 ce3f 78b8 a83f
00000030: 8e97 b33f e4cb d33f 3a93 b53f f215 0040
00000040: f492 c33f 48d5 873f 862f a23f 477d a43f
00000050: 968f c43f 28ad d93f f61d 7d3f 45ee aa3f
1.617367 1.0678914 1.4133269 0.80097985 1.6842511 1.201049 1.3768439 1.6106769
1.1787194 1.5562958 1.615973 1.3181295 1.4030626 1.6546597 1.4185555 2.0013394
1.5279222 1.0611963 1.2670753 1.2850732 1.5356319 1.7005968 0.9887384 1.3353964

transformer_encoder.layers.0.norm2.bias f4 [24]
00000000: 440f e93d f902 f83d 47e5 b33a 8f18 01be
00000010: 99de d03d 93fc 0c3e c878 33be 9296 50be
00000020: c83d 07be 5af3 01be 71c5 093e a9b0 8fbd
00000030: 255f 223e 3736 c0bc b79f 16bd 4ffb e73d
00000040: be1b a23d 843e cabc 7ef3 03be 5a67 45bc
00000050: 2583 aebd 3960 81bd 6621 b2bd 96e8 3b3d
0.11379865 0.12109942 0.0013724946 -0.12607025 0.10198707 0.13768224 -0.17526543 -0.20369938
-0.13207161 -0.12690488 0.13454224 -0.07016117 0.15856607 -0.023463352 -0.03677341 0.1132723
0.07915448 -0.024688013 -0.12885854 -0.012048567 -0.085211076 -0.06317181 -0.086977765 0.045876108

MLP_encoder.weight f4 [8, 8]
00000000: d765 a0ae 6fd1 182e 697c c52d fc02 c42e
00000010: 1aeb 82ae 13e5 f0ad e74f 5e2e ed1f e3ad
00000020: 7073 d02e 49b8 d3ad 20fe a12e 79a0 372e
00000030: c0a8 c8ad cfca b7ae dc2e 2e2e 8954 c7ae
00000040: 6d80 aeae 4e85 902d d044 c8ad 1a56 2fae
00000050: f8d5 102e 45da 782e 183f 46ae f0b8 862e
00000060: bb26 e12d fb92 c8ad 445b 002e 35d8 c4ac
00000070: 39d4 802e 6163 722e 3b6b 9c2e 08ac 8bac
00000080: 75b7 bd2e 4cd6 552e a33f 242e 2b8f 2d2d
00000090: 1cdd b3ae 8d39 8cae a9ba 4d2d 734a 7d2e
000000a0: f153 41ae 0ead b72e ce59 73ad 2c37 632d
000000b0: 67ef 582e a0e7 fcac 41e0 3f2d 7f20 20ae
000000c0: 1036 84ac 7a9a fc2d f568 b32e 9670 2cae
000000d0: 5ca4 232e 8040 9fad f62e 84ae c79a c1ae
000000e0: 4646 9fad 5d42 b3ae 3491 152d 0794 82ad
000000f0: cc85 112d 46e0 c52e 2560 55ad 26fe 5fae
-7.294048e-11 3.4746813e-11 2.2451556e-11 8.913578e-11 -5.953478e-11 -2.738657e-11 5.0547923e-11 -2.582109e-11
9.479251e-11 -2.4069762e-11 7.366574e-11 4.175191e-11 -2.2812308e-11 -8.3579026e-11 3.960464e-11 -9.064489e-11
-7.935417e-11 1.6430104e-11 -2.2767926e-11 -3.9866867e-11 3.293185e-11 5.6582534e-11 -4.5076026e-11 6.126466e-11
2.5596738e-11 -2.280264e-11 2.918489e-11 -5.594659e-12 5.8584644e-11 5.5112696e-11 7.1131066e-11 -3.969717e-12
8.6273134e-11 4.8620927e-11 3.7345804e-11 9.865701e-12 -8.1792545e-11 -6.376686e-11 1.1694348e-11 5.7591664e-11
-4.3957674e-11 8.352617e-11 -1.3832891e-11 1.2915707e-11 4.9325346e-11 -7.1879863e-12 1.0906887e-11 -3.640865e-11
-3.757668e-12 2.8717684e-11 8.158622e-11 -3.920827e-11 3.720789e-11 -1.8104851e-11 -6.011007e-11 -8.804118e-11
-1.8107415e-11 -8.151766e-11 8.501911e-12 -1.4845026e-11 8.272005e-12 8.998362e-11 -1.2128997e-11 -5.093006e-11

MLP_encoder.bias f4 [8]
00000000: 65db 213e f4f5 9a3e cc41 323e 1699 79be
00000010: 10a6 b33e 3e8a abbe 7787 983e 93c9 36be
0.15806349 0.30265772 0.17407912 -0.24374804 0.35087633 -0.33503908 0.2979085 -0.17850332

mlp.0.weight f4 [24, 24]
00000000: 9f35 23bf 2057 75be f673 e83e 2dae fc3b
00000010: 8e0d 233c 9b82 7f3e 33f8 293e 137c cb3d
00000020: ee80 a23e b53c 9b3e 443c 4cbf 194d 483f
00000030: ed7f ee3c 5467 34be 87ec 1e3e 2d4f 9bbe
00000040: b5f7 d8be 66a6 8a3e db00 e4be b558 3b3e
00000050: d5ad be3d b7f3 a0bd 43b4 ac3b 8f53 8b3d
00000060: 2df2 663d dc74 98be 5f4a d0be 4378 3dbf
00000070: dcf6 41be 0ee0 b13e 47a6 353d ae15 473d
00000080: d404 abbd 85a3 323f a2e0 0bbe c2a9 b1be
00000090: bc23 373f d305 2d3e e589 43be 422a a3b9
000000a0: 0718 073f d69a a4be c780 97be c6e4 23be
000000b0: b507 2c3e 5b67 223f bb26 1cbd a906 e43d
000000c0: 692b d33e 121a 613d a0e3 133f 5aa0 e23d
000000d0: a07b 003d 5f3b 1a3f 815c dbbe 3e5f d43e
000000e0: d335 afbe aa0a 14bf ff74 77be 8861 c5be
000000f0: cd35 243e 867c cc3d 628c d9be 3b15 7a3d
00000100: 461a 1d3f d344 ef3d fab8 993c 1182 a23e
00000110: 9eb6 b5bd ee4a f8be 993e 973e c33f 05bf
00000120: a582 53bf 6f2c 83be 14fa 353f 23d7 873e
00000130: f1de 083f 23ad 643d ccf0 47be 3f22 98be
00000140: 9930 e23d e1fd 4ebd 63d5 103e c427 403e
00000150: 2acf 03be c5c3 e8be 65e6 e8be 59a7 df3e
00000160: d0af ae3e 1d28 073e 8e78 ab3e 6b9a 2d3d
00000170: 33cb 213e 20de 10be 8a4d d9bc 6ce7 2bbe
00000180: 7c41 283e 316a c23d 1ff7 f5be e1e9 a3bd
00000190: db8c 8e3e 6d63 d5be 9576 423f 0727 babd
000001a0: e6be e7bd 99fc 9c3d e73d 2d3f d019 043f
000001b0: ab33 6d3e a44f 8b3e b57e 70bd 1ef0 a33e
000001c0: 95fc 043f 00e2 85bf c709 14bf 9298 1bbe
000001d0: 8a2e 77bd 16c9 5dbe 8718 29bf 4bf9 843e
000001e0: 6fcc 523f 9734 84be d857 d63e 5008 9fbd
000001f0: 5c8f c03e aca5 ce3e b421 36be 9df9 4cbd
00000200: 9a6c ae3e a6c0 c2bd a3a7 863e c653 5c3e
00000210: bc88 c2bd 5fca 8f3e 609b dc3e 22d1 e13c
00000220: a72b e4be 2330 07bf 10ee 83be acb9 f2be
00000230: 9f63 3dbf 37cd bebe a81e eabe 3454 c33c
00000240: ee3e 5f3e c24c b83e 2c81 98be 19ba 8c3e
00000250: 6df9 bfbe 10a2 1fbf 74ac 253e 60d1 00bf
00000260: f771 27be 555d 2cbf 2ce0 11bd 192f 1e3e
00000270: 4687 e83e 97a2 68be ea88 273e c1d9 143f
00000280: 662d dabe 94e5 ab3e ecd2 f2bd 43f6 383b
00000290: 4a25 d43e eeef 94be 0d43 4fbe afa5 223d
000002a0: b5df 63be 3353 3b3f 9722 3cbf 37ed b03e
000002b0: 0e5c 1c3f 4065 49bd 8fce 023e fba6 1bbf
000002c0: 5512 6e3e a49e 32bf 677c 0e3f c801 febd
000002d0: dade 093f e6bd 1cbe 283e adbd a03d 813e
000002e0: 39e6 bcbc f16e 9bbd e741 0cbe f237 083d
000002f0: da02 bdbe af91 8a3c 9ac7 edbe 530c f4bd
00000300: 2c78 02be 7343 9b3e c729 8bbd 6b1d 103d
00000310: 4990 b5be 2a93 cf3d 30f2 b4be e87e 96bd
00000320: 3670 c03e 2dd8 0c3d cf9d acbd 02a7 cbbd
00000330: 2154 023f 435c 1fbe 4dba 52bc bf34 20be
00000340: 12ab c13c d2ba 323e ac0f 9dbc 0a83 1abf
00000350: 3d19 8f3e 8872 90be 5a40 fa3d 4ed9 433c
00000360: f4a1 abbe 8178 353e 0a3f bbbe 22f1 04be
00000370: e2ee 643e e2e1 4b3e d266 90bd 91bd 0c3e
00000380: eb5f 1e3f ce2e ab3d c396 bf3c 8dd5 e13e
00000390: dc48 12bf edd5 f5be da0f 97bd c176 c4be
000003a0: bf61 2b3e cada 04bf cb4f 8a3e cbec 263e
000003b0: 00d1 0b3f d846 1ebe 1c07 5e3b 2885 4f3e
000003c0: 1d57 6abe 586d 223e a140 07bf fe50 c1bd
000003d0: 7181 ab3e 3083 7dbe b3d3 303f b0db 493f
000003e0: 67ed d43e 6853 4abe 9e43 8cbe 81bc a93e
000003f0: 4384 043e 13d5 9c3d 4764 3b3e 85dd 8cbf
-0.63753694 -0.23959017 0.4540097 0.007711193 0.009951962 0.24952166 0.16598587 0.09935775
0.3173899 0.30319753 -0.7977946 0.7824264 0.029113734 -0.17617542 0.15519916 -0.30333844
-0.42376485 0.27080077 -0.44531903 0.18295558 0.093104996 -0.07858985 0.0052705123 0.06803047
0.0563833 -0.29776657 -0.4068174 -0.7401163 -0.18941826 0.34741253 0.044348028 0.04860466
-0.0835053 0.6978076 -0.1365991 -0.34699827 0.715389 0.16896753 -0.19095571 -0.00031121267
0.5277104 -0.3214938 -0.29590437 -0.16005239 0.16799815 0.6343896 -0.038122874 0.11134083
0.41244057 0.054956503 0.57769203 0.11065741 0.031367898 0.60246843 -0.42844012 0.41478914
-0.34220752 -0.5782877 -0.24165724 -0.38550973 0.16036148 0.099846885 -0.42489916 0.061055403
0.61368215 0.11683049 0.018764962 0.31739858 -0.08872722 -0.48494667 0.29539946 -0.5205042
-0.8262122 -0.25619838 0.71084714 0.26531324 0.5346518 0.05582918 -0.1952545 -0.29713628
0.110444255 -0.050535087 0.141439 0.1876517 -0.12871996 -0.4546186 -0.45488277 0.43682364
0.3411851 0.13198896 0.33490413 0.042383593 0.1580017 -0.14147234 -0.026526231 -0.16787499
0.1643123 0.09492911 -0.480401 -0.08003593 0.2784184 -0.41677418 0.7596219 -0.09089475
-0.11315708 0.07665367 0.6767258 0.51601887 0.23164241 0.27209198 -0.058714587 0.32019132
0.5194791 -1.0459595 -0.5782742 -0.1519492 -0.060347117 -0.2165874 -0.6605305 0.25971445
0.8234319 -0.25821373 0.41863894 -0.07765257 0.37609375 0.40360773 -0.17786294 -0.050042737
0.3406723 -0.09509401 0.26299772 0.21516332 -0.09498736 0.28084084 0.43087292 0.027565543
-0.44564554 -0.52807826 -0.25767565 -0.4740728 -0.73980135 -0.37265942 -0.45726514 0.023843862
0.2180135 0.35996062 -0.2978605 0.2748573 -0.37494984 -0.6235666 0.16179067 -0.5031948
-0.16352068 -0.67329913 -0.035614178 0.15447654 0.45415705 -0.22718273 0.16360822 0.58144766
-0.4261276 0.33573592 -0.118566364 0.0028222955 0.414347 -0.29089302 -0.20240422 0.03970879
-0.22253306 0.73173827 -0.7349028 0.3455598 0.61077964 -0.049168825 0.12774108 -0.60801667
0.2324918 -0.69773316 0.5565857 -0.124026835 0.5385567 -0.15306816 -0.08459121 0.2524233
-0.023058997 -0.0758952 -0.13697015 0.03325648 -0.36916238 0.01691517 -0.46441346 -0.11916413
-0.12741154 0.30324897 -0.06795078 0.035184305 -0.35461643 0.10135491 -0.35341024 -0.07348424
0.3758561 0.03438585 -0.08428537 -0.099439636 0.5090962 -0.15562539 -0.0128618 -0.15645121
0.023641143 0.17454079 -0.019172512 -0.603562 0.27948943 -0.2821238 0.12219305 0.011953665
-0.33521998 0.1772175 -0.36571532 -0.1298261 0.22356752 0.19910386 -0.070508614 0.13744189
0.6186511 0.08358537 0.023387318 0.4410824 -0.57142425 -0.48014775 -0.0737607 -0.38371852
0.16736506 -0.51896346 0.27014002 0.16301267 0.54615784 -0.15456712 0.003387875 0.20265639
-0.22884794 0.15862024 -0.5283299 -0.09439276 0.33497193 -0.24757075 0.6907303 0.7885084
0.41587374 -0.1975838 -0.27395338 0.3315163 0.12941079 0.07657828 0.18299972 -1.1005102

mlp.0.bias f4 [24]
00000000: 37e5 173e dc2f a73e de7d fc3d 5381 0b3e
00000010: 4542 64be 4ceb 993d 2035 073c 8acc 8f3e
00000020: d796 043f d26c 8cbe 308e 2fbe 2768 803d
00000030: 7080 b7bd 9515 e03e c093 dbbc fc38 9bbd
00000040: a7b5 a6be 8f6c 1c3d e432 e33c 2463 babd
00000050: 6aac 933b 842b 26be 0c58 efbd 855e 3b3e
0.14833532 0.326537 0.12328695 0.13623552 -0.22290905 0.075155824 0.008252412 0.28085738
0.51792663 -0.27426773 -0.17144084 0.062698655 -0.089600444 0.43766466 -0.026803851 -0.07579228
-0.32560465 0.038189467 0.027734227 -0.09100941 0.0045066373 -0.16227537 -0.116867155 0.18297775

mlp.2.weight f4 [6, 24]
00000000: 42e5 6b3e 8f55 f5be 20b6 3fbe 8d02 503e
00000010: a372 183e 87b2 16bf 2f6f 8d3e 6b6a e0be
00000020: 0237 943e 2a9f 1ebf 1242 3cbf 22a2 813d
00000030: b708 7a3e 8dc4 0f3f 01b2 11be 22ef 4cbe
00000040: 3cf3 45bf d53c f63b dd6c f03e a7e6 19bf
00000050: 96a8 e33e c1e4 88bc 7711 cdbe 51eb f03d
00000060: c012 813d 0623 30bf 1e28 d33e a5c1 f0bb
00000070: fb0f 2cbf 76e6 08bf 2241 113f f6ef 1fbd
00000080: 8578 2c3d b1e9 4fbe 716d 853f 32f3 5d3f
00000090: 6628 89be cc6c 90be cf1f 44bf d993 cc3e
000000a0: 1e91 37bf 4695 733d 7637 3abf 8cb7 22bf
000000b0: ea5f 99be 3987 03bf d50b 34bf 55b5 433f
000000c0: 0575 febe 37c6 0ebf bc80 383f 30d6 1b3f
000000d0: 0125 203f b28d 2e3f 34ff d2be bab1 4fbf
000000e0: 258b 54bc ce67 183f 1989 9d3a f655 1dbf
000000f0: 6dfe 75bf e15f 4bbe 81ce a2be 7fe7 233f
00000100: 7f4f 773f c06b bbbf 44ff 843d 755e a63e
00000110: 4188 0b3f b71c 7d3f 0c4c ff3d 5824 50bf
00000120: e80b 2c3f cf1e 0f3f 6b89 b23d 96ef 2fbf
00000130: 8d52 7ebf 7b2e 46ba 15e7 833d 8eaa 1d3f
00000140: c268 a93e 7e19 91be 3070 96bd a344 ad3d
00000150: 4b47 853f 2b73 40bf acb5 b83c 1086 6dbf
00000160: 45e8 44be a0e7 053f d778 22bf 5fee 213f
00000170: c36d f9be ec98 34bf aa66 89be 55ce 0fbf
00000180: fc80 1abf 99bd a43e a65b 14bf 95c1 02bf
00000190: aa4e 4c3f 9d90 ec3e 3906 5fbf f947 ca3e
000001a0: 3727 e1bd 7126 443f 02bd 9fbe 440a f5be
000001b0: d933 acbe ff54 693e d4d3 293f 1ed3 2ebf
000001c0: 6e14 f43d fc27 6bbe 537d fb3e 7c45 b0be
000001d0: 24d7 38bf 6502 28be a008 573f 6bf2 a63d
000001e0: 4143 963d c767 503e c78d 2ebf 12be b13d
000001f0: a8b1 cfbe abbd aabe 5b61 063e 6047 9fbd
00000200: 26b2 03bf 9b96 bdbe e737 82bd 930a c9bc
00000210: a421 c8bd c86b 923e 1851 923e e071 fe3d
00000220: 20c1 bf3d 8dc9 d73e f53c bebd 2c03 4f3e
00000230: d994 af3e 19a8 363e d6ff 623d 3682 d63d
0.23036674 -0.4791684 -0.18721819 0.20313473 0.1488748 -0.5886616 0.2762389 -0.4383119
0.28948218 -0.61961615 -0.73538315 0.063297525 0.24417387 0.5615929 -0.1422806 -0.20013097
-0.7732427 0.007514576 0.46958056 -0.6011757 0.44464558 -0.01671064 -0.40052387 0.11763633
0.063024044 -0.6880344 0.41241544 -0.007347303 -0.67211884 -0.53476655 0.5674001 -0.039047204
0.042107124 -0.2030399 1.0424024 0.8669921 -0.26788634 -0.28208005 -0.76611036 0.3995655
-0.71705806 0.05946853 -0.72740877 -0.6356132 -0.2995599 -0.5137821 -0.70330554 0.76448566
-0.49698654 -0.557712 0.72071433 0.608737 0.62556463 0.6818496 -0.4121033 -0.81130564
-0.012972628 0.59533393 0.0012019008 -0.6145929 -0.9609135 -0.19860794 -0.31798175 0.6402511
0.96605676 -1.4642258 0.064940006 0.3249394 0.5450478 0.9887194 0.12465677 -0.81305456
0.6720567 0.55906385 0.08717617 -0.68724954 -0.9934471 -0.0007560027 0.0644056 0.6158837
0.33087736 -0.28339761 -0.07345617 0.08460357 1.0412382 -0.7517573 0.022547565 -0.9278269
-0.19229229 0.52306557 -0.63465637 0.6325435 -0.48716554 -0.7054584 -0.2683614 -0.5617421
-0.60353065 0.32175902 -0.57952344 -0.5107663 0.7980753 0.4620408 -0.8711887 0.39508036
-0.10993808 0.76621157 -0.3119889 -0.47859395 -0.33633307 0.2278633 0.6633885 -0.6829089
0.11917959 -0.22964472 0.49119052 -0.34428012 -0.7220328 -0.16407163 0.83997536 0.08151706
0.073370464 0.20352088 -0.68185085 0.08678831 -0.40565228 -0.3334783 0.13123076 -0.077772856
-0.5144371 -0.37028965 -0.06358319 -0.024541175 -0.097720414 0.28597856 0.28577495 0.12424064
0.093630075 0.4214596 -0.092889704 0.20216054 0.3429325 0.17837562 0.055419765 0.104740545

mlp.2.bias f4 [6]
00000000: 2509 36be 0a3b ce3e 486f eabe f8c5 debc
00000010: 4ad6 b13e 9a3e 14be
-0.17776926 0.40279418 -0.45788026 -0.027194008 0.34733802 -0.14477006
