experiments/HMS/trans/models/hms_transformer_fold=2.pt (torch, 23594 bytes, 18 tensors)

transformer_encoder.layers.0.self_attn.in_proj_weight f4 [72, 24]
0.1491434 0.102614425 0.085095994 -0.0059448574 0.027287766 -0.0221193 0.0341684 0.087102085
-0.52455485 0.14218189 0.106240004 0.1423582 0.1629386 0.10318868 0.0769013 0.15828219
0.023997858 0.2720953 0.072019555 0.01114423 -0.42375907 -0.28127015 -0.005905231 -0.033320855
-0.010541314 0.16271862 -0.43445265 -0.16181974 -0.16607973 -0.09761815 -0.07670383 -0.13648717
0.26199406 -0.42639187 -0.13141842 -0.35181665 -0.3841079 -0.34530473 -0.31275776 -0.37815344
-0.09346431 0.00930818 -0.07099498 -0.20036279 0.28993505 0.101883315 -0.085988685 -0.18094446
0.044666007 -0.30714446 0.46381387 1.2377261 1.1389661 1.2197013 1.1424001 1.1858952
-0.09569274 0.12189791 0.073037356 0.49446762 1.285904 1.2659451 1.3741467 1.2801851
0.34021366 -0.029894996 0.07615043 0.05939423 -0.012039287 0.23226902 0.117403954 0.042378344
-0.02530516 -0.11660299 0.076867096 -0.24395211 -0.26198867 -0.220248 -0.2211177 -0.2671149
-0.17494512 -0.05963059 0.15554926 0.18563367 -0.13970311 -0.14682612 -0.08616493 -0.16597965
-0.22721933 0.095330015 0.16561125 0.41712835 -0.010559004 -0.13073276 0.031107936 0.03864499
0.05052161 -0.09597111 0.06676827 0.314019 0.29387772 0.33700857 0.30957255 0.3117423
-0.51724434 0.04102776 0.05402864 0.10559801 0.41143382 0.4484404 0.45478883 0.37813017
0.10060523 0.30063492 0.1428241 0.042058904 -0.25235865 -0.26711223 0.063282646 -0.09667465
0.031847056 -0.25387493 0.24169175 0.56933284 0.5640273 0.4935629 0.54958344 0.55250144
-0.11575284 -0.15118472 -0.09097102 0.087495044 0.41736767 0.4796201 0.4461668 0.49544933
0.48523277 -0.00322547 -0.12952045 -0.19274333 0.022603856 -0.19215721 0.21540563 0.014485618
-0.12584253 -0.06877015 0.3061869 -0.117679216 -0.13496141 -0.1586045 -0.21649598 -0.13920249
0.15958466 0.37106234 0.109871976 0.2908698 0.033227034 -0.022234345 0.0058605275 0.007396587
-0.10358915 -0.22872114 0.111144245 0.46630654 -0.023554606 0.24673821 -0.05516248 0.3403835
-0.07789065 -0.048943054 -0.15627028 0.59411937 0.60644084 0.58647704 0.5875519 0.5784781
0.46231514 -0.29912895 -0.054248605 -0.14029029 0.4334116 0.43144238 0.52365464 0.4660817
0.04587004 -0.18643478 -0.15143044 -0.2013477 0.41541383 0.17602548 0.009796149 -0.14224167
0.0056435037 -0.2963744 0.21856989 1.153795 1.1118281 1.1639233 1.1893173 1.1733291
-0.11474115 -0.09276957 0.09214887 0.26599458 1.1354281 1.1219072 1.1917418 1.1877874
0.20325847 0.3387468 0.15596297 -0.15508659 -0.08538779 0.1269323 0.12910749 -0.2439671
0.058659937 -0.23175704 0.39776126 0.10474185 0.061285835 0.050859775 0.03483391 0.007186636
-0.23163366 -0.1341678 -0.0076093962 0.3791979 0.1665765 0.171462 0.24248648 0.15197846
0.0804092 -0.01580592 0.054362565 0.20219791 0.13571827 -0.30491573 0.21566594 0.11857869
0.024812024 0.36288962 -0.29042575 -0.84041214 -0.82831633 -0.904678 -0.9000048 -0.81785035
0.21114019 -0.04296279 -0.18116722 -0.44292143 -0.90606797 -0.94147044 -0.99656564 -1.0022956
00000000: 0cb9 183e 8327 d23d cf46 ae3d 14cd c2bb
00000010: 988a df3c 8933 b5bc 2af4 0b3d 9462 b23d
00000020: 3a49 06bf 2198 113e 5c94 d93d 59c6 113e
00000030: 60d9 263e 9654 d33d 6e7e 9d3d ba14 223e
00000040: 2897 c43c 1350 8b3e fd7e 933d 4a96 363c
00000050: f3f6 d8be a402 90be ab80 c1bb 737b 08bd
00000060: 7ab5 2cbc b69f 263e 9470 debe 13b4 25be
00000070: ce10 2abe 06ec c7bd e616 9dbd 4bc3 0bbe
00000080: 1624 863e 0950 dabe 8d92 06be 5021 b4be
00000090: caa9 c4be c8cb b0be c921 a0be 549d c1be
000000a0: 376a bfbd 5681 183c d165 91bd e72b 4dbe
000000b0: 5e72 943e 33a8 d03d d61a b0bd 8149 39be
000000c0: b4f3 363d 0a42 9dbe 0379 ed3e cf6d 9e3f
000000d0: a4c9 913f 2c1f 9c3f 2b3a 923f 6acb 973f
000000e0: 8efa c3bd 9da5 f93d 9c94 953d dc2a fd3e
000000f0: 8198 a43f 7d0a a23f 0ae4 af3f 1bdd a33f
00000100: 7c30 ae3e 5ae6 f4bc c2f4 9b3d 5d47 733d
00000110: 6e40 45bc eed7 6d3e 7c71 f03d ea94 2d3d
00000120: c44c cfbc 8ccd eebd 7f6c 9d3d 95ce 79be
00000130: 6123 86be b188 61be ae6c 62be 49c3 88be
00000140: d024 33be 353f 74bd 4e48 1f3e c116 3e3e
00000150: 550e 0fbe 9659 16be 3d77 b0bd 92f6 29be
00000160: 2fac 68be 623c c33d ff95 293e d991 d53e
00000170: acff 2cbc cfde 05be 12d6 fe3c 364a 1e3d
00000180: bfef 4e3d 808c c4bd cebd 883d 19c7 a03e
00000190: 2477 963e 638c ac3e 4b80 9e3e b09c 9f3e
000001a0: 206a 04bf b90c 283d 234d 5d3d c543 d83d
000001b0: 74a7 d23e fb99 e53e 15da e83e 479a c13e
000001c0: 1d0a ce3d d2ec 993e 7b40 123e f545 2c3d
000001d0: 2735 81be efc2 88be 559a 813d 5cfd c5bd
000001e0: 0f72 023d e5fb 81be 0b7e 773e ccbf 113f
000001f0: 1864 103f 47b4 fc3e 80b1 0c3f bc70 0d3f
00000200: d30f edbd 2bd0 1abe 044f babd 9a30 b33d
00000210: 37b1 d53e c490 f53e fa6f e43e 89ab fd3e
00000220: 6e70 f83e 6862 53bb 02a1 04be 825e 45be
00000230: b92b b93c dcc4 44be 4b93 5c3e 1655 6d3c
00000240: dddc 00be 5dd7 8cbd 88c4 9c3e cd01 f1bd
00000250: 5333 0abe 3869 22be 1fb1 5dbe 198b 0ebe
00000260: 296a 233e e2fb bd3e 8f04 e13d e3ec 943e
00000270: 1219 083d cd24 b6bc ab09 c03b 125f f23b
00000280: 8c26 d4bd e035 6abe 989f e33d bbbf ee3e
00000290: 97f5 c0bc f1a8 7c3e 0df2 61bd bf46 ae3e
000002a0: 2285 9fbd 8378 48bd 5105 20be 3518 183f
000002b0: b53f 1b3f 5c23 163f cd69 163f 2417 143f
000002c0: 92b4 ec3e 6e27 99be c933 5ebd 42a8 0fbe
000002d0: 20e8 dd3e 04e6 dc3e 3b0e 063f 43a2 ee3e
000002e0: 39e2 3b3d c2e8 3ebe 9510 1bbe 172e 4ebe
000002f0: 1fb1 d43e 0640 343e 0780 203c cda7 11be
00000300: 24ed b83b 63be 97be c9d0 5f3e 8eaf 933f
00000310: 6250 8e3f 70fb 943f 8d3b 983f a62f 963f
00000320: 68fd eabd f9fd bdbd 8cb8 bc3d 7130 883e
00000330: b555 913f a89a 8f3f ff8a 983f 6b09 983f
00000340: fd22 503e 3870 ad3e c2b4 1f3e 05cf 1ebe
00000350: cbdf aebd 8afa 013e c134 043e 83d2 79be
00000360: 6745 703d b851 6dbe 5da7 cb3e e582 d63d
00000370: db06 7b3d 5752 503d 01ae 0e3d df7d eb3b
00000380: 6031 6dbe 4963 09be 3e58 f9bb 3a26 c23e
00000390: 0893 2a3e bc93 2f3e 604e 783e 3ea0 1b3e
000003a0: 94ad a43d 6b7b 81bc 48ab 5e3d f80c 4f3e
000003b0: bbf9 0a3e ea1d 9cbe 88d7 5c3e 62d9 f23d
000003c0: 9642 cb3c abcc b93e afb2 94be 4025 57bf
000003d0: 8a0c 54bf fa98 67bf b766 66bf a45e 51bf
000003e0: 2235 583e c0f9 2fbd e683 39be 99c6 e2be
000003f0: 12f4 67bf 3504 71bf ed1e 7fbf 394b 80bf

transformer_encoder.layers.0.self_attn.in_proj_bias f4 [72]
0.11618528 -0.3554491 1.3192157 -0.11287157 0.4154739 0.4919759 -0.028143205 0.4710301
1.1680566 0.18817466 -0.97973955 -0.30179676 -0.5354925 -0.06458131 -0.028877605 -1.0509484
-0.07555893 -0.24566285 -0.56102276 0.9224369 -1.2185748 0.5135369 -0.39960107 -0.020917166
-0.030539382 -0.02229197 0.011878209 0.0645568 -0.049350504 0.013115686 0.007896682 0.015409916
0.016818907 0.060366802 -0.076747485 0.026319835 -0.026574321 -0.014068251 -0.06526228 -0.040098358
-0.05417427 0.013027095 -0.050453838 0.055475496 -0.02053963 -0.004745372 0.051811986 -0.0026856272
-0.012119737 1.3275986 -0.39874107 -1.1818212 0.18395315 2.0227458 -0.35867792 1.2938547
0.33418038 0.85058737 1.2860138 -0.13162926 -0.9463407 -0.44374472 1.1755131 0.45605296
0.5947072 -0.7593829 -0.68810624 -1.5821743 -0.95937186 -0.8488977 -0.1122583 1.255461
00000000: 8cf2 ed3d 6dfd b5be 0fdc a83f 3629 e7bd
00000010: ffb8 d43e 44e4 fb3e 948c e6bc db2a f13e
00000020: e182 953f dcb0 403e 36d0 7abf 1b85 9abe
00000030: 0916 09bf 3543 84bd ba90 ecbc 7a85 86bf
00000040: a4be 9abd 0b8f 7bbe 309f 0fbf d324 6c3f
00000050: 42fa 9bbf 2777 033f 8398 ccbe 7a5a abbc
00000060: ba2d fabc a69d b6bc d29c 423c 5b36 843d
00000070: c123 4abd 2de3 563c 1661 013c df79 7c3c
00000080: cec7 893c 2e43 773d c92d 9dbd b29c d73c
00000090: 64b2 d9bc 857e 66bc 3ba8 85bd 2d3e 24bd
000000a0: d7e5 5dbd 996f 553c afa8 4ebd 463a 633d
000000b0: ba42 a8bc 117f 9bbb ce38 543d 5901 30bb
000000c0: dd91 46bc c0ee a93f ca27 ccbe eb45 97bf
000000d0: 375e 3c3e ab74 0140 a2a4 b7be 089d a53f
000000e0: b119 ab3e 18c0 593f 1a9c a43f d2c9 06be
000000f0: 6243 72bf 8232 e3be 3777 963f c67f e93e
00000100: bb3e 183f eb66 42bf bb27 30bf b084 cabf
00000110: 6599 75bf 5c51 59bf aee7 e5bd f2b2 a03f

transformer_encoder.layers.0.self_attn.out_proj.weight f4 [24, 24]
-0.24733831 -0.03828151 0.07930973 0.21483877 -0.060144532 -0.021435985 -0.06631458 -0.04267255
0.18487033 0.108602405 -0.074785635 0.020273145 0.22175968 -0.009179953 0.107637785 -0.17534938
-0.09072481 -0.19510812 -0.04994753 -0.082384154 -0.0635973 -0.052341104 0.102707736 -0.081789054
-0.15710133 -0.14707054 0.057607 -0.25413454 0.18346895 0.02387342 0.3684537 -0.29280397
-0.045964837 0.047034666 -0.06423889 -0.124610275 -0.42855954 -0.07289783 -0.14626351 -0.1454198
-0.15191232 -0.28416494 -0.34285608 0.19355829 0.066612534 0.5005393 -0.114173174 -0.0072982362
0.022600356 0.110143766 -0.3881392 0.2171476 -0.12292762 -0.59906 -0.05056857 0.086204834
-0.25699842 -0.34799397 -0.13090025 -0.056430466 0.14520656 0.13633132 0.10474647 0.13807262
0.026544292 -0.056805328 0.032929964 0.36966786 0.085437864 -0.115537 0.20914447 -0.05836935
-0.06841354 0.2322553 0.28574207 0.50501496 -0.09265487 0.22246684 0.1027401 -0.0062089204
-0.21731769 0.3206327 0.38324904 -0.16840218 0.07977609 -0.48909646 -0.18821792 0.09980447
0.018820785 -0.20664324 0.33165917 -0.3442232 0.0007582982 -0.22717635 0.25721014 -0.27214327
-0.18756193 -0.08356725 0.09914753 0.26808935 -0.0042857695 -0.32038903 -0.039597146 -0.2191078
0.11614309 0.10105511 -0.24968426 0.1530215 0.20766468 0.0083399955 -0.07901213 -0.21312769
-0.13826351 0.12453754 -0.10481942 0.04846906 0.1315684 0.017795073 0.053583182 -0.18402429
0.39551294 -0.4457575 0.6194734 -0.040847726 0.10292871 -0.03901589 -0.0006858349 0.034621473
0.16762097 -0.30665222 0.15839319 0.05224788 0.4349812 0.1814716 0.001745997 -0.18152733
0.2556425 -0.18471123 0.6226356 0.45769933 -0.4057468 0.32150325 -0.26124564 -0.06541149
-0.2964126 -0.18342903 0.1427623 0.23535874 -0.12610666 -0.040592093 -0.124047235 -0.17970568
0.31976882 0.14905202 -0.100225665 0.044261348 0.22897883 -0.10770738 0.10941538 -0.10734596
-0.22751454 -0.18357456 -0.14556178 -0.17305648 -0.016066503 -0.030766744 0.16917048 -0.12471717
-0.12891735 -0.135407 0.27769953 0.12286482 0.042237714 -0.47462478 -0.021262305 -0.3420006
-0.03505999 -0.20461345 -0.2282067 0.068164624 0.0683693 -0.13673954 -0.05380884 0.08107152
-0.22405116 0.0014135282 -0.11298728 0.30159125 0.33803523 0.290977 0.050001 -0.18624261
0.08198069 -0.08686588 -0.003499796 0.19004995 0.13892123 -0.10300373 0.24897839 -0.13957873
0.018681074 0.44168222 -0.11243029 0.062716775 -0.01545554 0.083003744 -0.5093194 -0.40714413
0.09161244 0.30821526 0.17130122 -0.19201326 -0.03022454 -0.105582595 -0.23339169 -0.02139045
0.19021764 -0.44224703 0.23795222 0.09787154 -0.052502017 0.026582407 0.23801404 0.011172497
0.15370843 -0.14974368 0.27842405 -0.30547854 0.020530738 -0.15621321 -0.2824546 0.3505866
0.1087122 -0.26524726 0.45647168 0.30446 -0.092682116 0.07258748 0.27034563 -0.24290238
-0.21656224 0.049033154 -0.31011495 0.08912061 -0.10043492 -0.7174368 0.122758 -0.3575736
-0.23697114 -0.15276107 -0.30212334 -0.09676917 -0.19527426 -0.03430175 -0.18265133 0.10350249
00000000: 4146 7dbe 13cd 1cbd 246d a23d b2fe 5b3e
00000010: 1d5a 76bd 859a afbc f0cf 87bd 69c9 2ebd
00000020: a64e 3d3e f06a de3d 3629 99bd de13 a63c
00000030: f814 633e 8367 16bc 3371 dc3d ca8e 33be
00000040: eecd b9bd 6cca 47be c895 4cbd 06b9 a8bd
00000050: 4d3f 82bd a063 56bd 6f58 d23d 0581 a7bd
00000060: 2cdf 20be a999 16be 51f5 6b3d ec1d 82be
00000070: 49df 3b3e 3192 c33c f7a5 bc3e 67ea 95be
00000080: a045 3cbd 6ca7 403d ae8f 83bd ac33 ffbd
00000090: 286c dbbe 754b 95bd 1ac6 15be eee8 14be
000000a0: e78e 1bbe 117e 91be d58a afbe 2534 463e
000000b0: 276c 883d 5823 003f a0d3 e9bd 0b26 efbb
000000c0: 6224 b93c 0e93 e13d 2eba c6be f15b 5e3e
000000d0: 7ac1 fbbd ff5b 19bf fd20 4fbd 298c b03d
000000e0: 4c95 83be 442c b2be b70a 06be a223 67bd
000000f0: 07b1 143e 709a 0b3e 5185 d63d e962 0d3e
00000100: 6a73 d93c b4ac 68bd 92e1 063d 1b45 bd3e
00000110: 0cfa ae3d aa9e ecbd f829 563e b314 6fbd
00000120: 661c 8cbd 55d4 6d3e c94c 923e a948 013f
00000130: d6c1 bdbd 59ce 633e 6769 d23d 3374 cbbb
00000140: 8788 5ebe f829 a43e 3839 c43e 9f71 2cbe
00000150: a661 a33d da6a fabe 33bc 40be 4966 cc3d
00000160: 0c2e 9a3c 499a 53be 3bcf a93e 063e b0be
00000170: 88c8 463a eba0 68be 0cb1 833e 5d56 8bbe
00000180: 3c10 40be 4e25 abbd dc0d cb3d 0243 893e
00000190: a46f 8cbb 080a a4be 9e30 22bd cc5d 60be
000001a0: 6edc ed3d fbf5 ce3d 3bad 7fbe abb1 1c3e
000001b0: 0da6 543e 7aa4 083c 1dd1 a1bd 253e 5abe
000001c0: f394 0dbe 8a0d ff3d 90ab d6bd 7e87 463d
000001d0: deb9 063e f9c6 913c 0a7a 5b3d dd70 3cbe
000001e0: ac80 ca3e 543a e4be cf95 1e3f f24f 27bd
000001f0: 4acc d23d 20cf 1fbd 9ac9 33ba 3fcf 0d3d
00000200: d5a4 2b3e 8501 9dbe d331 223e df01 563d
00000210: dbb5 de3e b1d3 393e f0d9 e43a 4de2 39be
00000220: 93e3 823e f124 3dbe 0c65 1f3f 9157 ea3e
00000230: 0bbe cfbe 139c a43e fdc1 85be 76f6 85bd
00000240: 64c3 97be d2d4 3bbe 4830 123e e201 713e
00000250: 1b22 01be e543 26bd 7a0c febd c404 38be
00000260: bdb8 a33e 18a1 183e 1d43 cdbd 634b 353d
00000270: 6d79 6a3e b095 dcbd 2c15 e03d 33d8 dbbd
00000280: 92f9 68be f8fa 3bbe 260e 15be b835 31be
00000290: e69d 83bc 8a0a fcbc 073b 2d3e b76b ffbd
000002a0: e902 04be 22a8 0abe a22e 8e3e 8da0 fb3d
000002b0: 7401 2d3d 0502 f3be 492e aebc b41a afbe
000002c0: 109b 0fbd 3086 51be 04af 69be e599 8b3d
000002d0: 3405 8c3d 7305 0cbe a966 5cbd d308 a63d
000002e0: ab6d 65be 2346 b93a e065 e7bd 2b6a 9a3e
000002f0: f412 ad3e f0fa 943e d9cd 4c3d 62b6 3ebe
00000300: 7ee5 a73d bde6 b1bd d55c 65bb 749c 423e
00000310: 5e41 0e3e 9ff3 d2bd 31f4 7e3e baed 0ebe
00000320: 0d09 993c 2c24 e23e da41 e6bd a771 803d
00000330: 3c39 7dbc defd a93d c262 02bf 3275 d0be
00000340: 4e9f bb3d 64ce 9d3e 9669 2f3e 209f 44be
00000350: 7499 f7bc b03b d8bd 3bfe 6ebe 063b afbc
00000360: 6ac8 423e 346e e2be bfa9 733e e070 c83d
00000370: 5b0c 57bd 59c3 d93c f4b9 733e d90c 373c
00000380: be65 1d3e 6856 19be 998d 8e3e af67 9cbe
00000390: 1430 a83c 5bf6 1fbe e49d 90be 1680 b33e
000003a0: 80a4 de3d 7dce 87be a8b6 e93e 2ee2 9b3e
000003b0: 1fd0 bdbd bfa8 943d be6a 8a3e 67bb 78be
000003c0: 7ec2 5dbe fdd6 483d 63c7 9ebe de84 b63d
000003d0: d3b0 cdbd f0a9 37bf 8c68 fb3d e313 b7be
000003e0: 90a8 72be 666d 1cbe e9af 9abe ea2e c6bd
000003f0: faf5 47be fe7f 0cbd f308 3bbe 1df9 d33d

transformer_encoder.layers.0.self_attn.out_proj.bias f4 [24]
0.027806295 0.06101444 0.31693378 0.018386774 0.17901663 -0.35950696 0.041257236 -0.122989826
0.09934459 0.12518233 -0.15775132 0.1262473 0.049887426 -0.03725355 -0.34830466 0.038176596
0.0876333 0.1625653 -0.020834573 0.26740178 -0.06467431 0.024634784 -0.010712343 -0.5489318
00000000: 07ca e33c 47ea 793d 2545 a23e dc9f 963c
00000010: 2350 373e 4c11 b8be 59fd 283d 17e2 fbbd
00000020: 2d75 cb3d cc2f 003e 9089 21be f946 013e
00000030: c256 4c3d 2e97 18bd fd54 b2be 105f 1c3d
00000040: 1679 b33d 8577 263e 44ad aabc e3e8 883e
00000050: f773 84bd e3ce c93c d382 2fbc cb86 0cbf

transformer_encoder.layers.0.linear1.weight f4 [16, 24]
0.56599057 -0.26026502 -0.33358994 0.32302633 0.09210236 0.40629518 0.26076752 -0.10950043
0.04127108 0.20926726 -0.53589725 -0.120486796 -0.43479913 -0.11458193 -0.08569823 0.03874164
-0.17783512 0.1794512 -0.19375165 -0.34963027 -0.6839884 0.044017702 0.33820388 0.53700715
-0.07890567 0.49307287 -0.13010323 -0.27643064 0.28866586 0.25182432 -0.04441467 0.75728333
0.4215372 -0.09190703 0.34584263 0.22314535 -0.14786609 -0.30973506 0.13602012 -0.35065052
-0.06833894 0.056137703 -0.44657537 -0.09171254 -0.6596964 -0.5704457 0.45144787 0.03074399
-0.30309135 -0.10319159 0.30672973 -0.39646733 -0.126522 0.018461967 -0.52228326 -0.06643195
0.33536202 -0.09517949 0.52612066 0.3528492 0.18897825 -0.13361876 0.36628276 -0.017928801
0.007368942 0.22491089 0.4593622 0.02307559 -0.29913947 0.0033521801 -0.3567588 -0.30730268
-0.10418712 0.00804239 -0.19801147 -0.58180636 0.011161439 0.3640785 0.01547322 -0.18658806
0.010126712 0.3293426 -0.07531049 0.54845816 0.3175743 -0.08645203 -0.41803846 -0.07767708
-0.15532303 0.24223849 0.11557685 -0.5534096 -0.33721593 0.1679997 0.33901572 0.008421458
0.274934 0.024418563 0.30453044 -0.13398579 -0.062992446 0.3556878 0.30413145 0.67613524
-0.18966728 0.17925979 0.44048342 -0.17384209 -0.38306418 -0.42977014 -0.14908935 0.06047853
0.03325015 0.05365378 -0.1356991 -0.12253996 -0.13983567 -0.009551038 -0.41163895 0.09227374
0.14819728 -0.27237174 -0.29849702 -0.21704112 0.43286094 0.1940196 0.27797464 0.13505512
-0.0017942993 0.078883976 -0.074979186 0.36778 -0.29899356 0.08804503 -0.1931528 -0.56576556
-0.4688259 -0.10110274 0.20090637 0.2561694 0.3600431 -0.06797736 -0.03600674 0.27521464
0.057936706 -0.12639695 -0.20889565 -0.1367926 0.01396837 -0.25702432 0.24418609 -0.041487336
0.30619213 -0.382999 0.11738641 0.21655282 0.20516843 0.35278055 0.27299136 0.13314013
-0.07827522 0.017720304 -0.04315432 0.063507795 0.10381145 0.34301925 -0.36974135 -0.20494239
-0.50765586 -0.053143274 -0.39015123 0.17497618 -0.37303305 0.17261004 -0.35353285 0.006470863
0.12565559 0.08312937 -0.14518937 0.055581294 -0.013560807 0.15766671 -0.1373718 -0.1445735
0.28754413 0.015219338 -0.09250366 0.037067536 0.04633762 -0.1704191 0.5412852 0.4972085
-0.25724533 0.28259104 -0.17417929 -0.06318311 -0.53990036 0.2130328 -0.6522591 -0.08243146
-0.04741494 0.057600033 -0.12570237 -0.32859972 0.070168 -0.12501359 0.019516548 -0.010910624
0.36787453 0.2873332 0.36331254 0.4514864 0.21033096 0.18960133 -0.0014319865 -0.12203172
-0.30863482 -0.00969756 0.025189856 0.3991467 -0.4047779 -0.029047722 -0.6050846 -0.19892426
0.104526594 0.289445 -0.0713658 -0.03150346 0.089763895 -0.18870878 -0.07106229 -0.012531572
0.29111913 0.1946336 0.572928 -0.2724196 -0.10766514 -0.33338353 0.48143306 -0.09335192
-0.13637939 -0.46450725 -0.009271723 0.051709406 0.3210759 0.16411188 -0.41856545 0.15282302
0.24534218 -0.43271154 -0.082091086 0.30657315 -0.8021861 0.18511656 0.2374359 -0.45394307
00000000: c2e4 103f 7541 85be 4dcc aabe b563 a53e
00000010: 2aa0 bc3d ec05 d03e 5283 853e c341 e0bd
00000020: dd0b 293d 284a 563e 9030 09bf c8c1 f6bd
00000030: fe9d debe eea9 eabd 8e82 afbd 8eaf 1e3d
00000040: 691a 36be 0ec2 373e d566 46be bd02 b3be
00000050: dd19 2fbf e84b 343d 0f29 ad3e 4d79 093f
00000060: 4c99 a1bd 0c74 fc3e c839 05be 5188 8dbe
00000070: 03cc 933e 1eef 803e 28ec 35bd 52dd 413f
00000080: b9d3 d73e c139 bcbd 4912 b13e 3780 643e
00000090: 356a 17be 9895 9ebe dc48 0b3e 7788 b3be
000000a0: 49f5 8bbd a6f0 653d 87a5 e4be c9d3 bbbd
000000b0: dde1 28bf bb08 12bf 2d24 e73e d2da fb3c
000000c0: ca2e 9bbe 1d56 d3bd ae0b 9d3e c4fd cabe
000000d0: fc8e 01be 8d3d 973c 5bb4 05bf 790d 88bd
000000e0: 92b4 ab3e 77ed c2bd d8af 063f a6a8 b43e
000000f0: 8483 413e 5bd3 08be 6a89 bb3e 6cdf 92bc
00000100: 2a77 f13b 0a4f 663e 8631 eb3e 0509 bd3c
00000110: cf28 99be 40b0 5b3b 17a9 b6be c756 9dbe
00000120: 0f60 d5bd 3bc4 033c 85c3 4abe 43f1 14bf
00000130: 78de 363c 7f68 ba3e 6383 7d3c f110 3fbe
00000140: 82ea 253c 989f a83e 633c 9abd c167 0c3f
00000150: 1999 a23e c30d b1bd 2309 d6be 2915 9fbd
00000160: 000d 1fbe 5e0d 783e 8eb3 ec3d 40ac 0dbf
00000170: 91a7 acbe 1d08 2c3e 7893 ad3e 28fa 093c
00000180: 26c4 8c3e 7009 c83c 6aeb 9b3e 9233 09be
00000190: 2f02 81bd b61c b63e 1eb7 9b3e 3317 2d3f
000001a0: 2438 42be e18f 373e 0b87 e13e a903 32be
000001b0: fd20 c4be d50a dcbe e1aa 18be 56b8 773d
000001c0: 4f31 083d 11c4 5b3d b4f4 0abe 3bf6 fabd
000001d0: 1531 0fbe f57b 1cbc 57c2 d2be 04fa bc3d
000001e0: 07c1 173e 4f74 8bbe 9ad4 98be 0740 5ebe
000001f0: f39f dd3e 13ad 463e b152 8e3e e44b 0a3e
00000200: b22e ebba ec8d a13d b08e 99bd a94d bc3e
00000210: af15 99be f450 b43d d9c9 45be 03d6 10bf
00000220: f309 f0be f40e cfbd 66ba 4d3e a328 833e
00000230: 9257 b83e b737 8bbd ce7b 13bd efe8 8c3e
00000240: 0a4f 6d3d 346e 01be bee8 55be 5c13 0cbe
00000250: 97db 643c b198 83be eb0b 7a3e a0ee 29bd
00000260: 37c5 9c3e 7218 c4be 4968 f03d 06c0 5d3e
00000270: ac17 523e a79f b43e 86c5 8b3e e355 083e
00000280: c24e a0bd 2c2a 913c 96c2 30bd 6010 823d
00000290: 199b d43d 38a0 af3e bd4e bdbe 6bdc 51be
000002a0: bcf5 01bf c3ac 59bd e7c1 c7be f52c 333e
000002b0: 30fe bebe b0c0 303e 4202 b5be 8809 d43b
000002c0: dcab 003e bb3f aa3d 86ac 14be 36a9 633d
000002d0: 262e 5ebc 6273 213e 31ab 0cbe 130b 14be
000002e0: fc38 933e 885a 793c 8f72 bdbd 21d4 173d
000002f0: 84cc 3d3d 5882 2ebe ab91 0a3f 1d92 fe3e
00000300: a9b5 83be c6af 903e 0e5c 32be 2566 81bd
00000310: e936 0abf 4525 5a3e 74fa 26bf d3d1 a8bd
00000320: 2b36 42bd 03ee 6b3d 1fb8 00be 393e a8be
00000330: 3eb4 8f3d 9003 00be 2be1 9f3c 79c2 32bc
00000340: 0d5a bc3e 561d 933e 1a04 ba3e 3a29 e73e
00000350: 0061 573e da26 423e 7eb1 bbba c4eb f9bd
00000360: 6205 9ebe 84e2 1ebc f55a ce3c f55c cc3e
00000370: 0d3f cfbe 7df5 edbc d3e6 1abf cdb2 4bbe
00000380: 0a12 d63d 2332 943e 3c28 92bd c609 01bd
00000390: 22d6 b73d e03c 41be 1b89 91bd 3951 4dbc
000003a0: 910d 953e 084e 473e 69ab 123f 957a 8bbe
000003b0: 8a7f dcbd 3fb1 aabe 657e f63e 4b2f bfbd
000003c0: 0aa7 0bbe e5d3 edbe 6de8 17bc 3ecd 533d
000003d0: 0f64 a43e f20c 283e 364e d6be a37d 1c3e
000003e0: fb3a 7b3e 5e8c ddbe 5f1f a8bd 28f7 9c3e
000003f0: 115c 4dbf 328f 3d3e 6622 733e 3a6b e8be

transformer_encoder.layers.0.linear1.bias f4 [16]
-0.3771798 -0.11496574 -0.5764649 -0.3611861 -0.19296272 -0.20685667 -0.37948355 -0.24528487
-0.29034826 -0.108814016 0.13276738 -0.07418713 -0.12504499 -0.026654102 0.031142533 -0.18265006
00000000: b61d c1be 2873 ebbd 3493 13bf 62ed b8be
00000010: 0598 45be 3cd2 53be ab4b c2be f52b 7bbe
00000020: 87a8 94be e2d9 debd 2cf4 073e 6cef 97bd
00000030: cb0b 00be b459 dabc a01e ff3c 9e08 3bbe

transformer_encoder.layers.0.linear2.weight f4 [24, 16]
-0.010763575 0.009394857 -0.05744482 -0.3172753 -0.019412404 -0.007931983 0.44939333 0.3959709
0.05021154 -0.27090228 -0.004579876 0.11887473 -0.19275057 -0.021303255 0.26187697 0.5678006
-0.34939247 -0.41089714 0.5731241 -0.24291028 -0.011604544 -0.1749287 0.26866275 0.10902927
0.1568703 -0.10119888 -0.08855478 -0.30226323 -0.12415923 0.24332248 -0.009022726 0.23699255
0.38011283 -0.10643659 0.2507939 0.21300733 -0.18302616 -0.3085187 0.45395863 -0.24554704
-0.5017063 0.1237644 0.29647163 -0.042283572 0.2467199 -0.06591612 0.1339887 -0.5047499
-0.5816472 -0.79580873 0.010633852 0.4561004 0.07014834 -0.18473911 0.057715423 -0.4811692
-0.13086599 -0.3656948 -0.044821125 0.41775313 0.08086491 -0.26092175 0.14208083 -0.16016519
-0.05647295 0.054023102 0.033599313 0.16471002 0.3249382 -0.159804 0.08726312 0.2748828
0.40159467 0.19379519 -0.19762255 0.3143901 0.5600731 0.22417492 0.19520505 0.046714123
0.044502005 1.0313154 -0.13550782 -0.13063683 0.061010618 0.0973113 0.07555746 0.07794236
-0.30677158 0.8085643 -0.11861988 -0.3927341 -0.23897594 0.13690777 -0.04083819 0.008759035
-0.15900284 0.32388726 -0.08722464 -0.15729743 -0.36290854 -0.25362512 -0.14784156 -0.124840654
0.28656814 0.14788625 -0.29069287 0.283162 0.19802065 -0.24617779 -0.20121317 -0.24964663
0.26327133 0.29101717 0.2610536 0.036344644 0.010761757 0.15380394 -0.017138528 -0.2631255
0.18902484 -0.09495321 0.25716296 -0.38825992 -0.20955725 -0.12424571 -0.20828556 0.18203484
0.14566219 -0.49995598 -0.1971005 0.25472453 -0.22899088 0.047839794 -0.117987156 -0.16504143
-0.06881417 0.009908305 0.0937718 -0.31944743 -0.70691806 -0.017850729 0.24767593 0.22332251
-1.03996 0.046601683 0.76909596 -0.3442843 0.035691492 -0.34183466 -0.04304283 -0.044962607
0.11811193 -0.4104864 -0.28772593 0.027306302 0.0986447 -0.047892362 -0.019837335 0.098952964
0.49883187 0.8954423 -0.10412173 -0.17690983 -0.080725625 -0.25326297 -0.08560926 -0.030945957
-0.0072573163 0.08866266 0.15353088 -0.26252308 0.29917547 0.2077628 0.12983869 -0.33246604
0.107005924 -0.14455666 -0.029773554 -0.2383999 0.40848312 -0.11584749 -0.3601545 -0.0431446
0.43257847 -0.031196054 0.19388233 -0.17899643 0.29343787 0.12641305 0.07713688 -0.23879406
0.056804586 -0.35334206 -1.2381318 0.017622763 0.1587798 0.13149472 0.32692182 -0.05949411
-0.4689285 -0.5270062 0.3847886 0.55568904 0.17666735 -0.64803296 -0.24044663 -0.2039347
-0.08616984 -0.039344855 -0.08403837 0.0147325825 -0.18972322 0.14103913 0.109916516 -0.19372325
0.017695993 0.35984024 -0.7453038 0.07977097 0.27584293 0.1535528 -0.07591141 0.16090077
0.3591911 -0.06433574 -0.64341086 0.27098 0.17448154 0.21205617 -0.23027803 -0.0048280116
0.11998009 -0.07215064 0.039441958 -0.09441487 -0.15328583 -0.0076989504 0.4937459 -0.03341644
0.60380274 -0.19097498 0.02751264 -0.67781895 -0.12797335 0.07950884 -0.06978124 -0.3640184
0.4080011 0.11958394 0.029026434 0.06985417 -0.21263607 0.005501701 0.08500252 -0.4430945
00000000: b559 30bc e3ec 193c 424b 6bbd e871 a2be
00000010: c306 9fbc 26f5 01bc e216 e63e b3bc ca3e
00000020: 9eaa 4d3d b4b3 8abe c912 96bb 9874 f33d
00000030: 6860 45be 2a84 aebc bd14 863e 615b 113f
00000040: 92e3 b2be 1c61 d2be 43b8 123f 79bd 78be
00000050: fc20 3ebc 8220 33be 2a8e 893e bd4a df3d
00000060: 9ca2 203e 5c41 cfbd 355c b5bd 3fc2 9abe
00000070: 3247 febd 8729 793e 0ed4 13bc 2dae 723e
00000080: 269e c23e 6dfb d9bd 0f68 803e 981e 5a3e
00000090: 366b 3bbe 2af6 9dbe 446d e83e af70 7bbe
000000a0: d36f 00bf 3178 fd3d 21cb 973e 8a31 2dbd
000000b0: 24a4 7c3e 08ff 86bd 5534 093e 4a37 01bf
000000c0: d5e6 14bf 1fba 4bbf 9c39 2e3c fe85 e93e
000000d0: efa9 8f3d 402c 3dbe 0267 6c3d cf5b f6be
000000e0: bc01 06be 593c bbbe 5b96 37bd bde3 d53e
000000f0: 809c a53d 8997 85be a37d 113e 5802 24be
00000100: 2e50 67bd 5447 5d3d 6f9f 093d bea9 283e
00000110: 4d5e a63e a9a3 23be 02b7 b23d 70bd 8c3e
00000120: d19d cd3e 3f72 463e 915d 4abe bdf7 a03e
00000130: f360 0f3f 1c8e 653e d5e3 473e 4f57 3f3d
00000140: bc47 363d 2502 843f 90c2 0abe a9c5 05be
00000150: 45e6 793d 264b c73d dfbd 9a3d 3ea0 9f3d
00000160: 2a11 9dbe 12fe 4e3f fbee f2bd 7214 c9be
00000170: 1cb6 74be 8d31 0c3e f245 27bd 0e82 0f3c
00000180: a4d1 22be 8dd4 a53e d5a2 b2bd 9412 21be
00000190: 26cf b9be 27db 81be c763 17be 75ac ffbd
000001a0: 0fb9 923e 7e6f 173e b2d5 94be 9cfa 903e
000001b0: edc5 4a3e 0816 7cbe d30a 4ebe 5ea3 7fbe
000001c0: 80cb 863e 3400 953e d1a8 853e 1fde 143d
000001d0: 1552 303c c87e 1d3e 1966 8cbc 63b8 86be
000001e0: ba8f 413e d476 c2bd ddaa 833e 01ca c6be
000001f0: 2d96 56be 8974 febd cf48 55be 5767 3a3e
00000200: 7828 153e 3bfa ffbe b7d4 49be 416b 823e
00000210: 967c 6abe a9f3 433d 40a3 f1bd 9f00 29be
00000220: 72ee 8cbd 7156 223c 6e0b c03d 9d8e a3be
00000230: 95f8 34bf b13b 92bc c29e 7d3e a8ae 643e
00000240: 691d 85bf 68e1 3e3d 79e3 443f 0846 b0be
00000250: 3e31 123d f404 afbe ae4d 30bd b62a 38bd
00000260: abe4 f13d 462b d2be d050 93be 77b1 df3c
00000270: 3c06 ca3d c82a 44bd e881 a2bc daa7 ca3d
00000280: e466 ff3e b53b 653f c63d d5bd da27 35be
00000290: 7a53 a5bd afab 81be e853 afbd 6082 fdbc
000002a0: c8ce edbb c594 b53d 3337 1d3e 6d69 86be
000002b0: 872d 993e c5bf 543e 6ff4 043e fd38 aabe
000002c0: ec25 db3d a906 14be abe7 f3bc 1a1f 74be
000002d0: b324 d13e 7341 edbd 2c66 b8be 64b8 30bd
000002e0: ed7a dd3e de8e ffbc 1789 463e d74a 37be
000002f0: 7d3d 963e 6c72 013e f1f9 9d3d 6e86 74be
00000300: edab 683d 40e9 b4be 1a7b 9ebf 9d5d 903c
00000310: 2c97 223e 8da6 063e 4c62 a73e 19b0 73bd
00000320: 6517 f0be e1e9 06bf 0303 c53e a341 0e3f
00000330: 49e8 343e 7de5 25bf a437 76be 42d4 50be
00000340: d079 b0bd 1228 21bd 4f1c acbd ee60 713c
00000350: ce46 42be 906c 103e e91b e13d 635f 46be
00000360: 30f7 903c fb3c b83e 3bcc 3ebf f65e a33d
00000370: 493b 8d3e f23c 1d3e 7177 9bbd 2cc3 243e
00000380: e5e7 b73e 75c2 83bd 93b6 24bf e4bd 8a3e
00000390: 4aab 323e 4125 593e 01ce 6bbe 4c34 9ebb
000003a0: 1fb8 f53d b7c3 93bd e48d 213d 955c c1bd
000003b0: f6f6 1cbe 7a47 fcbb 43cc fc3e addf 08bd
000003c0: d192 1a3f f28e 43be 3062 e13c 8b85 2dbf
000003d0: 720b 03be 88d5 a23d 77e9 8ebd 9f60 babe
000003e0: 85e5 d03e 6de8 f43d d8c8 ed3c b40f 8f3d
000003f0: 45bd 59be 9d47 b43b cd15 ae3d 48dd e2be

transformer_encoder.layers.0.linear2.bias f4 [24]
-0.24618909 -0.09401813 -0.04284417 -0.061639205 -0.2088105 0.13017546 -0.000493136 0.017553382
0.10501221 0.09886956 0.07323753 0.15186763 0.08414289 -0.086787514 -0.031510603 -0.04406534
-0.0123262545 0.21433796 -0.15161002 0.10673687 0.010804245 0.12904762 0.0053087613 0.050432395
00000000: fe18 7cbe 948c c0bd 5e7d 2fbd 6479 7cbd
00000010: 6bd2 55be b74c 053e cc45 01ba 1ccc 8f3c
00000020: a410 d73d 207c ca3d 8ffd 953d 3083 1b3e
00000030: 1c53 ac3d a7bd b1bd 4311 01bd dc7d 34bd
00000040: 0ff4 49bc 697b 5b3e a83f 1bbe dc98 da3d
00000050: 4a04 313c 0f25 043e 1ef5 ad3b 3392 4e3d

transformer_encoder.layers.0.norm1.weight f4 [24]
0.26866978 0.5748233 0.5671788 0.54136366 0.30413783 0.27506885 0.52633053 0.3749348
0.39702815 0.3766592 0.4809007 0.41379923 0.60071677 0.45101354 0.52362233 0.31793606
0.3794203 0.17014179 0.47805652 0.7198521 0.50214446 0.29434276 0.5419468 0.58070546
00000000: 168f 893e 9f27 133f a132 113f cf96 0a3f
00000010: f4b7 9b3e d3d5 8c3e 99bd 063f 74f7 bf3e
00000020: 4647 cb3e 7ad9 c03e 9e38 f63e 7edd d33e
00000030: 93c8 193f 3feb e63e 1d0c 063f 84c8 a23e
00000040: 6143 c23e a639 2e3e d3c3 f43e 3a48 383f
00000050: 8a8c 003f 18b4 963e 07bd 0a3f 1da9 143f

transformer_encoder.layers.0.norm1.bias f4 [24]
-0.05305861 0.0650818 0.24114361 0.06575484 0.08016912 -0.06056032 0.05255946 0.14711334
-0.018012106 0.009477513 0.20424879 0.005533024 -0.056837287 -0.13688067 0.01217964 -0.08529984
-0.03500928 -0.04133992 -0.06784092 0.117117345 -0.063193716 -0.118475385 -0.03956704 -0.086268194
00000000: fc53 59bd 9b49 853d 5aee 763e 79aa 863d
00000010: b52f a43d 190e 78bd 9748 573d e1a4 163e
00000020: 208e 93bc 9247 1b3c 9826 513e 5f4e b53b
00000030: 37ce 68bd 722a 0cbe 1d8d 473c afb1 aebd
00000040: e465 0fbd 0c54 29bd 2ef0 8abd 38db ef3d
00000050: b56b 81bd 39a3 f2bd 0c11 22bd 61ad b0bd

transformer_encoder.layers.0.norm2.weight f4 [24]
1.1848924 1.1730894 1.1614361 1.3206207 1.228164 0.941799 1.5109367 1.10911
1.3925917 1.0313351 1.3173817 1.5248429 1.5549657 1.3188485 1.6152468 1.6628481
1.9822263 1.4106268 1.712989 1.6346813 1.5924927 1.3494829 1.5716722 1.3433591
00000000: 8eaa 973f cb27 963f f0a9 943f 190a a93f
00000010: 7a34 9d3f bd19 713f 6066 c13f 51f7 8d3f
00000020: 7240 b23f ca02 843f f79f a83f 0d2e c33f
00000030: 1e09 c73f 07d0 a83f 68c0 ce3f 35d8 d43f
00000040: 97b9 fd3f 6b8f b43f 3943 db3f 3d3d d13f
00000050: cdd6 cb3f dbbb ac3f 8e2c c93f 31f3 ab3f

transformer_encoder.layers.0.norm2.bias f4 [24]
-0.025572576 0.12530623 -0.1313587 0.19414085 -0.21857552 -0.08294407 -0.10106804 0.02051964
0.17791708 -0.07695091 -0.07207696 -0.13154222 0.07508694 0.18245992 0.08337782 0.10293806
0.1900821 0.1037599 -0.03997885 0.066442214 -0.023449792 0.027263857 -0.059334267 -0.14954703
00000000: 947d d1bc 4750 003e e582 06be dccc 463e
00000010: 43d2 5fbe 95de a9bd c3fc cebd ce18 a83c
00000020: e52f 363e 7098 9dbd 169d 93bd 01b3 06be
00000030: 2ec7 993d c6d6 3a3e fec1 aa3d 31d1 d23d
00000040: e2a4 423e 1280 d43d ddc0 23bd db12 883d
00000050: c719 c0bc 7458 df3c 7d08 73bd db22 19be

MLP_encoder.weight f4 [8, 8]
1.6046513e-11 3.7866044e-11 2.9832768e-11 -7.1988346e-11 -8.248267e-11 9.02191e-11 3.5321916e-11 -2.8556574e-11
7.204268e-11 -2.909608e-11 -6.4641646e-11 -2.1896028e-11 -5.8318864e-11 -8.4945224e-11 8.747702e-11 -8.443395e-11
2.8324485e-11 3.4019697e-11 1.3674617e-12 -6.5848146e-11 3.1236076e-11 7.966721e-12 -8.776844e-11 9.904696e-11
4.9706187e-11 1.2160457e-11 3.8145112e-11 -9.222281e-11 3.4747972e-11 5.585617e-11 -1.3168157e-11 1.0513616e-11
-8.934915e-12 -3.3614637e-12 -2.3469412e-11 -4.019065e-11 -2.9208063e-11 5.82489e-11 1.3374388e-11 7.5830744e-11
3.3713376e-11 4.9745454e-11 -5.7848025e-11 -1.760062e-11 -9.900283e-11 1.9712579e-11 -6.3865184e-13 6.6978645e-11
-8.473353e-11 9.19736e-11 3.019638e-11 7.851416e-11 -8.046315e-11 -3.32896e-11 7.118666e-11 8.853245e-11
-9.8227025e-12 -7.294287e-11 -9.8001746e-11 -4.4485356e-11 -8.6545555e-11 6.582729e-11 -7.914472e-12 3.5369516e-11
00000000: 8925 8d2d 6089 262e b634 032e d64d 9eae
00000010: 9e61 b5ae d764 c62e f158 1b2e b02f fbad
00000020: 6c6c 9e2e 8cee ffad 0326 8eae 7999 c0ad
00000030: 9a3e 80ae e9cb baae 2f5d c02e 17ac b9ae
00000040: 1225 f92d c69e 152e 0074 c02b 36cd 90ae
00000050: b260 092e ec26 0c2d 3d01 c1ae 7bce d92e
00000060: 319c 5a2e d4ed 552d 94c3 272e d4cc caae
00000070: bdd2 182e 75a8 752e 1ba8 67ad 1ef5 382d
00000080: 482f 1dad bf8a 6cac 6b70 cead a6c2 30ae
00000090: 5b75 00ae 3717 802e e448 6b2d eac0 a62e
000000a0: e345 142e 67c8 5a2e 166b 7eae 13d1 9aad
000000b0: a3b5 d9ae c864 ad2d b7c3 33ab a049 932e
000000c0: bd54 baae 8940 ca2e 1ace 042e 8ba7 ac2e
000000d0: baf0 b0ae c268 12ae 878a 9c2e 57af c22e
000000e0: 85cd 2cad 2f67 a0ae 1482 d7ae 0fa6 43ae
000000f0: d150 beae 78c1 902e 9d3b 0bad 898e 1b2e

MLP_encoder.bias f4 [8]
-0.026698468 0.28531057 0.16150908 -0.23878887 0.21098408 -0.13281062 0.025354616 -0.16802831
00000000: bfb6 dabc 3a14 923e a362 253e 1285 74be
00000010: 360c 583e 82ff 07be 7cb4 cf3c 9d0f 2cbe

mlp.0.weight f4 [24, 24]
0.036963906 0.22364382 -0.04751743 0.5912028 0.08917783 -0.56110823 0.35167927 0.48082718
0.20632824 0.030704074 0.25472483 0.28561231 -0.3338591 0.20466755 0.035229422 0.20884687
-0.8412143 -0.38764504 0.061282735 -0.46489 0.2112441 -0.82348716 0.26216406 -0.098791316
0.5446395 -0.3455858 -0.024631083 -0.024685265 0.19480562 -0.011104947 0.02102647 -0.10040703
0.12980983 -0.26143512 -0.31021628 0.3250031 0.13541657 0.17398497 -0.2338251 0.1484016
0.06427637 -0.35859212 0.19353548 -0.747357 -0.27114502 -0.12400204 0.41309592 0.6589651
0.21342313 -0.13443483 0.05995572 0.19531955 -0.026439851 -0.30990842 -0.35647509 0.29346803
0.15644374 -0.62248504 0.14864966 -0.3255047 0.21560901 0.11848243 -0.062112536 -0.3293871
0.3655275 -0.7327893 0.79015356 -0.3060632 0.84605366 -0.5550681 0.18081346 0.17389587
0.15137331 -0.07562006 0.1632138 0.2691521 0.22364812 0.21102844 -0.27983856 -0.69663525
0.052875314 0.20834832 -0.7562325 -0.26605898 0.60779613 -0.41311136 0.05029259 0.09811675
-0.14552481 0.5111185 0.17081185 -0.14309086 -0.14653249 0.096909404 0.05348877 0.03267164
-0.025240516 0.040527996 0.012865958 0.7128093 -0.19678684 -0.3174462 -0.3389266 0.026477268
-0.032646418 0.024875822 -0.08915447 -0.2341449 -0.40752348 -0.28764793 0.23892526 -0.0063344617
0.5025141 0.73165447 -0.8395482 -0.089691706 0.48403645 -0.0023434712 -0.25211218 0.5951787
0.04652741 -0.04802118 -0.48781633 0.7422779 -0.2729446 -0.33246252 0.049536493 -0.2976104
0.09499823 0.3342787 -0.6998962 -0.3249009 -0.14300977 0.12609684 0.13094991 0.07955477
-0.10791202 -0.25042757 0.28600535 0.49701312 0.020414416 -0.15437454 0.47983545 -0.1951197
-0.004934782 -0.272226 0.122176126 -0.16441865 -0.014229554 -0.28277588 -0.48964867 -0.15686263
-0.05008987 -0.0012146777 -0.6010779 0.5285997 -0.08272781 -0.273501 -0.17368837 0.03792244
-0.18232119 0.056973685 0.20866053 0.97661823 0.24449694 -0.035821248 -0.11904275 0.21816795
-0.08096396 -0.21517329 -0.48380822 -0.17435703 0.2061144 -0.29038224 -0.509485 0.26443258
0.26316547 -0.14562084 -0.32611325 0.8183878 0.18823686 -0.122145064 0.05897847 -0.26429123
0.39368603 0.14282334 0.58341473 -0.25142705 -0.57456505 0.5321361 0.65917724 0.02477569
-0.70359993 -0.015100364 0.36771306 -0.17240691 -0.03049628 0.061507907 0.005452618 0.20351857
-0.16155793 0.46231467 0.46757972 0.48328593 -0.28353962 -0.36583826 -0.43077672 -0.3968185
-0.70917207 0.27589118 0.121130794 -0.15098467 0.18079057 -0.16944487 0.26638305 0.3204639
0.07147102 0.067618065 0.2764071 0.22485878 -1.0263624 -0.59341854 0.02037156 0.43283734
0.06282322 0.01357605 0.34285387 -0.19440857 0.796805 -0.16068274 -0.052552585 -0.37569773
0.16329208 -0.10214917 -0.01882862 0.06386925 -0.12726091 0.07628767 -0.32307234 -0.23331678
-0.121796995 -0.034591053 0.12083113 -0.0884198 0.0997163 0.18248145 -0.3018654 0.3953741
0.38693267 -0.02702001 0.028702496 0.1956672 0.022148933 -0.61674964 0.40492257 -0.5312025
00000000: 7767 173d e302 653e a3a1 42bd 1159 173f
00000010: dea2 b63d caa4 0fbf 4e0f b43e fb2e f63e
00000020: b647 533e 1c87 fb3c 4b6b 823e c73b 923e
00000030: 94ef aabe 5f94 513e ba4c 103d f4db 553e
00000040: d259 57bf 6979 c6be 9b03 7b3d 1006 eebe
00000050: 6050 583e 0ed0 52bf 5e3a 863e 1a53 cabd
00000060: 7f6d 0b3f 9ff0 b0be 20c7 c9bc c138 cabc
00000070: 207b 473e 86f1 35bc b43f ac3c 33a2 cdbd
00000080: deec 043e d3da 85be abd4 9ebe ce66 a63e
00000090: a4aa 0a3e 1e29 323e d96f 6fbe 97f6 173e
000000a0: 54a3 833d 6399 b7be 2a2e 463e ca52 3fbf
000000b0: 85d3 8abe c8f4 fdbd 4f81 d33e f0b1 283f
000000c0: 988b 5a3e 49a9 09be 2194 753d d901 483e
000000d0: 6398 d8bc 51ac 9ebe e783 b6be 7141 963e
000000e0: ca32 203e 2e5b 1fbf 9e37 183e 8da8 a6be
000000f0: 9cc8 5c3e eba6 f23d b769 7ebd 6da5 a8be
00000100: 6c26 bb3e 1498 3bbf 8147 4a3f 51b4 9cbe
00000110: f996 583f f118 0ebf 2a27 393e c211 323e
00000120: 9b01 1b3e b1de 9abd 8521 273e 4ece 893e
00000130: 0304 653e d717 583e 0047 8fbe b056 32bf
00000140: c993 583d 4359 553e 7498 41bf e238 88be
00000150: 8798 1b3f 5583 d3be 9aff 4d3d 6ff1 c83d
00000160: 7504 15be a9d8 023f 4de9 2e3e 6986 12be
00000170: 9d0c 16be 7078 c63d 0a17 5b3d b3d2 053d
00000180: 33c5 cebc af00 263d bdcb 523c ac7a 363f
00000190: 7d82 49be 4f88 a2be ca87 adbe dbe6 d83c
000001a0: 40b8 05bd 61c8 cb3c 9e96 b6bd aec3 6fbe
000001b0: eba6 d0be 9746 93be d3a8 743e 5191 cfbb
000001c0: c4a4 003f b54d 3b3f a1ec 56bf 49b0 b7bd
000001d0: a0d3 f73e ec94 19bb d914 81be a25d 183f
000001e0: 8793 3e3d dbb1 44bd 10c3 f9be ed05 3e3f
000001f0: 65bf 8bbe 8738 aabe c7e6 4a3d 6460 98be
00000200: 6f8e c23d 9426 ab3e 662c 33bf 6959 a6be
00000210: 2771 12be 881f 013e bc17 063e 9ced a23d
00000220: fa00 ddbd 0b38 80be 4b6f 923e 8178 fe3e
00000230: 223c a73c 5c14 1ebe feac f53e 75cd 47be
00000240: f4b3 a1bb 3561 8bbe 7a37 fa3d 5d5d 28be
00000250: 1323 69bc 00c8 90be 3bb3 fabe 99a0 20be
00000260: 092b 4dbd d235 9fba 3ee0 19bf 4f52 073f
00000270: 336d a9bd 5308 8cbe 5ddb 31be 8f54 1b3d
00000280: 68b2 3abe 3d5d 693d 1bab 553e a703 7a3f
00000290: 685d 7a3e 4db9 12bd afcc f3bd 6b67 5f3e
000002a0: 6fd0 a5bd 6356 5cbe b6b5 f7be a68a 32be
000002b0: a70f 533e fbac 94be 9c6d 02bf b563 873e
000002c0: a0bd 863e a11d 15be 51f8 a6be dd81 513f
000002d0: 2ac1 403e 3127 fabd 6893 713d 2e51 87be
000002e0: 3791 c93e 4840 123e ab5a 153f 0cbb 80be
000002f0: b216 13bf 123a 083f d7bf 283f 63f6 ca3c
00000300: 201f 34bf 8467 77bc e344 bc3e 708b 30be
00000310: 56d3 f9bc b7ef 7b3d e0ab b23b 2c67 503e
00000320: 716f 25be 82b4 ec3e 9c66 ef3e 4171 f73e
00000330: 1b2c 91be 274f bbbe c48e dcbe cb2b cbbe
00000340: 4d8c 35bf 9c41 8d3e 6c13 f83d ba9b 1abe
00000350: 2a21 393e f582 2dbe 5c63 883e d813 a43e
00000360: 665f 923d 577b 8a3d 3b85 8d3e 6141 663e
00000370: d85f 83bf 47ea 17bf 42e2 a63c db9c dd3e
00000380: 76a9 803d 156e 5e3c 8b8a af3e 0a13 47be
00000390: 6afb 4b3f 048a 24be 6141 57bd 745b c0be
000003a0: 0a36 273e 9633 d1bd 7a3e 9abc e2cd 823d
000003b0: af50 02be b63c 9c3d bd69 a5be 98ea 6ebe
000003c0: b470 f9bd 59af 0dbd 5076 f73d 7115 b5bd
000003d0: 0f38 cc3d 6bdc 3a3e 1a8e 9abe 796e ca3e
000003e0: 0a1c c63e 1159 ddbc 7f21 eb3c fc5c 483e
000003f0: ae71 b53c 4ee3 1dbf 0352 cf3e e3fc 07bf

mlp.0.bias f4 [24]
0.18744126 -0.2989053 0.31512082 0.16544548 0.12245965 0.13161267 -0.0642885 0.31796172
-0.26480842 -0.17695196 -0.26346207 -0.0020575267 0.068119444 -0.12897584 -0.06737117 -0.36884618
-0.12499326 0.017177181 0.24064592 -0.08893418 0.012855948 0.1445581 0.47359535 0.07365236
00000000: 9af0 3f3e 1e0a 99be 8457 a13e 8a6a 293e
00000010: 20cc fa3d 79c5 063e b0a9 83bd e1cb a23e
00000020: f894 87be e532 35be 80e4 86be 92d7 06bb
00000030: 3582 8b3d 3e12 04be e5f9 89bd 68d9 bcbe
00000040: 77fc ffbd 29b7 8c3c e26b 763e 2023 b6bd
00000050: c1a1 523c 0a07 143e 177b f23e 0cd7 963d

mlp.2.weight f4 [6, 24]
-0.04238393 -0.75821316 0.24798438 -0.7599229 -0.17180611 -0.18474413 -0.29031458 0.3315784
-0.032456532 -0.6053624 0.71616226 -0.5192718 0.4942638 0.29848877 -0.036877915 -0.8590139
0.071269244 0.44051242 -0.30181596 -0.17209968 0.1850276 0.28007206 -0.094274536 -0.4688518
-0.44445404 0.43672636 -0.20974474 -0.0078103584 0.9826704 -0.45888728 -0.26579237 -0.51216567
0.6063205 -0.5606248 -0.4486924 -0.9835038 -0.36958265 -0.058306623 0.031291336 0.34388307
0.22411619 -0.38285333 0.75883627 -0.81021196 0.52351964 0.0119811995 -0.24435037 -0.48008496
0.60400426 0.2904219 -0.9093739 -0.27109578 -0.6740129 0.05609542 0.069183 0.6624116
-0.57878387 0.22383057 -0.68221575 1.0312573 -0.7046613 0.6447979 -0.36682588 -0.52829915
0.78790766 0.65954006 0.47619396 -0.10914312 -1.0244354 -0.39192995 0.98965406 -0.623777
0.6083186 -0.33268377 0.1852696 0.37777874 -0.013261292 -0.49623188 -0.119593404 -0.8375312
-0.62344813 -0.18168832 0.10816732 -0.48020002 0.24292813 0.084174104 -0.57972443 1.2133919
-1.1485445 -0.75393766 -0.12863545 -0.24004644 0.3681317 0.6183941 -0.4303862 0.671889
-0.63534355 0.2879869 0.36317548 0.42878428 -0.3591165 0.6728151 0.8776843 -0.2145586
-0.089031525 0.76824653 -0.5718656 0.21045575 0.101115465 -0.95564634 0.9674896 -0.56301
-0.09592973 -0.36068517 -0.7465071 0.3513865 -0.6558566 -0.6240999 -0.052914944 0.23630156
-0.15739568 -0.013523705 0.17385858 -0.14368445 0.088156775 0.072699144 -0.5290401 -0.08870953
0.34265062 0.12575638 0.18986095 -0.011050416 0.13340732 -0.10370503 0.12562516 0.13949387
-0.104454555 0.23762046 -0.026780223 0.5583386 0.10322533 0.0041691116 -0.36984396 0.08552362
00000000: c69a 2dbd 421a 42bf 9eef 7d3e 4f8a 42bf
00000010: f1ed 2fbe 912d 3dbe 1da4 94be a5c4 a93e
00000020: 24f1 04bd 08f9 1abf 6956 373f ffee 04bf
00000030: 2510 fd3e 85d3 983e 4c0d 17bd 56e8 5bbf
00000040: 9cf5 913d d88a e13e 9f87 9abe e63a 30be
00000050: e077 3d3e 9b65 8f3e 0213 c1bd 580d f0be
00000060: 7b8f e3be 999a df3e 53c7 56be 09ee ffbb
00000070: 4a90 7b3f 46f3 eabe f015 88be 4a1d 03bf
00000080: d237 1b3f 1b85 0fbf 03bb e5be e8c6 7bbf
00000090: f039 bdbe edd2 6ebd 582b 003d 7111 b03e
000000a0: b77e 653e 5a05 c4be 1843 423f 0d6a 4fbf
000000b0: 6205 063f cb4c 443c fc36 7abe b2cd f5be
000000c0: 06a0 1a3f 2eb2 943e bacc 68bf 11cd 8abe
000000d0: 1c8c 2cbf 50c4 653d d1af 8d3d ce93 293f
000000e0: 2e2b 14bf d733 653e b1a5 2ebf 3d00 843f
000000f0: af64 34bf 7a11 253f 9ad0 bbbe 9d3e 07bf
00000100: 51b4 493f 9ed7 283f b2cf f33e 6e86 dfbd
00000110: b320 83bf 0bab c8be f859 7d3f d9af 1fbf
00000120: c5ba 1b3f 8755 aabe 50b7 3d3e 376c c13e
00000130: e445 59bc 1b12 febe 63ed f4bd 7268 56bf
00000140: 4c9a 1fbf 810c 3abe d486 dd3d c7dc f5be
00000150: 27c2 783e 7963 ac3d d268 14bf 6d50 9b3f
00000160: 8203 93bf 0f02 41bf 03b9 03be bcce 75be
00000170: c27b bc3e 134f 1e3f 945b dcbe eb00 2c3f
00000180: e0a5 22bf 0573 933e 23f2 b93e 9d89 db3e
00000190: 1ede b7be 9c3d 2c3f ebaf 603f 40b5 5bbe
000001a0: 2956 b6bd ceab 443f c965 12bf b681 573e
000001b0: a015 cf3d 3da5 74bf 66ad 773f 6c21 10bf
000001c0: ce76 c4bd baab b8be 171b 3fbf eee8 b33e
000001d0: 38e6 27bf 03c5 1fbf 57bd 58bd 09f9 713e
000001e0: 552c 21be 8892 5dbc fc07 323e 0422 13be
000001f0: 8a8b b43d 4ae3 943d 2c6f 07bf 58ad b5bd
00000200: e76f af3e 48c6 003e e96a 423e ce0c 35bc
00000210: ee9b 083e 4e63 d4bd e2a3 003e 7bd7 0e3e
00000220: 45ec d5bd c752 733e 3362 dbbc 47ef 0e3f
00000230: cd67 d33d 0b9d 883b 305c bdbe 0227 af3d

mlp.2.bias f4 [6]
0.44316372 0.5341217 -0.22991753 -0.10801311 -0.013319631 -0.66296047
00000000: 5be6 e23e 33bc 083f 806f 6bbe fa35 ddbd
00000010: 953a 5abc c7b7 29bf
