experiments/HMS/trans/models/hms_transformer_fold=1.pt (torch, 23594 bytes, 18 tensors)

transformer_encoder.layers.0.self_attn.in_proj_weight f4 [72, 24]
000000 cf 5e 70 3e 0f 69 30 be 50 5b 70 3d 1c ec 0d 3d
       0.23473667 -0.17227577 0.058680832 0.034649
000010 46 a5 75 3e cd 80 0d bd bf 3a d9 3d bb ff a2 bc
       0.23988828 -0.034546662 0.10606908 -0.019897332
000020 df 92 35 3e 2c 01 30 be 39 8b 9d 3d b2 17 7a 3e
       0.17731808 -0.17187947 0.0769257 0.24423102
000030 58 5e 26 3e 5e 1a e1 bd 06 7e e9 3d ec f1 f7 3d
       0.16246927 -0.10991357 0.1140099 0.1210669
000040 64 8f d1 ba a5 7e 03 3e 69 36 26 3d c4 7b f4 bc
       -0.0015988168 0.1284128 0.040579233 -0.029844172
000050 66 0b 45 be 11 bb 2f be 0d ec f8 bc 15 02 42 3b
       -0.1924263 -0.17161204 -0.030385995 0.0029603292
000060 07 41 24 be 1b 7a e1 bc 83 9f 91 3d 85 ee 63 3e
       -0.16040431 -0.027524045 0.071105026 0.22258957
000070 26 99 1f be 26 33 86 3e 5f b4 c2 3d e0 f8 68 3d
       -0.15585765 0.26210898 0.09507059 0.05687797
000080 55 84 8d bd 8d da ed bd 62 d4 ac 3e de 54 e3 bd
       -0.06910006 -0.11613951 0.33755785 -0.111001715
000090 59 32 cc bd 5b 6a ef bd 69 e7 86 3e 0b 09 c0 bd
       -0.099705406 -0.116902076 0.26348427 -0.09376725
0000a0 24 fc 66 bd f5 2d 29 bc 24 1d 79 be 78 61 5f bd
       -0.056392804 -0.010325898 -0.24327523 -0.054536313
0000b0 bc 40 8c 3e 0d 7a 1f 3e 03 17 0f be 67 6d 70 be
       0.27393138 0.15573902 -0.13973622 -0.23479234
0000c0 3f 56 00 be 05 96 0b bc 9b 62 bc 3d d7 29 c5 bd
       -0.125329 -0.008519654 0.09198495 -0.09627121
0000d0 d9 e6 53 be 90 28 9a be 4e 5a 6e be 11 0c 88 bd
       -0.2069353 -0.30109072 -0.23276636 -0.066429265
0000e0 4f 5b 38 3d f7 d5 fa 3d 39 f5 1a be 12 53 b7 3d
       0.045008954 0.12247842 -0.15132608 0.08951391
0000f0 fd 76 3a be a3 9b 53 be 0d f6 0a 3e 86 7a 6c be
       -0.18209453 -0.2066484 0.13570423 -0.23093614
000100 c2 02 47 be 58 34 9b bc 33 fe 28 3e d8 40 09 be
       -0.19434646 -0.018945858 0.1650322 -0.13403642
000110 71 54 0e 3e 6d 36 5c be df 87 da 3d f9 08 44 3e
       0.138994 -0.21505137 0.106704466 0.19144048
000120 e5 dd 80 3d 33 1d eb bd da 97 8d 3e 9e 60 7b 3d
       0.06292323 -0.11480179 0.27654916 0.06137144
000130 b3 6b 9c 3e 75 54 cf 3e 25 8a be bb 2c 44 b6 3e
       0.30550918 0.40494123 -0.005814808 0.35598886
000140 4c 69 32 be 96 bf e4 bd 90 13 a2 3d 53 d5 0f 3e
       -0.1742298 -0.111693546 0.079138875 0.1404622
000150 93 a6 83 3e d2 7a a2 3e 3e ed 70 3e 4e 58 e2 3d
       0.25713024 0.3173433 0.23528 0.11051999
000160 9f 81 a7 be 71 e8 f9 bd 2c 05 06 3d 35 6c a8 be
       -0.3271608 -0.12202538 0.032719776 -0.32895055
000170 c0 22 56 3e 79 cc ba 3c 98 5b 0e 3e f8 7c 00 be
       0.20911694 0.022802578 0.13902128 -0.12547672
000180 e0 1d a9 3c d0 c9 81 3e a5 2d 2a 3e 0a 1d 9d 3c
       0.020644128 0.25349283 0.16618975 0.019178886
000190 8f 93 b8 bd 0b aa be 3d 9c 9a 1e 3e 4b 03 55 be
       -0.090125196 0.09309777 0.15488666 -0.20802037
0001a0 e3 c7 f6 bd 0c d8 11 be ab 82 0f bc 32 c5 4b be
       -0.12049844 -0.14242572 -0.008759181 -0.19899443
0001b0 d1 ba 6e 3d 8a 3b db 3d ff 2a 8b 3e 70 80 47 be
       0.05828363 0.107047155 0.2718124 -0.19482589
0001c0 82 4a b8 bd a1 48 7f bc f6 0d e8 3c c3 ec 0d 3e
       -0.08998586 -0.015581281 0.02832697 0.13859849
0001d0 25 be 13 3e c9 41 f6 3c 8e c7 56 3e ac d4 6a be
       0.14428003 0.030060666 0.20974562 -0.2293269
0001e0 59 d2 0c bc a6 d7 a5 bd a8 34 6e be 39 7c 98 be
       -0.008595073 -0.08097772 -0.23262274 -0.29782274
0001f0 ad bf 48 be b1 a9 4c be 6d 43 76 bc 24 f6 5c be
       -0.19604369 -0.19986607 -0.015030724 -0.2157827
000200 34 87 50 3e 96 86 62 bd 54 8e 9b 3c cf 7e 0b bb
       0.20364076 -0.055304132 0.018988766 -0.00212853
000210 e2 f2 f4 bd 39 90 0f be 7a 3c 03 be 1f 1d 51 bd
       -0.11960389 -0.1401986 -0.12816039 -0.051053163
000220 c0 f3 98 3d a0 bc 48 3e 0a f7 16 3e 99 90 25 3e
       0.074683666 0.19603205 0.14742675 0.16168441
000230 d7 53 a8 bd ec 60 8e 3d 3b 36 d4 bd bb a6 5c bd
       -0.08219116 0.0695208 -0.10361906 -0.053869944
000240 a3 b2 4d bd 67 c1 80 3c 5b dd 87 bd 1d b2 a9 bb
       -0.05021919 0.015717221 -0.06634017 -0.0051787035
000250 aa 26 59 3e 7a e6 8d bc 4b 57 b8 bd 15 59 f3 3d
       0.21206155 -0.017321814 -0.09001025 0.118822254
000260 43 a6 53 3e d9 bb 9d bc 83 da 83 3e 5f a6 60 3e
       0.20668893 -0.019254612 0.2575265 0.21938466
000270 ff 54 af 3e 14 c3 82 3e 4d af 08 3e 3c 61 ac 3e
       0.34244534 0.25539458 0.13348122 0.33667934
000280 58 09 86 be b6 3e c2 bc 75 9e 02 3d 82 93 4e 3e
       -0.26179004 -0.023711544 0.031889398 0.20173457
000290 77 a0 0b bb f7 98 1c be f6 2f 31 be 11 e0 70 be
       -0.0021305361 -0.15292726 -0.17303452 -0.23522975
0002a0 2b 51 5f 3e bc 7b 7d be 67 ee 69 bd 22 1a 44 be
       0.21808307 -0.24754232 -0.057112124 -0.19150594
0002b0 2e 92 52 be c6 b9 1c 3e 62 3b 8d be 0e d3 b2 bd
       -0.20563576 0.15305242 -0.27584368 -0.08731662
0002c0 ce 8b 08 bd 24 61 5f be cd 2e 20 3e 4e a7 80 bd
       -0.033336453 -0.218144 0.15642853 -0.06281911
0002d0 ab dd 3b be 3d 95 58 be ba 71 97 bd 4a 14 48 be
       -0.18346278 -0.2115068 -0.073947385 -0.1953899
0002e0 6a 94 b5 bd 31 81 0b 3e 0f fd 6a 3d 3e a3 d7 bd
       -0.08866198 0.13623501 0.05737024 -0.10529183
0002f0 03 c9 50 be be 28 62 be bf ae 58 3e fa 0a b0 bd
       -0.2038918 -0.22085854 0.2116041 -0.085958436
000300 8c 13 71 bc 4a b4 93 3b ef 52 6e 3e 3e 93 cf 3d
       -0.014714133 0.004507576 0.23273824 0.10135506
000310 01 18 64 3e 32 0d 24 be 0b b9 00 3e 95 22 46 bd
       0.22274782 -0.16020659 0.12570588 -0.048372824
000320 73 0e 06 be 86 43 c0 3c fc c5 71 3e da 53 3d 3d
       -0.1309145 0.023469698 0.23610681 0.046222545
000330 6d 6e 87 3e 28 6c 9c 3d 9d f4 44 3d 83 d0 d2 bd
       0.26451436 0.07637817 0.048084844 -0.10293677
000340 10 f8 c4 bc 4c ed 7f bd 2e f9 b3 be 34 44 2c 3e
       -0.024044067 -0.062482163 -0.35151047 0.16822892
000350 e9 12 17 3d ef cb 62 3e b9 11 94 bd 5c 10 26 3e
       0.03688327 0.22148107 -0.07229943 0.16217178
000360 b3 9a d2 3d be 7e b9 3d e7 f5 99 3c 81 18 50 3d
       0.10283413 0.09057377 0.018794013 0.05080462
000370 6b 0c ef 3d e8 eb 8e bd 06 3d 34 3e fb 89 ad 3e
       0.116722904 -0.06978589 0.17601404 0.33894333
000380 c0 93 86 3d 94 85 21 3e 39 50 f6 bd 5d ec 4f 3e
       0.0657115 0.15773612 -0.1202702 0.20305009
000390 3a 39 67 3d 58 f0 8d 3e f3 6b 66 3d bd 99 3c 3d
       0.05645106 0.2772243 0.056255292 0.046045054
0003a0 49 51 80 bd b7 e6 ae 3b 86 e8 1c 3e dc 00 38 be
       -0.06265504 0.005337562 0.15323076 -0.17969078
0003b0 fe 41 b9 3d b1 ad 2c bd 50 70 84 bd e7 69 0f 3e
       0.0904579 -0.042157833 -0.064667344 0.14005242
0003c0 67 35 2b 3e 11 7b 0f be cd 86 e4 3d 4e 45 4c 3e
       0.1671959 -0.1401179 0.11158524 0.19948313
0003d0 3b b7 17 3e 46 8d 8b bd cb b3 fe bb 47 a2 87 3e
       0.1481599 -0.06814055 -0.007772898 0.26490995
0003e0 de d5 0a be b7 a0 1e bd b5 bc 34 be 35 de 81 3e
       -0.13558146 -0.03872749 -0.17650111 0.25364843
0003f0 bb 3f 42 bd b2 63 86 bd 2b d6 6a 3c bf 49 8f 3d
       -0.04742406 -0.06561984 0.014333288 0.06996488

transformer_encoder.layers.0.self_attn.in_proj_bias f4 [72]
000000 c0 05 89 3d d8 9b 86 3d 7a 2e b4 bd 85 ad 65 3e
       0.0669055 0.065726936 -0.08797927 0.22429474
000010 bb 3e 23 3d e5 b7 18 be a2 6a 2a 3e a4 93 8b bd
       0.039854746 -0.149139 0.1664224 -0.068152696
000020 b8 ed ac 3d 7b 70 f7 3d c8 17 11 3e 9a 75 21 be
       0.08443779 0.12082001 0.14169228 -0.15767518
000030 59 75 71 be bf bc 4f 3a 5b 61 9f 3d 27 b4 60 3e
       -0.23579921 0.00079245487 0.07782241 0.21943723
000040 bf 7d 31 be a1 69 30 be 96 7d aa 3e d5 58 2a be
       -0.17333125 -0.17227794 0.3329894 -0.16635449
000050 94 c3 7a 3e 03 41 d3 bd 7d 1d bf 3c 8a 73 9f 3d
       0.2448867 -0.103151344 0.02332949 0.07785709
000060 cd 19 8e 38 52 af 86 3b f4 5e 1f 3b d8 08 8d 3b
       6.7758934e-05 0.0041102553 0.002431807 0.004304033
000070 89 88 bf 3b c7 fa 07 bc b5 16 31 3b 16 76 f5 bb
       0.0058451337 -0.008299536 0.002702159 -0.0074908836
000080 5a 12 a7 3b 30 8c 69 bb f2 a4 bd 3a 1f 3f 36 bb
       0.005098623 -0.0035636537 0.0014468713 -0.002780862
000090 b4 1c 9c 3b 87 2e b5 3a 6f 41 29 3c 11 52 5c 3b
       0.004764164 0.001382307 0.010330542 0.0033618251
0000a0 1e 4e 0c 3b 5b 4a 10 3c 8d be 41 3c d1 75 e7 bb
       0.0021408866 0.00880679 0.011825216 -0.0070636054
0000b0 4f 76 bb 3a 48 c4 8e bb d7 1e 06 bc 6d 9d 5c bb
       0.0014302226 -0.0043568946 -0.008186064 -0.003366317
0000c0 10 7b a3 be df 43 c7 3e 35 38 3c bf df 05 e5 be
       -0.31929827 0.3891897 -0.73523265 -0.44731042
0000d0 e7 a4 20 3f d1 a4 0f 3f 85 d5 e0 be f8 79 aa 3e
       0.6275162 0.56110865 -0.43912902 0.3329618
0000e0 46 c9 79 3e 47 5f 08 3c 68 4b 54 bf bf cf 27 bf
       0.24393186 0.008323497 -0.8292756 -0.6555137
0000f0 75 0d 1a bf 2b 03 2b bf 78 a7 ad 3e 91 4f 57 be
       -0.60176784 -0.6680171 0.3391683 -0.21026446
000100 2a ad 35 be 7c 9a a5 be 9a 88 3f 3f 62 13 de 3e
       -0.17741838 -0.32344425 0.7481781 0.43374163
000110 dd 91 b1 be fc a8 85 be f8 11 0e be cc 7f 9b 3d
       -0.34681597 -0.26105487 -0.13874042 0.07592735

transformer_encoder.layers.0.self_attn.out_proj.weight f4 [24, 24]
000000 b9 58 88 bc b3 55 af bd 76 38 5a bb cb f8 7b 3c
       -0.016643869 -0.08561268 -0.0033297813 0.015379141
000010 d7 13 d5 3d 06 c4 2a 3e 8c 25 05 be a2 30 39 3e
       0.10404175 0.1667634 -0.13002604 0.18084958
000020 7b e5 31 3e 3f 1d 80 3e bf c0 98 be 25 8e 91 3e
       0.17372696 0.25022313 -0.29834554 0.2842876
000030 fe 4b a6 3e 39 c0 fb bd 3a 1e 16 bd a4 fb 06 bc
       0.32479852 -0.12292523 -0.03664992 -0.008238707
000040 60 51 fc 3d f5 84 41 be 89 45 01 be ff 20 e6 3d
       0.123202085 -0.18898375 -0.12624182 0.11236762
000050 63 5e 86 bc 37 41 ba be 81 55 4f bd 1f a4 b1 3e
       -0.016402429 -0.3637788 -0.050618652 0.34695527
000060 aa bf 6e bd 89 5d 9f 3c 62 24 24 3e 61 51 5e bb
       -0.058288254 0.01945378 0.16029504 -0.0033923017
000070 f0 b2 30 3e de 0b 76 3e b2 9b 79 bd df a6 2f 3e
       0.17255759 0.24027964 -0.0609395 0.171535
000080 44 e5 b5 3d af 98 4c 3e be 8b 09 3d df d8 0e be
       0.088816196 0.19980119 0.033580534 -0.13949917
000090 06 27 17 bc 43 a9 75 3d 5c d4 0d be a7 15 5d be
       -0.0092256125 0.059975874 -0.1385054 -0.21590291
0000a0 46 be 85 be d7 f2 a4 bd 72 62 60 3d 66 36 a9 3a
       -0.2612173 -0.080541305 0.054781385 0.0012909889
0000b0 0f 20 c6 3c c6 b1 2a 3c 6b b1 6e be 99 75 fb 3d
       0.024185209 0.010418361 -0.23309867 0.12278289
0000c0 75 e9 8c 3d 59 e5 8f 3b db 9d 2b be 23 e2 e6 3c
       0.06880466 0.004391354 -0.16759436 0.028184002
0000d0 96 a1 90 3a 11 9b 3b be 6c c7 ef 3d 0b a9 e7 3d
       0.0011034484 -0.18320872 0.117079586 0.11311539
0000e0 44 76 0d 3e 58 84 7b 3d aa 36 92 3e d5 b0 79 3d
       0.13814646 0.06140551 0.2855733 0.060959656
0000f0 86 2f a9 bd f2 6b 2a be 3b e7 56 bd f3 1f 3b bd
       -0.082610175 -0.1664274 -0.052466612 -0.045684766
000100 4f 36 11 3c 22 88 e0 bc e9 19 3a 3e 3e d0 f6 3d
       0.008863046 -0.027408663 0.18173946 0.12051438
000110 65 8c 93 bb 46 e2 95 3d 9a 15 05 be 25 89 0d be
       -0.0045028203 0.07318549 -0.12996522 -0.13821848
000120 bf 58 23 3d 96 0f 51 be 0c 2e e7 bc 7e d5 cf 3b
       0.039879557 -0.20416102 -0.028220199 0.006342589
000130 95 98 83 bd 57 5f 5b 3e 1a d2 85 3d 0e 04 0a 3e
       -0.06425587 0.21423088 0.06534214 0.13478109
000140 c3 4d e3 bc 45 1d a8 3d 94 5c 7e be 3e 60 6a be
       -0.02774704 0.08208708 -0.24840003 -0.22888276
000150 41 75 21 3d a0 5d f5 bd 36 9f 15 3e 4f 8c b7 bd
       0.039418463 -0.11980748 0.14611515 -0.089623086
000160 57 4c 52 be 0e 7d ec bd 30 9c 1c be 63 45 37 bd
       -0.20536934 -0.1154729 -0.15293956 -0.044743907
000170 21 91 23 be e2 1b 28 3e 25 f0 01 3e 1e 81 86 bb
       -0.15973331 0.16416886 0.12689264 -0.0041047474
000180 34 1b 57 3d 86 45 48 be 82 a9 bd bd 06 21 81 3c
       0.052516177 -0.19557771 -0.09260847 0.015762817
000190 13 11 6d 3d ce a5 83 3d 65 27 51 3d da 1a 10 be
       0.05787761 0.06428109 0.05106296 -0.14072743
0001a0 4b ee 2b 3e 79 a2 73 be bd d8 94 3b e6 14 29 bd
       0.1679012 -0.23792447 0.004542439 -0.041279696
0001b0 9c b8 10 3d 66 60 e9 bc 01 67 0b 3e a4 05 7f bd
       0.035332307 -0.02848835 0.13613512 -0.06226124
0001c0 ad 15 02 be 8b 9a 76 3e 0a 70 37 3e bf 5e 81 3e
       -0.12703581 0.24082391 0.17913833 0.25267598
0001d0 d7 e3 1a be cc db 58 bb db a1 87 be 46 4b 9b 3e
       -0.15125977 -0.0033089994 -0.26490673 0.30330867
0001e0 43 48 0d bd cb 4b ec bc 5d c5 81 3e c7 95 d5 3d
       -0.034492742 -0.028844735 0.2534589 0.104289584
0001f0 88 ac dc bd 13 53 d9 bd 6c 54 32 bd 9e f5 31 be
       -0.10775095 -0.10611548 -0.043537542 -0.17378852
000200 82 04 90 3d 9d de 40 be 42 15 1c 3e b0 db e5 3e
       0.0703211 -0.1883492 0.15242484 0.4489417
000210 86 f1 3a 3d 3d 7e 04 bd 37 b0 cf 3d fb d3 a2 bc
       0.04564049 -0.032346953 0.10141032 -0.01987647
000220 8e 30 4d 3e 7b a8 f9 bd 16 bf 07 be 7d 4e 93 bd
       0.20038053 -0.12190338 -0.13256487 -0.07192705
000230 dc c0 7f 3d 90 e1 63 3d aa 83 8b 3e 58 d5 be 3d
       0.062439784 0.055635035 0.2724889 0.09318036
000240 d5 6b 57 3e f5 33 84 3d 03 28 80 3e 56 14 01 be
       0.21037228 0.064552225 0.25030527 -0.12605414
000250 5f ee 4a be ba ac 61 be 9d 0d 1f 3e c6 1c a2 bc
       -0.19817494 -0.22038546 0.15532537 -0.01978911
000260 82 69 96 3d fb c5 5d 39 f3 d7 b8 3e a4 84 de 3e
       0.07344343 0.00021149956 0.36102256 0.43460572
000270 d5 e4 0c bd 3c cd 43 3e 39 2f 56 bc 4f 05 1e 3e
       -0.03439792 0.1912126 -0.013072782 0.15431713
000280 06 69 d7 3b d5 31 5c bd e5 22 a3 bd 71 f3 2b bc
       0.006573799 -0.05375846 -0.0796564 -0.010495053
000290 21 0f 3a 3e 28 c1 db 3d 9c c7 33 bd 4d e3 46 3e
       0.18169834 0.10730201 -0.043891534 0.19422646
0002a0 bd 12 1b bc c4 17 28 be d5 bc 33 3e dc f0 e7 bd
       -0.009464917 -0.16415316 0.17552502 -0.11325237
0002b0 ef 0a ae 3d 31 2b 3a bd 97 6c 24 3e d5 de 03 be
       0.08498179 -0.045451347 0.16057049 -0.12877972
0002c0 8b ad 99 bd c5 ea f1 bb f1 72 7c 3e 71 ed 8c 3e
       -0.07503804 -0.007382723 0.24653222 0.27524903
0002d0 36 ee e7 3d 89 7d 4e be 1a be 5c bd 50 f1 42 bd
       0.11324732 -0.20165075 -0.053892232 -0.047593415
0002e0 fb 46 7a 3c 57 b4 06 3e 9d 6a 2c 3e 8e da 3d be
       0.015275712 0.13154732 0.16837545 -0.18540403
0002f0 9f df 2a bd b7 99 34 3d a2 56 5e 3d 42 cc 34 3d
       -0.041717168 0.044091906 0.05428184 0.044140108
000300 19 db 89 3d f0 99 85 3d 8f f1 a9 3e e7 9d 88 3e
       0.06731243 0.06523502 0.33192107 0.2668297
000310 7d a1 00 be b4 c0 2f bd a1 08 79 3e d6 cb cd 3d
       -0.12561603 -0.042908385 0.24319698 0.10048644
000320 da ba 26 be 3d 5d 3b 3d 1a 86 db 3d 46 2f 0e 3c
       -0.16282216 0.045743216 0.10718937 0.008678263
000330 3b 31 b3 bc 28 89 4d ba b1 f5 b2 3d 90 1f 06 3e
       -0.02187406 -0.0007840567 0.08738268 0.13097978
000340 91 0d 33 3e 64 9e 2b 3e e9 d6 7c be c5 bf 6b bc
       0.17485644 0.1675964 -0.24691357 -0.014388983
000350 bf d1 ad bc 39 ef 59 bd 0a 54 5e be 23 fd 4a 3e
       -0.021218179 -0.053206656 -0.21711746 0.19823126
000360 ef 73 90 3d 1b 5c b1 bd 9c 5a 76 be d8 bf 5c be
       0.070533626 -0.08660146 -0.24058002 -0.21557558
000370 ff 0e 6f 3b 8b 08 c0 3d fa 39 12 be 63 43 26 3e
       0.0036477444 0.093766294 -0.14279929 0.16236643
000380 b2 c5 1f 3d b8 1b 2b 3e c1 8b db 3d 7d b2 28 be
       0.039006896 0.16709793 0.10720015 -0.16474338
000390 bb d9 7c bd e5 b1 47 be b8 c4 e3 bb 42 1e a2 3c
       -0.06173108 -0.19501455 -0.006950941 0.019789819
0003a0 cd d0 d7 3d 9c a8 ba bd 78 ca 85 3c d3 e1 86 bd
       0.105378725 -0.09114191 0.016331896 -0.06586041
0003b0 c3 98 93 3d 87 80 07 be 8d 44 c4 3d a0 75 3c bd
       0.07206871 -0.13232623 0.095833875 -0.046010613
0003c0 05 14 a6 bd 78 86 c6 bc c0 6a d1 bd e4 03 26 be
       -0.08109287 -0.024234042 -0.10225439 -0.16212422
0003d0 f9 60 52 3e f1 1c 62 3d 55 bd 6f 3c cf 39 d2 3c
       0.20544805 0.055203382 0.014632543 0.02566233
0003e0 d5 22 cb 3d af e1 3b be 84 7d e1 3a dd eb 53 bd
       0.09918753 -0.1834781 0.0017203544 -0.05173861
0003f0 15 3b c3 3d 8a 3c 86 bd c8 52 e6 bd 06 8b 87 ba
       0.095327534 -0.06554516 -0.11246258 -0.0010341115

transformer_encoder.layers.0.self_attn.out_proj.bias f4 [24]
000000 fc 27 51 3a 66 91 cd bc a9 a9 d3 3c 8e 2d a0 3c
       0.00079786754 -0.025093745 0.025837736 0.019552972
000010 bf cf a5 3b d6 d5 4e 3c 87 0a 3d 3d d0 f7 d1 3c
       0.0050601657 0.012624225 0.046152618 0.025630862
000020 17 35 d6 3d c8 e9 95 bb 1f 8c 9f 3c c0 b1 02 bd
       0.10459345 -0.004574988 0.019475995 -0.031907797
000030 01 2e a1 bb 4f fb 06 bc bd 94 91 3a 31 38 19 bd
       -0.004918814 -0.008238628 0.001110695 -0.037407104
000040 07 7f f6 bc 44 ca 4b bd bc 41 ed 3d 94 7d 99 bd
       -0.030089868 -0.049753442 0.115848035 -0.07494655
000050 58 ea 20 3d 41 5b b7 bd 00 81 a1 bd d2 e6 84 bc
       0.039285988 -0.08952952 -0.07885933 -0.016223345

transformer_encoder.layers.0.linear1.weight f4 [16, 24]
000000 4b 5a 71 3d 29 3e 7d 3c 92 47 13 be 62 5c 3c be
       0.058924 0.015456715 -0.1438277 -0.18394616
000010 db 18 74 3c 33 80 ef 3d 16 cd 13 3e 22 21 42 be
       0.014898504 0.11694374 0.14433703 -0.18957952
000020 f5 0f 04 bd 8b d8 bb be 72 d0 36 bd d8 41 b8 bd
       -0.03224178 -0.36688647 -0.044632383 -0.08996934
000030 01 3c 0e 3e 14 4a a0 bc 94 75 c4 bc cc 9c b4 3d
       0.13890077 -0.019566573 -0.023981847 0.08818969
000040 b8 54 9f 3e 1d c5 9a 3e 2e 5f 1c 3d 1a ba 3b be
       0.31119323 0.3022851 0.038176708 -0.18332711
000050 da 63 ab bc 93 1e 04 bd ff 86 c0 bd 29 53 d0 be
       -0.020921636 -0.03225572 -0.094007485 -0.40688446
000060 87 13 7e bd 5c 87 b4 3d 50 2e 28 3e 5b bd 41 3d
       -0.06203034 0.0881488 0.16423917 0.047299724
000070 0d 18 21 3e 91 41 5c bd f4 b5 5a bc cf d9 d8 3d
       0.15731831 -0.053773466 -0.013349045 0.10588419
000080 65 75 6e 3e eb 7f 09 3d d5 6c 1d 3e a3 2e 72 be
       0.2328697 0.033569258 0.15373547 -0.23650603
000090 5a 7e a2 bd 0b 1f 7b be 9f ae 12 be e9 2e 4d 3e
       -0.07934256 -0.2452356 -0.14324425 0.20037426
0000a0 38 57 ec bc 47 5a 62 3e d8 2c ee bc d2 3b 96 be
       -0.028850183 0.2210475 -0.029074118 -0.29342514
0000b0 83 4a 2b be 46 db f0 bd 9f 7a bf 3c dc 1f f6 3d
       -0.16727643 -0.11760573 0.0233739 0.120177954
0000c0 80 39 e8 3d 50 67 61 be 9a 39 43 3e 6a 81 c7 3d
       0.11339092 -0.22012067 0.19064942 0.09741481
0000d0 07 e3 17 3e cf 34 a7 bd 6d da 1a be 08 e8 b3 3e
       0.14832698 -0.08164369 -0.15122385 0.35137963
0000e0 be 44 a1 bb f3 bb b3 3d 0e 24 da bd 5e f8 9b 3e
       -0.004921525 0.08776083 -0.10651408 0.30462927
0000f0 14 84 a8 be 5f 5f 44 bd 35 70 80 be 04 8c 55 be
       -0.32913268 -0.047942515 -0.25085607 -0.20854193
000100 82 41 a8 3d b5 66 9a 3c 0b 3c 59 3d b4 fd 0a 3e
       0.082156196 0.018847803 0.053035777 0.13573343
000110 68 96 2b 3e 56 cd 4f bd a9 50 d2 3c 87 04 1c 3e
       0.16756594 -0.050732933 0.025673227 0.15236102
000120 48 19 4b be b6 de 5b bd 96 7b ac bd 25 d1 1f bd
       -0.19833863 -0.05367919 -0.0842201 -0.039017815
000130 56 86 9c bd a8 04 05 3e f3 cf cd 3e dc ca 82 be
       -0.0764281 0.12990057 0.40197715 -0.25545394
000140 8e ca 1e bd f8 b0 ac be fb 02 01 be bf d1 ea bd
       -0.03876739 -0.33728766 -0.12598793 -0.11465787
000150 df e9 9c 3e f4 a6 e5 3d 6e db 2b be 96 49 30 3e
       0.3064718 0.112134844 -0.16782925 0.17215571
000160 44 79 a8 bc 00 54 d5 3d b2 c6 1c be 79 08 12 3d
       -0.020565636 0.10416412 -0.15310171 0.03565261
000170 b8 08 15 be 4b 15 bf 3e f9 d8 ac be 30 bd cc bb
       -0.14554107 0.37320933 -0.33759287 -0.006248139
000180 a6 c1 75 3e 49 87 da ba 3b 28 01 3c 4e 1b 80 3e
       0.23999652 -0.0016672398 0.007883127 0.25020832
000190 22 b0 b4 bd f8 7b 2c 3c e4 bc ca be 71 84 64 3e
       -0.08822657 0.010527603 -0.39597237 0.22316147
0001a0 be 90 d2 bc 33 cf cc 3d 29 75 02 3e 46 ef 38 3e
       -0.025703784 0.100004576 0.12740006 0.18060026
0001b0 41 ad 63 be 17 d7 85 bd c4 c5 5d 3e df b5 b4 be
       -0.2223406 -0.06535166 0.21657473 -0.35295007
0001c0 8e 0e 5a 3d a9 ef 64 bd 49 30 5b 3e c3 29 d6 bc
       0.053236537 -0.05589262 0.21405138 -0.02614296
0001d0 74 61 18 be 01 bc 66 be c0 17 4a 3e 41 83 6c 3d
       -0.14880925 -0.22532655 0.19735622 0.05774236
0001e0 ac ed 95 3d a5 4f 7a bd 65 80 0f be aa b0 2c be
       0.07320723 -0.06111111 -0.14013822 -0.16864267
0001f0 3c ff cb bd bc 38 ae 3e 7e 4c 6d bc 21 f2 d8 3d
       -0.099607915 0.3402766 -0.014483569 0.105930574
000200 38 b3 15 bc 53 96 05 3e b6 cd 92 bd fa 6c 6e 3d
       -0.009136967 0.13045625 -0.071681425 0.058209397
000210 e8 97 43 3c b7 72 9b 3e 58 a1 ae bd f9 2b d4 3d
       0.011938073 0.30360958 -0.08526868 0.103599496
000220 d8 f8 e6 3d d5 2c d1 bd 84 69 f4 3d d9 bf ba bd
       0.11277932 -0.10213629 0.11934188 -0.09118623
000230 84 cf 81 3e 45 22 6d bd 33 cc 69 be 29 0a 35 3e
       0.25353634 -0.05789401 -0.22831802 0.17679657
000240 00 71 f3 be 9c 7b 18 3d af 7f b2 3d 5b d5 a6 3c
       -0.4754715 0.037227258 0.0871576 0.020365408
000250 16 ac b6 3e 92 d5 97 bb 81 87 8f 3e 56 0b 1e 3e
       0.35678166 -0.004633614 0.2803307 0.15434012
000260 87 fb df 3d c9 6c e1 bd 06 76 b6 3d 8a 7a 16 bd
       0.10936647 -0.11007077 0.0890923 -0.036737956
000270 87 1f 09 be 0e e9 7b be 48 a4 ee 3d 83 bb 34 be
       -0.13390933 -0.24600622 0.11652428 -0.17649655
000280 ca 58 07 3e c4 51 de 3e 25 a4 18 bd e3 c4 1a 3e
       0.13217464 0.43421757 -0.037265915 0.15114169
000290 ea 0a 2f be 08 68 2a 3e 93 39 e8 3d a7 e2 17 3d
       -0.17094007 0.16641247 0.113391064 0.037081387
0002a0 b7 50 95 3d 7e d7 80 bd 48 81 4e bd 1e 6e f1 3d
       0.07290786 -0.06291102 -0.05041626 0.11788581
0002b0 f6 48 4b bd 80 58 3f 3e 38 35 97 3b b6 4c b2 3d
       -0.049630128 0.18686104 0.0046144985 0.08706038
0002c0 f0 aa c5 bd 12 76 11 3e 4f 0b d4 3d 61 84 61 3e
       -0.09651744 0.14205196 0.103537194 0.22023155
0002d0 75 63 ed 3d 58 01 2b be a2 29 c6 3d 82 93 8b be
       0.115912355 -0.16699731 0.096759096 -0.27260977
0002e0 e6 2b ab bd ae 50 51 be df a8 b4 3d e1 8e 84 be
       -0.08357982 -0.20440933 0.08821272 -0.25890258
0002f0 6a 78 b9 3e ad c8 d8 3d 48 56 60 be 39 ad 76 3e
       0.3622468 0.10585151 -0.21907914 0.24089517
000300 45 1e 62 3e bb 35 98 3c ef 30 5a be 49 0c 4d 3e
       0.2208186 0.018580308 -0.21307729 0.20024218
000310 6f d8 7f be db 03 a4 3a 5e ee 38 3e b1 3a 36 be
       -0.24984907 0.0012513356 0.1805968 -0.17795826
000320 4a ee 82 be 1a 79 2b 3e a4 d9 75 3c 2b 22 a8 3d
       -0.25572425 0.16745415 0.015005503 0.08209642
000330 23 2c 17 be ff 13 92 3e bb 86 91 3e 77 ee 9c bd
       -0.1476293 0.2853088 0.28423104 -0.07662671
000340 0c 31 32 be 68 ea 25 be 00 5c bc 3c 4b 20 2e be
       -0.17401522 -0.162027 0.022993088 -0.17004506
000350 16 08 ed 3d ad 6e 1d 3d 13 1c 06 3e 3d d0 0d be
       0.11573808 0.038435627 0.13096647 -0.13848968
000360 04 ea 25 3e 27 6a f4 3d bd db 4e be 92 5e 92 3e
       0.16202551 0.119343095 -0.20201011 0.28587776
000370 35 47 c0 3c d3 47 4e be 21 23 6c be a6 fc 7c be
       0.023471454 -0.20144586 -0.23060276 -0.24705753
000380 ce 9d 22 3e 6d 23 e2 3d 57 84 b6 bc 3a dc b3 bd
       0.1588051 0.11041913 -0.022279901 -0.08782239
000390 46 04 14 3e ff 6b 8d be 8c 24 8d ba 4a ea 9a 3d
       0.14454755 -0.27621457 -0.0010768338 0.07564218
0003a0 7f fa 68 bc 03 ef 69 3e e9 e9 fc 3d 7f 46 88 3e
       -0.014219879 0.22845082 0.12349302 0.26616284
0003b0 0f 3b 06 3e f8 8d d2 3e 76 f6 83 3e 7e 9a 17 be
       0.13108467 0.4112394 0.25773972 -0.14805028
0003c0 c1 44 59 3d a6 45 a4 be cd cd d5 3d 3a e1 64 be
       0.053044084 -0.32084388 0.10439644 -0.22351542
0003d0 1c f4 aa be 0d ba e5 3d b9 bd af be a2 61 93 3d
       -0.33389366 0.11217127 -0.34324434 0.07196356
0003e0 40 92 5f be 18 90 b7 3e b2 51 32 3e bb 61 95 3e
       -0.21833134 0.35852122 0.17413977 0.29176125
0003f0 c3 61 20 3d b1 f1 37 3a 00 d0 f3 3c 62 f4 6a 3d
       0.039155733 0.0007016911 0.029762268 0.057361968

transformer_encoder.layers.0.linear1.bias f4 [16]
000000 66 60 25 bd 24 3f 60 be b3 00 27 3d 35 99 ef 3d
       -0.040375136 -0.21899086 0.04077215 0.11699144
000010 3b 82 4e 3c e2 bc 10 3d 90 3b b9 3d 3e 83 de bd
       0.012604292 0.035336383 0.09044564 -0.10864876
000020 3e f4 4b bc 1d af ee 3d 87 25 1d bd e0 11 4a bd
       -0.012448369 0.11654494 -0.038365867 -0.049333453
000030 b3 07 ed bd 90 e1 75 3d fd 14 00 3e 96 c6 65 3d
       -0.11573734 0.060029566 0.12508006 0.05609759

transformer_encoder.layers.0.linear2.weight f4 [24, 16]
000000 94 6a c9 bd 46 9d 9a 3e 80 a6 2c be 6c f6 eb 3d
       -0.09834781 0.30198115 -0.1686039 0.115216106
000010 92 03 7b be 04 56 11 3d 8c 2c fa 3e 3b 52 c7 3d
       -0.2451308 0.03548242 0.48862112 0.09732481
000020 22 62 1a be 9b c0 af bd e3 fb f3 bd ce 68 16 be
       -0.15076497 -0.085816585 -0.11913278 -0.14688417
000030 ac e7 91 be ef 20 9b 3e a9 5c d1 3e 7e 98 eb 3e
       -0.28497064 0.30298564 0.40891007 0.4601478
000040 e2 b9 e2 3d 8a 9e d5 3d c3 a5 1a bc 38 f1 85 be
       0.110706106 0.104306296 -0.009438935 -0.26160598
000050 54 05 d1 3d 1f 10 df bb d1 6d a0 3d 61 e3 27 be
       0.102060944 -0.0068073417 0.07833446 -0.16395332
000060 74 92 27 3e a4 2d e2 bd ef bc af 3d 0b 58 62 3d
       0.16364461 -0.110438615 0.08580958 0.055259746
000070 5c 4a ed be 87 b0 83 3d a6 a3 b9 bd 6f 80 03 be
       -0.46345794 0.06430154 -0.090644166 -0.12841962
000080 aa 7d db 3d bf 90 18 be f6 d6 82 3e 83 d4 18 3d
       0.10717328 -0.14898966 0.25554627 0.037312042
000090 f3 51 79 3d 2e fc 54 be db 23 9a be 55 0f 52 be
       0.06086917 -0.20799324 -0.3010548 -0.20513661
0000a0 07 d9 93 be 46 21 ef 3d 35 7f 72 3e 90 16 ae 3e
       -0.28876516 0.11676268 0.23681338 0.3400159
0000b0 2d 4d 83 be 44 cc 60 3e 5c b5 1b bd 10 eb 89 bd
       -0.25644818 0.21952921 -0.038014755 -0.06734288
0000c0 f0 cf de ba 76 c6 5e be 9d 18 5c be a9 64 1a 3e
       -0.0016999226 -0.21755394 -0.21493764 0.15077461
0000d0 19 fd b3 bc c0 9b 51 be ac 56 c1 bb 31 07 e0 3d
       -0.021971272 -0.2046957 -0.0059002247 0.10938872
0000e0 02 71 3a be c3 fd 30 3c 69 1f da bd bb 8a 8c 3e
       -0.18207172 0.010802689 -0.10650522 0.27449593
0000f0 c2 fc 65 be 31 78 f0 3d 7a dc 5c be 11 04 de bd
       -0.224597 0.11741675 -0.2156848 -0.10840619
000100 2b 3b 0f be 52 cb a3 be f3 42 be bd 8a 90 d0 3d
       -0.13987415 -0.3199106 -0.09290113 0.10183819
000110 a4 07 79 3e 9a 46 4c be 8b 38 f2 bd e4 2d 96 be
       0.24319321 -0.19948807 -0.11827191 -0.29331887
000120 ba c2 fd bc 43 80 f0 bc 15 b1 cc 3e f7 04 ed 3e
       -0.030976642 -0.029358035 0.39978853 0.4629285
000130 78 fa c4 bd e7 34 d5 bb 8b 17 e9 bd e9 79 20 bd
       -0.096180856 -0.0065065506 -0.113814436 -0.039178763
000140 b9 22 e9 bc bb 11 b2 3d c3 7a da bc 39 f0 1e be
       -0.02845894 0.08694788 -0.026669865 -0.15521325
000150 b9 3b 5d be ef 17 87 3e 6e da f2 3e 46 0b a6 3e
       -0.21604814 0.26385447 0.47432274 0.32430476
000160 a5 e7 9f 3c 65 39 9c 3e 0f 6c 54 be d2 13 f0 bd
       0.019519636 0.3051254 -0.20744346 -0.117225304
000170 61 f8 49 3e a3 3a 06 be 16 4a 93 be 6b 8e 80 3e
       0.19723655 -0.13108306 -0.2876746 0.25108656
000180 fb 6e 59 3e b2 6b 51 be bb 70 b7 3e 44 e4 6b bd
       0.21233742 -0.20451239 0.35828194 -0.057590738
000190 62 a3 06 3e 62 06 94 3e 52 3b 17 3e 70 d4 8a 3e
       0.13148263 0.2891112 0.14768723 0.27115202
0001a0 40 51 b3 be fc 35 42 bc 9b dc 54 3d c1 8b 6e bd
       -0.35022926 -0.011853691 0.0519682 -0.05823875
0001b0 af d6 24 3e f0 76 d2 3e 6d 4e 99 be 84 10 0e 3d
       0.1609752 0.41106367 -0.29942647 0.03468372
0001c0 49 b1 15 be db 07 ba bd 0d f2 d2 be d8 90 24 3e
       -0.1461841 -0.090835296 -0.41200295 0.16070879
0001d0 88 4f 55 3d 21 70 46 be f0 d2 38 3e c4 a0 d9 bd
       0.0520778 -0.19378711 0.18049216 -0.10626367
0001e0 a2 f1 9a 3e 73 c8 49 3e 65 0c 88 bd 38 73 2e 3d
       0.30262476 0.19705372 -0.06642989 0.04259035
0001f0 c6 e3 44 3c e4 23 0e be fc 67 5d be d7 f0 17 3e
       0.012017196 -0.13880879 -0.21621698 0.14837967
000200 7a 3a 3c 3e b4 b7 b0 bc ba 9d 23 3e 03 be 2e 3e
       0.18381682 -0.021571971 0.15978137 0.17064671
000210 e8 18 8f 3e 83 70 47 be c2 5d ae 3d 59 49 ed bd
       0.2794869 -0.19476514 0.08513977 -0.115862556
000220 2f 68 ae bd 38 9d 43 be 73 79 9e 3e 27 8a 6a 3e
       -0.08515965 -0.19102943 0.30952033 0.22904263
000230 19 dc aa be ad fa c8 3e 89 9b 8d be 1d 38 30 bd
       -0.33371046 0.3925375 -0.27657726 -0.043022264
000240 3f 7d 5f bd 26 1f 1e 3e 62 a9 2f be 82 de 2b 3e
       -0.054562803 0.1544157 -0.17154458 0.16784099
000250 53 d5 db bd 0f 76 04 bd 4a 05 97 be 92 31 30 3d
       -0.10734048 -0.032339152 -0.29496223 0.043016024
000260 d3 60 e6 39 6b 6f 2f be 65 66 19 be a1 7b 9f bc
       0.00043941158 -0.17132346 -0.14980467 -0.01946813
000270 7a 44 32 be 08 e4 1f be 5f 35 d1 3e 65 f7 d0 bd
       -0.17408934 -0.15614331 0.4086103 -0.10203437
000280 a4 71 8d 3e ea 80 58 3e 90 64 e9 3d 50 6b 05 3e
       0.27625763 0.21142927 0.11396134 0.13029218
000290 74 ea 37 3c e5 70 db ba de 3b d9 be d7 84 37 3d
       0.011225332 -0.0016742019 -0.42428488 0.04480442
0002a0 c7 f1 61 3c c4 5f 14 3e 72 2f 76 3e af 7d 13 bd
       0.013790554 0.14489657 0.24041536 -0.036008533
0002b0 7a 83 5e 3e a7 80 ad be e0 ad 5d be 55 34 f1 be
       0.21729842 -0.33887216 -0.2164836 -0.4711024
0002c0 a7 2f d0 3d 48 26 41 3e 35 19 a7 bc 51 9d 11 be
       0.10165339 0.1886226 -0.020397762 -0.14220168
0002d0 c4 5f 42 be c0 64 67 3d af 3a f9 3e 2a 37 02 3e
       -0.18981844 0.056492567 0.48677585 0.12716356
0002e0 27 07 86 3d 2f 3d bd 3e a8 aa 96 be 95 4a 93 3d
       0.06544333 0.36960742 -0.29427075 0.0719196
0002f0 0b 1d db bd 1f a8 1b be 24 16 24 3e c2 0c e0 3e
       -0.10698899 -0.15200852 0.16024071 0.43759733
000300 a6 31 ac bd df 47 91 3d ce b6 30 be 2c e1 aa bd
       -0.08407907 0.070937864 -0.17257234 -0.083437294
000310 fc bc 0d 3e 58 e6 30 be ca ac 3b be 48 e5 49 3e
       0.13841623 -0.17275369 -0.18327633 0.1971637
000320 33 e1 17 3e 75 9c 5d bd 1d de 08 3d 8e 59 ff bd
       0.14832 -0.054104287 0.03341495 -0.12468253
000330 92 91 00 3c c9 3a f4 bd fb f7 29 3e dc fc d2 3d
       0.007847207 -0.11925275 0.16598503 0.10302135
000340 68 41 06 be d4 f6 45 3d ef bc 22 3d f6 3c 3c be
       -0.13110888 0.048331097 0.039730962 -0.1838263
000350 e8 96 aa be 71 91 8c be fc 3b 8a bd 3a 1d 51 3e
       -0.33318257 -0.27454713 -0.06749722 0.20421305
000360 36 27 91 bc 46 f1 08 3e 09 e7 79 be ae 00 35 bd
       -0.017718893 0.13373289 -0.24404539 -0.0441901
000370 c4 83 20 3e 53 39 87 3c b0 a2 bd 3e 67 9f fe 3e
       0.15675265 0.016506827 0.37038183 0.4973099
000380 b9 28 bc 3d bc 8d 30 3e 73 4f 7e 3e e2 cb 59 3c
       0.09187455 0.17241567 0.24834995 0.013293238
000390 1f d3 1b bd ef 57 d8 bc 17 e1 a8 bc 35 cd 85 3e
       -0.038043138 -0.026409118 -0.020615144 0.26133123
0003a0 d3 3f 76 3e e3 f1 80 bd 3a 36 94 bd 33 dd b2 3d
       0.24047785 -0.06296136 -0.072369054 0.08733597
0003b0 67 65 58 3e 6a 1e b3 3c f2 b7 d8 bd 4b 7a 23 3e
       0.21132432 0.021865088 -0.1058196 0.1596462
0003c0 6c b5 b3 be 98 33 af 3e f7 c5 07 3e 30 38 18 be
       -0.3509935 0.3421905 0.13259111 -0.14865184
0003d0 5d 7c c0 bd 6e b0 3e be e9 14 5b bd b0 68 0e 3e
       -0.093987204 -0.1862199 -0.05348674 0.13907123
0003e0 22 ce 31 be ab 0e 5a 3e f1 4d 42 3e ef bb 8d bc
       -0.1736379 0.21294658 0.18975045 -0.017301528
0003f0 98 d6 c1 3d 64 ea 6e be 3b f9 56 3e de 96 80 bd
       0.09464759 -0.233316 0.20993511 -0.06278776

transformer_encoder.layers.0.linear2.bias f4 [24]
000000 11 fa a5 3d bd 4b 5a bb c9 1a 6e bd 40 ed 20 bc
       0.08104337 -0.0033309304 -0.058131013 -0.00982219
000010 1a af 06 bd e4 21 59 3e 87 0e 3c 3e 20 7f 1e 3e
       -0.032881834 0.21204334 0.18364917 0.15478182
000020 99 4e 97 be df af f6 bd e6 e0 1f 3e 34 c2 e6 3d
       -0.29552153 -0.120452635 0.15613136 0.1126751
000030 49 73 10 3e d6 f9 c7 3d 48 65 cf bd fa 76 84 be
       0.14106478 0.09764449 -0.1012674 -0.25872022
000040 a4 64 5f bb 76 fe df 3d 69 c3 3a 3e 42 40 b7 3c
       -0.0034087086 0.109372064 0.18238606 0.022369508
000050 6f 45 09 be e8 27 9a 3d 66 4f 29 bd f6 3f e6 bc
       -0.13405393 0.07527143 -0.041335486 -0.02810667

transformer_encoder.layers.0.norm1.weight f4 [24]
000000 43 20 8d 3f c1 da 67 3f 92 92 5b 3f 1f b9 78 3f
       1.102547 0.90568167 0.85770524 0.9715747
000010 42 8e 89 3f 9b 37 73 3f 95 78 8b 3f 65 48 76 3f
       1.0746539 0.9500672 1.0896174 0.96204215
000020 36 6e 85 3f 8f 4f 6b 3f 61 b8 4d 3f cd 64 73 3f
       1.0424259 0.9191827 0.80359465 0.95075685
000030 5e 0d 6c 3f 3a 88 78 3f d5 ac 6c 3f 21 fe 6c 3f
       0.92207897 0.97082865 0.9245122 0.9257527
000040 85 18 5c 3f bd 24 63 3f dc 65 95 3f 2b 39 76 3f
       0.85974914 0.88727933 1.167171 0.9618098
000050 70 a9 68 3f b9 c5 6f 3f 2c 5c 90 3f 94 96 7d 3f
       0.9088354 0.93661076 1.1278129 0.9905789

transformer_encoder.layers.0.norm1.bias f4 [24]
000000 5a 1a 70 bc e5 4e b7 b5 68 01 ed bc da 41 fd bd
       -0.01465472 -1.3657524e-06 -0.028931335 -0.12366076
000010 89 a0 95 3c f7 c4 ea 3c 4b 8c 9a bc 32 4f 00 bd
       0.018265026 0.028658373 -0.018865725 -0.031325527
000020 e2 f9 39 bd ea b2 c3 bd cf fc 80 bc 8a 0c 88 3d
       -0.045404322 -0.095556095 -0.015745549 0.06643017
000030 39 15 60 bc 4f b3 03 3c 77 ff 2b 3d de 74 f9 bc
       -0.013676935 0.008038356 0.041991677 -0.030451234
000040 5a d2 93 3d 0a 7d 8a 3d f9 a0 ff 3b 8f 20 47 bc
       0.07217856 0.067621306 0.007801172 -0.012153759
000050 ac c0 55 3c 9d 1f 56 bd 53 2d b1 bb 61 a0 84 bd
       0.013046425 -0.052276243 -0.0054070144 -0.06475902

transformer_encoder.layers.0.norm2.weight f4 [24]
000000 04 b4 aa 3f ff 81 8c 3f 55 95 9f 3f 54 21 8e 3f
       1.3336186 1.0977172 1.2467448 1.1103921
000010 40 2c b8 3f cd 65 a0 3f 12 8e ad 3f 6e ff 88 3f
       1.4388504 1.2531067 1.3558981 1.0702951
000020 82 c3 ab 3f 60 9f a2 3f 32 f3 af 3f 4f 8a ad 3f
       1.3419039 1.2704887 1.3746092 1.3557833
000030 6f 30 8e 3f 9f 09 a7 3f 0a 9b 9b 3f 8c 22 ad 3f
       1.1108531 1.3049811 1.2156689 1.3526168
000040 38 5c 96 3f 8d 10 92 3f 07 ca 9f 3f 0d 94 a3 3f
       1.1746893 1.1411301 1.2483529 1.2779557
000050 f6 01 c4 3f 0f de 9d 3f e8 35 ac 3f cb c8 8c 3f
       1.5313098 1.2333392 1.3453951 1.0998777

transformer_encoder.layers.0.norm2.bias f4 [24]
000000 00 ed 33 3d 8a 05 bc 3c 1d e5 c9 3d a3 41 19 bd
       0.043927193 0.02295186 0.09858153 -0.03741611
000010 c9 5d d6 ba 75 cd f9 3b fa 69 80 3c 15 f2 0a 3d
       -0.0016354854 0.0076233693 0.015675534 0.033922274
000020 06 a5 09 3d d9 3d 23 bd 55 45 53 bb ca 16 2b bc
       0.033604644 -0.039853904 -0.003223737 -0.010442445
000030 a5 f2 a8 3c 21 da 2a 3c b5 62 32 3d 46 91 b1 bc
       0.020623514 0.010427983 0.043551166 -0.021675717
000040 d4 65 72 bc 14 e0 00 bd 9c e7 e4 3c f8 48 c0 bc
       -0.0147947855 -0.031463698 0.027942471 -0.023472294
000050 4e c2 4e bc 86 51 00 be 10 0a a9 bd ac a7 32 3d
       -0.012619568 -0.12531099 -0.082538724 0.043616936

MLP_encoder.weight f4 [8, 8]
000000 fb f0 ae 2e ca 9a c8 ad 6d 40 9e ae 48 bc b3 2d
       7.9554106e-11 -2.2806108e-11 -7.1964525e-11 2.0433558e-11
000010 3a 6e 13 2e 30 3b 1f 2e 0f 97 23 ae f8 3d 90 2e
       3.352183e-11 3.6204983e-11 -3.7196076e-11 6.55937e-11
000020 cd 7f da 2e 48 aa d9 2e a0 ce cc ad d3 20 96 ae
       9.936194e-11 9.8982655e-11 -2.3283875e-11 -6.827041e-11
000030 8c 09 f4 2d fd 3f b9 2e 84 12 b1 ae a1 29 99 2e
       2.7743828e-11 8.4241926e-11 -8.052317e-11 6.965029e-11
000040 06 14 ca ae 23 66 86 ae f0 b6 b5 ae e0 94 ba ae
       -9.1894534e-11 -6.1117576e-11 -8.263423e-11 -8.484746e-11
000050 2b b2 94 ae 9b cb 73 2e 1f 79 bb ae c8 1b 69 2e
       -6.76191e-11 5.543264e-11 -8.525291e-11 5.300274e-11
000060 8b c0 11 2e 78 11 57 ae b8 24 a4 ae 9c 0b 10 ae
       3.3140195e-11 -4.8900856e-11 -7.464379e-11 -3.275212e-11
000070 15 5b 9c ad 71 4c 81 2e bb c7 0e ad 34 a4 9d ae
       -1.7775595e-11 5.8798195e-11 -8.1161146e-12 -7.168702e-11
000080 c0 4d 9e ae c6 63 4a ae 69 b9 a2 2e 01 3b 1e 2e
       -7.198819e-11 -4.60181e-11 7.3998425e-11 3.5977447e-11
000090 7d d9 b8 2e 7c 52 7c ae 74 be f9 2d bf 3e 8e 2d
       8.405985e-11 -5.7371427e-11 2.83926e-11 1.6171396e-11
0000a0 fb 05 b1 2e 93 87 5e ae 65 d9 c4 2e f8 ba 9c ad
       8.0500905e-11 -5.059737e-11 8.951665e-11 -1.7818177e-11
0000b0 f3 48 b8 2e 75 37 84 2e bd b5 b7 2e 31 75 d5 ae
       8.3803096e-11 6.012516e-11 8.35416e-11 -9.706936e-11
0000c0 84 38 c1 ae 0b 2d 87 2e d4 66 9d 2e 6d 2d 17 2e
       -8.786663e-11 6.1470905e-11 7.1577994e-11 3.437377e-11
0000d0 4f 5b d0 2c 0f 51 2a 2e bc 95 9e ae 2f 62 a5 ae
       5.921853e-12 3.872552e-11 -7.211606e-11 -7.520772e-11
0000e0 dc 2a 1e ae 99 42 a5 ae 4f 12 a0 ad 16 c6 63 ae
       -3.5963107e-11 -7.5151614e-11 -1.8198025e-11 -5.178976e-11
0000f0 66 24 b1 ae 26 8b f4 ad 7d f1 ea 2d 96 4b da ae
       -8.055494e-11 -2.7801383e-11 2.6709962e-11 -9.926919e-11

MLP_encoder.bias f4 [8]
000000 85 c6 86 be f0 c3 fc bd 0f 6b 31 3d 91 67 5d be
       -0.26323333 -0.123420596 0.04331499 -0.21621539
000010 a4 e0 0f 3e ca 05 5f 3e 63 60 89 be a2 c4 99 3c
       0.14050537 0.21779552 -0.2683135 0.01877052

mlp.0.weight f4 [24, 24]
000000 71 79 ea 3d 0a 77 f5 3d 78 74 1f be 99 b5 6e 3e
       0.11448944 0.119855955 -0.15571773 0.23311462
000010 e4 36 82 be 19 b4 5e bd ff bf 98 bd e4 7b 5f be
       -0.25432503 -0.054370973 -0.07458495 -0.21824604
000020 1b 97 b0 bd 3b 61 56 3e 07 a5 10 be 9b 91 2b be
       -0.08622571 0.20935528 -0.14125453 -0.16754763
000030 0e 7a d8 3e 67 fa 95 3e 03 b7 68 3e 31 b4 68 3d
       0.4228062 0.29292604 0.22726063 0.05681247
000040 2b d5 98 be 19 21 c1 be c2 7b 53 be 8e 66 d2 bd
       -0.29850134 -0.37720564 -0.20652679 -0.10273467
000050 9b b3 db bd 47 2c 00 be 3d 8e 24 be 97 6c e6 3c
       -0.107276164 -0.1251689 -0.16069885 0.028127952
000060 92 82 8e bd fc ee 05 be 6d 40 53 be 51 58 50 be
       -0.06958498 -0.13079447 -0.20630045 -0.2034619
000070 bf 5b 38 be ae 78 ce 3e 60 14 94 3e 85 29 96 3e
       -0.18003748 0.40326446 0.28921795 0.29328552
000080 99 85 a0 3e 0b 8f 84 be 23 44 1c bd b1 47 ad bd
       0.31351927 -0.25890383 -0.038150918 -0.0846094
000090 ef 57 c8 bd 28 ab ac be a7 09 ba 3d 91 0f 32 be
       -0.09782397 -0.33724332 0.09083872 -0.1738875
0000a0 d8 9c f6 bd 6f eb 83 3d 99 39 05 3f 56 df ae be
       -0.12041634 0.0644139 0.5204101 -0.34154767
0000b0 72 78 0b be d8 8e 33 be 56 e5 d9 be e8 a7 b8 3d
       -0.13620165 -0.1753496 -0.42557782 0.090164006
0000c0 94 ea 28 be a7 5e 99 be 09 20 6c 3e 27 ac 23 be
       -0.16495734 -0.29955027 0.23059095 -0.1598364
0000d0 18 22 af 3d 93 05 f8 bc 4d 36 06 3e f7 91 fc bc
       0.08551425 -0.030276095 0.13106652 -0.03083132
0000e0 8e 7c 7c bd cc e8 a1 3e 90 12 16 3d fb af 0e be
       -0.061642222 0.31622922 0.036638796 -0.13934319
0000f0 17 50 60 bd b6 92 7b 3e 5e 1f 88 3e 04 64 d8 3e
       -0.05476388 0.24567685 0.2658643 0.42263806
000100 fc 8f 13 3d 68 2a 6e be 6b e0 3f 3e 40 f2 3b 3e
       0.036025986 -0.23258364 0.18737952 0.1835413
000110 0b 18 94 be 8c 08 2b be aa f4 f2 3d 08 8d c5 bd
       -0.28924593 -0.16702479 0.11863072 -0.0964604
000120 43 99 a3 be 5d fd 16 3e 2f 23 05 be 08 26 92 3d
       -0.31952867 0.14745088 -0.13001703 0.0713616
000130 58 66 e8 be 9d 53 94 bd 62 d1 69 3e 64 b1 6f 3d
       -0.45390582 -0.072425105 0.2283378 0.058518782
000140 16 7f 92 be a0 cf cb 3e 1e 36 cc be 09 50 27 be
       -0.28612584 0.39806843 -0.39885038 -0.16339125
000150 c0 80 f7 3d 00 0a d5 3e 13 b2 9a 3e 21 8a 34 bd
       0.12085104 0.41609192 0.30213985 -0.044077042
000160 ba 9a 4d 3e 55 e4 3f be e0 cb ef bd ac 5f b2 3e
       0.20078555 -0.18739446 -0.11708808 0.34838617
000170 52 57 7a be 19 e1 95 bc 90 66 a8 3d b7 40 5b 3e
       -0.24447373 -0.018295811 0.08222687 0.21411406
000180 73 12 8b 3e a6 73 d8 bd cd f5 f7 3d 6d 11 94 be
       0.27162513 -0.10568933 0.1210743 -0.28919545
000190 0a 7b 90 be ce ea b7 3e 1d e9 c2 3d c6 bf 55 3b
       -0.2821887 0.3592133 0.09517119 0.0032615527
0001a0 41 81 69 3e b9 17 90 3e 13 90 72 3e 3e d7 80 3d
       0.22803213 0.281431 0.23687772 0.06291054
0001b0 53 9c 6d 3e e4 58 9e bd f9 81 c9 be 09 09 04 3f
       0.23204164 -0.07731798 -0.39356974 0.51576287
0001c0 8f 16 a8 be 99 8f a6 be 97 9e be 3d 39 af 9d be
       -0.3282971 -0.3253143 0.09307592 -0.30797747
0001d0 25 44 4e be 3b 14 ef bd 3a 54 3a be a9 c0 a1 3d
       -0.20143183 -0.116737805 -0.18196192 0.07898075
0001e0 71 ea 19 be 9b de f1 3d c0 38 39 3d 75 e3 3d bd
       -0.15030839 0.11810037 0.045220137 -0.046359498
0001f0 4a b7 66 3e 71 8c 0e 3e dc 6a d7 3d 6d f2 7c 3e
       0.22530857 0.13920762 0.10518429 0.24701853
000200 33 45 d5 3d 82 29 16 be fa 52 e6 3c c8 32 e9 3d
       0.10413589 -0.14664271 0.028115738 0.11386639
000210 18 b3 8d be 68 99 83 bd a1 14 26 3e c0 40 3f bd
       -0.276757 -0.06425744 0.16218807 -0.04669261
000220 c8 9d ab 3d 0b 84 5a 3d e5 fc a6 3e 1e 42 ce 3d
       0.08379704 0.053348582 0.32614818 0.100712046
000230 7d 14 59 3e de aa 5d be c0 db c6 be 29 aa 7d 3d
       0.21199222 -0.21647212 -0.3883953 0.061929855
000240 14 0b 2b 3e 76 d6 1c 3d be 8b 90 be fc 5f 65 bd
       0.16703445 0.038290463 -0.28231615 -0.05599974
000250 08 32 8d be 2e d3 9a 3d 4a 83 ab 3e ae 64 ce bd
       -0.27577233 0.075598106 0.33498603 -0.10077797
000260 72 4e f6 3d 26 98 a7 bd 9a 9d a0 be 90 d9 a5 3e
       0.12026681 -0.08183317 -0.3137024 0.3239255
000270 52 50 a0 bd 9e 6f d7 bd 06 6b e5 bc 0c 6f 9c be
       -0.0782782 -0.10519336 -0.028005134 -0.30553472
000280 04 b8 f6 3c 8c f5 2b 3e a1 7d ec bc 3b 5f b7 bd
       0.030117042 0.16792887 -0.028868498 -0.08953711
000290 7e fa 1a 3e 60 67 dd 3d 57 f1 07 3e 73 5d 75 be
       0.15134618 0.10810733 0.13275658 -0.2396143
0002a0 e2 18 0f 3e 03 ce 02 be 5a 0b c0 3c 9f d7 70 3c
       0.13974336 -0.127739 0.023442913 0.014699846
0002b0 2d 81 b5 3e b9 ad a0 bd a1 aa 84 3e bf 8e 1d 3e
       0.35450116 -0.07845635 0.2591143 0.15386485
0002c0 9e 8c ca 3d c1 b5 e1 3c b8 91 15 be f4 5b 96 be
       0.09890102 0.027552487 -0.14606369 -0.2936703
0002d0 83 43 6c bd 64 00 48 be b4 a6 1c 3c 19 c2 6d be
       -0.05768157 -0.19531399 0.0095612295 -0.23218574
0002e0 44 36 1d be fa dd 11 be 03 75 84 3e 60 5c 81 be
       -0.15352732 -0.14244834 0.25870523 -0.2526579
0002f0 59 fd 98 3e c6 59 2b be 74 02 cf be 58 9c a3 3d
       0.2988079 -0.16733465 -0.4043156 0.079888046
000300 1b 2c 11 bf 33 a3 06 3e f9 fd fb bd 19 ba cf 3e
       -0.56707925 0.13148193 -0.12304301 0.4057167
000310 3b 7e 41 be 1b 79 1f be c6 f5 5d be 13 b3 eb 3b
       -0.1889581 -0.15573542 -0.21675786 0.007192978
000320 07 61 dd 3a 1f 16 93 3e 96 2a fc bd 6e 0c 48 be
       0.0016889878 0.28727815 -0.1231281 -0.19535992
000330 04 c2 c4 3d 7e 42 ba be 09 8f 68 3d d7 bf 5a be
       0.09607318 -0.36378855 0.056777034 -0.21362244
000340 84 c9 ae be cf 7a 83 3d 2e b7 28 3d 5e dd b4 3c
       -0.3413812 0.06419908 0.04119032 0.022078212
000350 6c bc 80 be af 97 e3 3e 4a e0 93 3e 10 61 70 bc
       -0.25143754 0.44451663 0.28882056 -0.014671579
000360 10 72 8e be ee 12 c9 3d 92 fc 43 3e 4c a1 2f be
       -0.27821398 0.09818064 0.19139317 -0.17151374
000370 3e b1 a5 3e 2e 6c 0c be b5 a7 8e be 66 bb 09 3d
       0.32361788 -0.13713142 -0.27862325 0.033625983
000380 da 32 d7 bd 0d cf 9b 3d e4 ae ec 3e 38 d4 aa be
       -0.10507746 0.07607851 0.4622718 -0.33365035
000390 72 c0 4e 3e 27 f9 0c 3e 18 91 89 be a5 a7 26 3e
       0.201906 0.13766919 -0.2686851 0.16274889
0003a0 a4 d6 11 be a6 1f 94 bc 55 34 30 be 42 29 30 be
       -0.14242035 -0.018081497 -0.17207463 -0.17203239
0003b0 c3 06 97 be f5 3f 05 3e 35 22 ae bd 71 84 95 3e
       -0.29497346 0.13012679 -0.08502618 0.29202607
0003c0 5c 84 a5 3e cc e9 a6 3e 50 e7 26 3d 1b 38 ec bd
       0.32327545 0.32600248 0.04074794 -0.11534139
0003d0 f4 9a dc bd 5d 76 02 3e bb 57 ef bd 4b 37 8d 3e
       -0.107717425 0.12740465 -0.11686655 0.27581248
0003e0 2a 26 e2 3d 00 8f 15 be 4f 53 8d be 23 63 4a 3e
       0.110424355 -0.14605331 -0.27602622 0.1976438
0003f0 f3 2e 37 3c d9 09 bd bd 8a 2e 50 3e c8 f4 f5 bd
       0.011180627 -0.09230394 0.20330253 -0.12009579

mlp.0.bias f4 [24]
000000 88 48 8c bc 13 fa a7 bd 1f a7 94 3d e1 8b 15 be
       -0.01712443 -0.08201995 0.07258438 -0.14604141
000010 52 3e 3d 3e b1 50 00 3e 56 3c 2c 3d 63 3e 67 3e
       0.18480805 0.12530781 0.04204973 0.22582392
000020 85 e6 68 3d 14 4f d5 bd b8 3d 9d bd b6 ba 25 be
       0.056860466 -0.104154736 -0.076777875 -0.16184506
000030 d2 59 c8 bd e6 86 22 be fe 67 55 3e f1 0d a8 be
       -0.09782757 -0.15871772 0.20840451 -0.32823136
000040 b2 0e 2f bd 52 cf 8e 3c 08 ee 1e 3e 29 2d 92 bb
       -0.042738624 0.017432842 0.15520489 -0.00446095
000050 88 4c b0 bd d6 e7 03 3e e6 ab df 3d 08 5e 89 3d
       -0.08608347 0.12881407 0.10921459 0.06707388

mlp.2.weight f4 [6, 24]
000000 c6 41 be be b1 9f de 3e 76 2a 44 be ea 97 0b be
       -0.37159556 0.4348121 -0.19156823 -0.1363217
000010 0a 88 7b be db 3a 53 3e ba 6c 57 3e 08 00 88 3e
       -0.24563614 0.2062792 0.2103757 0.26562524
000020 62 b6 b5 bd 0b 29 f1 3e a9 7f 93 3b 33 97 15 bc
       -0.088726774 0.47101626 0.0045013023 -0.009130287
000030 07 0d ae be 82 57 85 3e ea f6 39 bc 81 a0 22 be
       -0.33994314 0.26043326 -0.011350373 -0.1588154
000040 43 b3 d5 be 3e 7c 91 3e 47 a4 90 be 48 a1 55 3e
       -0.41738328 0.28415102 -0.28250334 0.20862305
000050 89 af 1f bd 84 a4 c3 3d bd f2 cb 3c 85 3c af 3d
       -0.038985763 0.09552863 0.02489602 0.08556465
000060 95 35 9f be 2e bd 72 bd 18 49 2f 3d 7e 3f 2e be
       -0.31095567 -0.059262447 0.042794317 -0.17016408
000070 c6 7f 47 3e 2f e0 e8 bd 87 3c 91 3e 88 39 0b be
       0.19482335 -0.113708846 0.2836649 -0.13596165
000080 c6 ab 68 3e d0 5b 30 3e ff 52 24 be 77 db b4 3e
       0.22721776 0.17222524 -0.16047285 0.35323688
000090 e2 f8 92 be 2d a2 e5 bd d4 d7 d3 be d8 75 95 3c
       -0.28705508 -0.11212573 -0.413756 0.018244669
0000a0 05 d1 d6 bd 2f ae 76 3d 6e 99 33 3e 33 95 11 be
       -0.10489086 0.06022471 0.17538998 -0.14217071
0000b0 3c 7c e9 3d 38 31 3e 3e be 06 a7 be 3c 73 da 3d
       0.11400649 0.18573463 -0.3262233 0.106665105
0000c0 a2 92 0b be 64 a8 a2 3d b3 31 ac be 00 93 82 3d
       -0.13630155 0.07942274 -0.33631667 0.06375694
0000d0 77 07 89 3d 75 3d 17 3e b9 38 a1 be 0b ea 5d 3e
       0.06690877 0.14769538 -0.31488588 0.21671312
0000e0 0b 32 d7 3e 95 bc b9 be 2e 26 b2 be 1b e5 7d 3e
       0.42030367 -0.3627669 -0.34794754 0.24794428
0000f0 06 e0 eb 3e 89 c8 42 be a5 47 3b bd 03 92 af be
       0.46069354 -0.1902181 -0.045722622 -0.34291086
000100 eb 64 cd 3e 66 6f 3c be 20 3e 8a be fa ba 7b be
       0.40116057 -0.1840187 -0.27000523 -0.24583045
000110 df 6d f6 bd 0a e0 f8 3d 29 28 9a 3e 27 51 ea be
       -0.12032675 0.12152107 0.30108765 -0.4576504
000120 c9 e8 3e 3c 10 fe 4a be 53 e0 53 3e f9 c8 fb bd
       0.01165218 -0.1982348 0.20691042 -0.12294192
000130 9a 77 c5 3e 21 e4 e3 bd d8 70 89 bd f1 57 49 bd
       0.3856781 -0.111274965 -0.06710976 -0.049156133
000140 75 94 52 be 8e 4b 96 be c5 61 ad bc 2a 53 a4 be
       -0.20564444 -0.2935452 -0.021164784 -0.320947
000150 52 e6 99 be 3f 34 65 be b4 06 a4 3e 62 b9 b7 3d
       -0.30058533 -0.22383212 0.32036364 0.08970906
000160 61 5a 50 be 89 61 56 3e 0b b1 5b 3d 01 c9 83 3e
       -0.20346977 0.20935644 0.05363564 0.2573929
000170 e2 0a 26 bf cd c7 28 be 1b 73 8b be 40 39 86 3d
       -0.64860356 -0.16482468 -0.27236256 0.06553888
000180 a0 f1 69 3e 5e 7b 9b be a8 7a 8a 3e c1 ed f6 3e
       0.22846079 -0.3036756 0.27046704 0.48228267
000190 44 34 b4 be b8 97 a5 be c5 87 1a be c5 c7 68 be
       -0.35196126 -0.32342315 -0.15090854 -0.22732456
0001a0 09 ae c5 be 8f 25 84 be 96 86 32 3e de a2 f6 be
       -0.3860934 -0.25809905 0.17434153 -0.48171133
0001b0 f7 79 b7 3d 88 7e b2 bc a8 32 97 3e 28 dc c4 3e
       0.0895881 -0.02178885 0.29530835 0.38449216
0001c0 25 83 0c be 45 b9 38 be 7d 96 c3 bd b5 df 0e bd
       -0.13721903 -0.18039425 -0.09550188 -0.034881312
0001d0 54 98 71 3e 62 72 c0 3d 40 97 0c 3e 6d 7b 42 be
       0.23593265 0.09396817 0.13729572 -0.18992396
0001e0 81 2c df bc 6e 47 6d 3e af 27 2e be 4e 6c af 3d
       -0.0272429 0.2317178 -0.17007326 0.08565579
0001f0 71 a2 79 be 49 3c 01 3e 8e b0 83 3e 03 24 fd bd
       -0.24378373 0.12620653 0.25720638 -0.12360384
000200 26 17 49 bd d3 06 44 3d df b3 38 3e 27 86 60 bd
       -0.04909434 0.04785807 0.18037365 -0.054815438
000210 4c 67 cb 3d 8b 41 37 be 19 ea 1b be 10 c0 9e 3e
       0.09931812 -0.17896096 -0.1522602 0.31005907
000220 79 05 ae bd 94 95 31 3e 63 88 71 3e f1 b4 9f 3e
       -0.084971376 0.17342216 0.23587184 0.31192735
000230 9c f7 31 bc 11 26 58 be 41 bb 06 be 91 02 4c 3e
       -0.010862257 -0.21108271 -0.13157369 0.19922854

mlp.2.bias f4 [6]
000000 68 e4 b5 3d 0e 3e 21 3e 09 c4 74 3d 4b b3 35 3d
       0.08881456 0.15746328 0.059757266 0.04436044
000010 1b e1 4b 3e dc 00 1f 3d
       0.1991009 0.03881918
