experiments/HMS/trans/models/hms_transformer_fold=4.pt (torch, 23594 bytes, 18 tensors)

transformer_encoder.layers.0.self_attn.in_proj_weight f4 [72, 24]
00000000: 1018 8f3e f223 38be b322 adbc 6b66 86bf
00000010: b9ea 8cbf 50b6 8cbf 4f5e 8bbf 4194 8bbf
00000020: bef0 d33e 2e2e b03e dc29 57be f6db b6be
00000030: 0846 8abf de6b 98bf d6ef 97bf 7b15 90bf
00000040: 6568 7ebe 139a 1cbd 0eec 223c 401c 2f3e
00000050: 04b5 b4bc b374 a3bd 3739 eb3d 4bc1 52bc
00000060: 9011 4bbe e48d 0c3e 2729 debd 1934 c03e
00000070: 22aa ff3e 6256 f63e cd5c 013f a096 e23e
00000080: 4b4c 92bd 335a d83d 1017 743e 2296 47bd
00000090: e2d6 bd3e e20a f33e ce2f ec3e a854 d53e
000000a0: 3b31 c33e 06e2 4c3e f1d7 61bc 8e1a 65be
000000b0: 8586 95bb 07ff 383e ffad 10be d07d 4b3b
000000c0: 5e95 973d 49c1 c4be 7fd3 d8bd d0a8 57be
000000d0: cf56 8abe 8da6 7fbe b504 90be f044 a8be
000000e0: 5f34 163d 5ac3 853e 97a5 8bbe a330 af3b
000000f0: c578 6fbe 7f8f 5fbe ad1c 8bbe ad83 87be
00000100: c412 923b 6856 bd3d 602b 99be cbd2 9a3c
00000110: d4ca 12be 875b 77be c24f c0bb 27b6 25be
00000120: dabd e0be 3507 f2bd 42b9 8dbe c1bc 203f
00000130: de76 283f efbd 2c3f 1c64 193f aa77 273f
00000140: 5dfb e23c 81bd dd3d 11f5 84be d8a3 ebbd
00000150: 595a cd3e 9228 bb3e 079b e63e 958e e53e
00000160: 5d8e 143e fbe4 62be 2609 f3bd c166 c0be
00000170: 8803 343d 08fd ab3e fbde a33d d71f 533d
00000180: b4d0 d9bc 85db 59bd 26a2 90bd 3449 553c
00000190: 76e2 cf3c 9582 c73c df1b 943a 3bfd 5b3d
000001a0: bebd 53be af34 853e 2d70 26bd 65db 91bd
000001b0: d2a8 3d3d c9cb f73a 607f 6f3c ec93 983c
000001c0: 8e34 a13e fad2 ce3d 1442 3fbe 91db 30be
000001d0: 611f e7bd 1cf5 05be b8e6 21bd 4a0a 4cbe
000001e0: 635a 893d 15ab abbe eccb a8be d05a afbe
000001f0: 85cf 4abe 6608 45be 0cbe 6bbe 9ffa 83be
00000200: 4f1b 743e 899e ad3e cf42 093d f952 2cbf
00000210: 56f8 0fbf 9e72 e8be ac0e dfbe 9776 fcbe
00000220: 8b40 373e 947c 743e e01c 24be 5f11 81be
00000230: 75cc 47be 9c75 f83d c508 2bbe e2b9 d83d
00000240: 61d6 87be ffa8 273e 5dd9 f6bd 4b0d 703e
00000250: 60b4 1c3e ebac 4a3e 0bae 3d3e 0e01 413e
00000260: a255 453e d76c ffbd da51 10be 4c68 113d
00000270: 47e2 3e3d 134d b93d 0a3f 513d b6e8 053e
00000280: 1dbd 3fbd 19df f7be c903 293d 0f52 4fbd
00000290: 8abd 8f3d 265f 133e 5d91 b93d 5caf 263d
000002a0: 709b 34be 037c 8bbd d4fb 96be c489 8a3e
000002b0: 6442 953e 1003 803e 0a70 9b3e 82a9 843e
000002c0: 758c fcbd 6bba ed3d 9c2a 7dbe 6599 47be
000002d0: ac18 5e3e bb15 343e 13a4 543e b2f6 563e
000002e0: 0367 9f3e 94e2 2ebe 5084 bbbe 722d b1bd
000002f0: 1456 85bd eeb5 803d b097 203e 0002 bbbd
00000300: 519b 353e 79db 873e afac dc3d 628f 773e
00000310: d736 403e 5f51 8a3e 2ea3 8f3e e658 313e
00000320: e80c 09be e9e6 f2bd 4587 4e3e e7c2 d13d
00000330: 9a77 b93e 6ac3 a03e a211 913e c638 a73e
00000340: 341e 34be a6b3 a33e efa0 ddbd 3806 953e
00000350: 1c37 023e 17c0 ca3d 64ea 33be fbf9 833c
00000360: cac5 2dbd a2e6 ed3e ebf1 a43e 4fee fcbb
00000370: 4e1e bfbd 5f64 80bc 8e68 f8bc 2279 f7bd
00000380: 092a 03bf bc12 32be 10cf f8bd 9b27 f53e
00000390: 0595 4e3e 9aab 103e cdd8 243e 2c27 423e
000003a0: 8e52 a7bc 24a2 a9bd 37d4 5a3d 3a03 6f3e
000003b0: e0c8 093e 8632 86be c1a7 903d 7634 95be
000003c0: cb4f 353e 9c6f 373e 5ab9 f03e 0006 e23d
000003d0: c866 a53d 3e81 aa3d 86b9 763d e687 c43d
000003e0: 5462 9cbe 2ce7 7bbe a092 db3e 74c8 dd3e
000003f0: 2151 b83e 8de1 b43e d0bd a13e 3913 bd3e
0.27948046 -0.17982462 -0.02113471 -1.0500005 -1.1009132 -1.0993137 -1.0888156 -1.0904619
0.4139461 0.34410232 -0.21012062 -0.35714692 -1.0802622 -1.1907918 -1.1870067 -1.1256555
-0.24844511 -0.038232874 0.009943975 0.1710062 -0.022058971 -0.07981243 0.11485522 -0.012863467
-0.19830918 0.13726002 -0.10847693 0.37539747 0.4993449 0.4811278 0.5053223 0.44255543
-0.07143458 0.10564079 0.23836923 -0.048727162 0.37078005 0.4746924 0.46130222 0.4166615
0.38123497 0.20008096 -0.013784395 -0.22373411 -0.004563155 0.18066035 -0.14128874 0.0031050332
0.074015364 -0.38428715 -0.10587215 -0.2106049 -0.27019355 -0.24965878 -0.2812859 -0.32865095
0.03667104 0.26125604 -0.27274773 0.005346374 -0.23385914 -0.21832083 -0.27170315 -0.26467648
0.0044578034 0.09244996 -0.29915905 0.018899342 -0.14335185 -0.24156009 -0.005868883 -0.16182767
-0.43894845 -0.11817781 -0.27680403 0.62788016 0.65806377 0.67477316 0.5991838 0.6541697
0.02770775 0.108271606 -0.2596822 -0.1150586 0.40107992 0.3655439 0.4504015 0.44835344
0.14507432 -0.22157662 -0.11866979 -0.37578395 0.04394868 0.33591485 0.080015145 0.051544037
-0.026588775 -0.053187866 -0.07062177 0.013017941 0.02537654 0.024354259 0.001129981 0.053708296
-0.2067785 0.26016757 -0.040634323 -0.07121924 0.046303578 0.0018905337 0.014617771 0.018625222
0.3148541 0.10098834 -0.1867755 -0.17271258 -0.11285282 -0.13081783 -0.03952667 -0.199258
0.06706693 -0.33528963 -0.3296808 -0.34248972 -0.19805725 -0.19241485 -0.23021716 -0.25777146
0.23838542 0.33910015 0.03351098 -0.67314106 -0.56238306 -0.45399946 -0.4356588 -0.49309227
0.17895715 0.23875648 -0.1602664 -0.25208566 -0.19511588 0.12131807 -0.16702564 0.10582329
-0.26530746 0.1637306 -0.120531775 0.23442571 0.15303183 0.19792525 0.18523423 0.18848059
0.19270948 -0.124719314 -0.14093724 0.035499856 0.046602514 0.09047904 0.05108551 0.13077053
-0.04681121 -0.48412398 0.041263375 -0.050615367 0.070185736 0.14391765 0.09060929 0.04069458
-0.1763742 -0.06810763 -0.29489005 0.27058232 0.29152215 0.25002337 0.30358917 0.25910574
-0.123314776 0.11607822 -0.24723285 -0.19492109 0.21689099 0.17586415 0.20765714 0.20992544
0.3113328 -0.1707862 -0.36624384 -0.08651246 -0.06510559 0.062847 0.15682864 -0.09131241
0.1773503 0.26534632 0.10775124 0.2417579 0.1877092 0.27015206 0.28054184 0.17319068
-0.1338383 -0.11860449 0.20168789 0.10242253 0.3622406 0.3139909 0.28333765 0.32660502
-0.17589647 0.31972998 -0.10821711 0.29106307 0.12716335 0.098999195 -0.17569882 0.01611041
-0.042424954 0.4646502 0.3221582 -0.0077188383 -0.09331952 -0.01567286 -0.030323293 -0.12083651
-0.51236016 -0.17389959 -0.12148869 0.4788178 0.20174034 0.14127961 0.16098328 0.18960255
-0.020425107 -0.08282879 0.05342504 0.23341075 0.13455534 -0.2621042 0.070632465 -0.29141587
0.1770622 0.1791367 0.47016412 0.11036301 0.080762446 0.08325432 0.060235523 0.09596233
-0.30543768 -0.24599904 0.42885303 0.43316996 0.35999396 0.35328332 0.31590128 0.36928728

transformer_encoder.layers.0.self_attn.in_proj_bias f4 [72]
00000000: 7892 94bf 4d34 d83e e42e 7cbe f3b3 d43e
00000010: 2ff7 5a3d 94d0 f3be 24ff a93d 89ee 503e
00000020: 4c5c ac3e 74bd 0e3e 31e0 aa3e 1755 9b3e
00000030: b82a 5a3e 18b8 533e 4fcf e1bd 9215 ccbc
00000040: 7dca 6b3f f226 ef3e ff62 6d3f 3611 96bd
00000050: 702e b6be 4ec6 50bf 10a2 383d 98df 683e
00000060: 67bf 013c 16ca 9b3c fff6 5f3b b49d 3abd
00000070: 4fa6 1abd 4018 02bc c95c a53c afe4 823b
00000080: e9ef c83c 0973 90bc 3baf a73c 69b3 26bc
00000090: 8958 cb3b 9f62 4b3c f328 56bc f7d4 4e3d
000000a0: a540 093b 91bf 9bbc dc83 7d3c 23cc e53a
000000b0: fbad ff3c 6f8b b9bc 21b6 d53c c464 af3c
000000c0: 0158 ec3e 2df8 b03f cbc1 8dbd f40d b53f
000000d0: 0cf0 9f3e 72f2 3b3f 4297 8cbf 9808 263c
000000e0: 4592 093f ddb1 2a3f fdfa cf3f 4cad ec3f
000000f0: 7a5a a33e f71b 7b3e bddc c43f d2a3 0fbe
00000100: 8baf 333e 475e 343f a0be 5a3e f205 163f
00000110: 9ff7 78bc f38f 8d3f 967e 01bc 9058 b0be
-1.1607199 0.42227402 -0.24627262 0.4154354 0.05345839 -0.4762007 0.08300617 0.20403494
0.33664167 0.13939458 0.3337417 0.30338356 0.21305358 0.20675695 -0.11025869 -0.02491263
0.9210585 0.467094 0.9272918 -0.073275015 -0.35582304 -0.8155259 0.04507643 0.22741544
0.007919169 0.01901726 0.003417432 -0.045560554 -0.03775626 -0.007940352 0.020185845 0.0039945464
0.02452846 -0.017632978 0.020469299 -0.010174611 0.0062056226 0.01241365 -0.0130712865 0.050496068
0.0020943072 -0.019012244 0.015473332 0.0017532151 0.03121089 -0.022649495 0.026087822 0.021410353
0.46160892 1.3825737 -0.06921729 1.4144883 0.3123783 0.7341682 -1.098366 0.010133885
0.53738815 0.6667765 1.624847 1.8490386 0.31904966 0.24522386 1.5379864 -0.14027336
0.17547433 0.70456356 0.2136178 0.5860282 -0.015195756 1.1059555 -0.007903716 -0.34442568

transformer_encoder.layers.0.self_attn.out_proj.weight f4 [24, 24]
00000000: 3c74 c43c cbcf 403e febf 313d eaab 363d
00000010: 563c afbe 3a76 bbbd e973 cbbe 92d9 003e
00000020: 18bc 04be 76ed db3d 4dbe 803e b97d 56be
00000030: eeda 8e3e db29 2dbe 7cb7 e0bd ade8 33be
00000040: 93ff 1e3d d0c1 9abe 0d5c 863d ef10 22be
00000050: fe3b 22bb 156f 51be a59e a2bc d223 f43d
00000060: a450 b9bd 1fb6 6abe 8644 35be a284 a9be
00000070: 9e64 92bd 9aec 9cbe 178e f0bc ebfe 9cbe
00000080: 9979 54bd 1afd a83e ed55 6b3d eed3 563e
00000090: d4db 29be 5521 c63e a39b c63e 72c5 253e
000000a0: 286d ecbd b82b b23e 2186 b83e b509 60be
000000b0: c24d d23d 2fc0 8d3e 1667 523d bd43 ad3e
000000c0: dddc bd3d 2f3a fe3d f1f2 003e b535 8e3e
000000d0: 7d08 85be dd10 3fbe 1732 ce3d b08d 0cbe
000000e0: c56f 273e 0957 053e 6c9a 6a3e 09fe 5e3e
000000f0: b560 5bbe e45b d33d 1f47 27be 2b41 393e
00000100: 4e22 f9be 19ae 9dbd e0ef 1d3e 24b3 b9be
00000110: b45a c6bd d248 b0be 1b7a 70bc 7172 c1be
00000120: 4dec 5fbe 1bc4 563c 5003 4dbd 561f 9abd
00000130: f3aa 293d e0d8 48be bde6 adbd ba55 81bd
00000140: 8f23 4d3d e590 63bd 5e51 57be 4171 16bf
00000150: f6e3 adbc 9f41 1abe b0c7 15bf f6ee 9a3e
00000160: 98da 423e 9029 bb3d 4a3a 1fbe 5eeb 27be
00000170: f188 d93c 8a3b 0ebe c2dd 873c 2eeb de3d
00000180: 1c3b adba b4f3 ca3e ad3c 6b3d 098c f63e
00000190: 22c7 80be 3ee2 c73e 0683 67be 0bc5 d43d
000001a0: 3eff cd3d 3e09 39be ccc2 7c3e 6f25 e83e
000001b0: 549e 973d f4c0 833d 4dbc 863e 38af 333e
000001c0: 7b40 c8be c7a7 1d3e 3ce2 e43d 410b acba
000001d0: 8836 3c3d 14d7 01bd 3bab 203d 125d a9be
000001e0: ed75 0b3e d309 043f 5b68 b33d b00c 283d
000001f0: 14a4 403e cc4a 53bd beda 5cbe d1ec 043d
00000200: 4e59 92bc 9029 3abd 712c 083e 155e d53e
00000210: 1147 503e c2c2 76bd 281b f43d 2c8c 0c3e
00000220: 086e 10be d03e a4bc 68b7 c8be 98a1 9e3e
00000230: 50aa 60bc dc4a bb3e c5b5 dc3c 6f60 84bd
00000240: 50c7 433e f956 c13c 1c2a 923c 4d75 0fbf
00000250: 9d7e 8a3e 8b05 d23d 1a9d 533c 2c95 df3e
00000260: 96ec b9be 3e6d acbe be3a debe 4065 07be
00000270: dcea bb3e 0424 bd3d f8d7 cd3e a913 bcbd
00000280: 802b 6f3e f383 cbbd 5531 bbbe f99f 1e3f
00000290: 39bc 8bbc b690 ef3e 3098 6abd 3a37 de3e
000002a0: 8769 5d3e 3e97 61be 4d42 a1bd ff72 85bc
000002b0: 7aa7 8a3e 8e7f 223c f6e1 06bf 2907 9abd
000002c0: 95fd 823d 34c4 863e 412c 853d f881 953e
000002d0: 2270 c1bc c479 05bf 4420 123e 4d7a a9be
000002e0: 5cf1 95be c15a 13be 34ed b5be af09 a43d
000002f0: 62f3 fab8 16f3 9c3d a1e9 e3bb 0def 853d
00000300: ce88 1c3d 0655 6b3d ce5c 053e a6af df3d
00000310: d40d a83e 3c81 8abe 3379 463e 7863 78bb
00000320: 49e0 283c 8e4c 8f3d b1e7 ec3d 47c3 e93c
00000330: f00e 52be 3ad3 c9bc 1617 5bbe 41f8 943d
00000340: fcd5 cc3d 268c 4ebe c83d a2be 5ea4 883d
00000350: e7e8 96bc dc8d 73be 8572 51bc bde4 cabd
00000360: 5dd6 a83c a176 8fbe c40d 0ebd 8b53 9bbe
00000370: f4a2 f13d 5935 37be 7df4 c63e 5ff1 e4bd
00000380: f66c 593d 6ff1 0a3d ed89 88be 30a2 17be
00000390: 2169 38bd aa22 dbbd 539e 15bf ff24 b6bd
000003a0: a2a0 86bd aeac 233d e84b f23c 0d47 90be
000003b0: 6dda 6f3c 5964 de3d 93be 2b3d ab3a 95be
000003c0: 9a74 01be a499 5dbd 6be6 103e 16f8 59be
000003d0: b2ee d4be 6589 a1bc d7f7 c53e 7547 833d
000003e0: c30a a4bd 83ea b8be 91e8 0dbf a089 14bf
000003f0: 209a d33c 0160 4d3e 8521 31be bd48 413e
0.023981206 0.18829267 0.04339599 0.044597544 -0.3422572 -0.09153409 -0.3973687 0.12582996
-0.12962377 0.107386515 0.25145188 -0.20946397 0.27901405 -0.16910498 -0.10972497 -0.17569228
0.038817953 -0.30225992 0.06560526 -0.15826772 -0.0024754996 -0.2045253 -0.019851038 0.11920895
-0.09048584 -0.22921036 -0.17701921 -0.33109003 -0.071480975 -0.30649263 -0.029364629 -0.30663237
-0.051873777 0.330056 0.057454992 0.20979282 -0.16587764 0.38697305 0.38790616 0.161886
-0.115442574 0.3479898 0.36039832 -0.21878703 0.102687374 0.27685687 0.05136784 0.33840743
0.09270642 0.124134414 0.12592675 0.2777535 -0.2598304 -0.18658777 0.10068148 -0.13725924
0.1635123 0.13021483 0.2291047 0.21776594 -0.2142361 0.10320261 -0.16335724 0.18091266
-0.48658985 -0.07699222 0.15423536 -0.36269486 -0.09685269 -0.34430557 -0.01467755 -0.37782624
-0.21867485 0.013108279 -0.050051987 -0.07525508 0.041422796 -0.19613981 -0.084912755 -0.06315179
0.05008274 -0.055558104 -0.21027133 -0.5876656 -0.021226864 -0.15064095 -0.58507824 0.30260438
0.190287 0.09138787 -0.1554958 -0.16398379 0.026554557 -0.138899 0.016585235 0.10884701
-0.0013216469 0.39639056 0.05743091 0.48153713 -0.25151926 0.39039797 -0.22608575 0.103891455
0.10058449 -0.18069932 0.24683684 0.4534106 0.074032456 0.06433287 0.26315537 0.1754731
-0.39111695 0.15396033 0.11175963 -0.0013125913 0.045950443 -0.031699255 0.039225798 -0.3307882
0.13619204 0.5157749 0.087601386 0.041027725 0.18812591 -0.051585004 -0.21567819 0.03245241
-0.01786485 -0.045449793 0.13298203 0.4167334 0.2033961 -0.06024433 0.11919242 0.13725346
-0.14104474 -0.020049483 -0.39202428 0.3098266 -0.013712481 0.3658055 0.026942143 -0.06463706
0.19119 0.023601042 0.017842345 -0.5603836 0.27049723 0.102549635 0.012915874 0.43668497
-0.36313313 -0.33677095 -0.43404192 -0.13222218 0.3670262 0.09235385 0.40203834 -0.091834374
0.23356438 -0.09937277 -0.36561075 0.6196285 -0.017057525 0.46790093 -0.057274044 0.4340151
0.21622287 -0.2203035 -0.07873974 -0.016290186 0.270809 0.009918107 -0.5268854 -0.07520897
0.06396023 0.26321566 0.065025814 0.2920072 -0.02361304 -0.52138925 0.14270121 -0.3310112
-0.29285705 -0.14390089 -0.35532534 0.080096595 -0.000119662625 0.076635525 -0.006955341 0.06539736
0.038216405 0.05745413 0.13023683 0.10922174 0.3282305 -0.27051723 0.19382171 -0.0037901085
0.01030738 0.069970235 0.11567629 0.028535498 -0.2051351 -0.024636853 -0.21395525 0.07273913
0.10001752 -0.2017065 -0.3168776 0.066719756 -0.018421603 -0.23784584 -0.012783651 -0.099069096
0.020610029 -0.28020194 -0.034681097 -0.30337176 0.11798659 -0.17891444 0.38858405 -0.111788504
0.05308243 0.033921655 -0.2666773 -0.14807963 -0.045022134 -0.10699971 -0.5844471 -0.08893775
-0.06573607 0.039959602 0.02957721 -0.28179207 0.014639479 0.108589835 0.041929793 -0.29146323
-0.12642136 -0.0541016 0.14150397 -0.21286044 -0.4158836 -0.019718835 0.3866565 0.06410114
-0.08009865 -0.36116418 -0.55432993 -0.580225 0.025830328 0.20056154 -0.17297943 0.18875404

transformer_encoder.layers.0.self_attn.out_proj.bias f4 [24]
00000000: fbcf 943d f133 88bd b35d 1ebd 634c 893e
00000010: 4c7e a6bd b71d 59be 487e c3b9 a3bd 423e
00000020: ea43 e83d 7748 cb3c 6c9b bb3d 20fd 883d
00000030: 0b82 1abe ee59 dd3d 6796 a4bd 2705 8abd
00000040: f351 d23b 0e34 15be f43b e9be 443a ff3d
00000050: 8b60 6e3d 822d fabd f0ec bebd 7e9d 073e
0.072662316 -0.06650532 -0.038663577 0.2681609 -0.08129558 -0.21202742 -0.00037287385 0.19017653
0.113410786 0.024814827 0.09160504 0.06688905 -0.1508867 0.10808168 -0.080364995 -0.06739264
0.0064184605 -0.14570639 -0.45553553 0.12462285 0.05819754 -0.12215711 -0.09322536 0.13243672

transformer_encoder.layers.0.linear1.weight f4 [16, 24]
00000000: 2e60 cebe 1bf0 a23e 4f41 eb3d dad2 a5be
00000010: 7c78 a73e 93c1 06be 2ebb 403e 7a34 dd3d
00000020: 898a fdbe 454e e33d 59e7 ad3e 7633 273f
00000030: 80bb 6e3c a9f0 a0bd 38dd 2ebe eb7a 06bf
00000040: a633 ea3e 1873 b23e 3d12 81bc 26f5 403e
00000050: ec08 31be 41d7 823e 5be6 ea3d ab53 74be
00000060: fe09 68bd ab54 493d 50a7 113e 84c7 963e
00000070: cf8d 293c 7975 7ebe 2e4a b8bd 778a 613c
00000080: faf4 07be d71f 523e 0888 083e b313 783e
00000090: c7ea 0d3f ce77 88be f2c9 75be 1060 b8be
000000a0: bcb6 83be 2802 9a3d 8b76 e83d a655 9fbe
000000b0: b059 933c 083c 173e 76ea ddbd 282e cdbc
000000c0: 114a 083e d309 1a3e 15f5 bb3e 2684 16be
000000d0: 7063 6f3e 5187 a8be cea8 a9be c5e1 913e
000000e0: 3051 b2be cbeb de3c b05e c63e d7c3 6f3e
000000f0: 357a 4c3e 63f6 37be 2e14 c2be 8323 94be
00000100: 6cdc bb3e 90c3 01bd c229 ce3d d4d5 9abe
00000110: f7ba 5bbe 8acf 67bd 5aa8 bb3e 61db 0ebe
00000120: b4ec 1f3e 2022 0dbc 5946 063f 88c4 7cbd
00000130: e0c5 dd3e 8d11 1b3e 8420 89bd 6f7c 0ebe
00000140: 7e89 0fbe 365d fabd 11ca 103f eb88 543e
00000150: 7c20 18be 26ea 00be b2ef 80be b8d1 013c
00000160: 69d1 ac3d 767a a33d 0f6e 34bd 6062 f73e
00000170: 4b92 e8bd b66d 77be ba8f 18be 294c 123e
00000180: 6669 c3be b948 423e 551b 2ebe 3a83 03be
00000190: 3ac7 11bd b22a be3e 5b80 2a3f 919d 963e
000001a0: fc7b e53c b5d3 0d3f 4316 27be bc10 7e3e
000001b0: 5143 68bc 9aea f9bb 3592 1bbe d0aa 983e
000001c0: 6548 48be 77d8 4c3e 7bf9 0cbe be16 373e
000001d0: 8c81 693f c641 193e fabf 02bf 106f d03d
000001e0: 5c60 183f 178e dc3d 9b4e 723e 98c1 4cbe
000001f0: 2379 e83d 8300 ddbe 745d 0abe 2860 e13d
00000200: a622 89be bca4 46be 24cd 8abc 4d76 82bd
00000210: d05a c3be cc43 1a3e d91d 013f 71e8 863e
00000220: 258c 2a3d 4605 f73d a180 133f f033 e5bc
00000230: 9b0e 303e 6eca bc3d abe0 d23e 3f00 dabe
00000240: 1b84 70bd 148b 583e 7735 943d d2a7 c9be
00000250: 1ad4 96bc 7c68 80bd e81f 883e 9666 0a3f
00000260: c7ee 6fbe 8fdf 54bb cdf2 25be bbe7 833e
00000270: 1a0b adbd a813 26be ea58 b03d 886c 3fbe
00000280: 7ccd 2a3f 588e 1abe 2630 fd3d a403 c6bd
00000290: e5ad 4ebd 62cb a13e 3aa5 1f3e 5d1b 8bbe
000002a0: 889d 59be 260e 1d3f 75e9 0d3f af47 473d
000002b0: 67e5 4b3e b447 14bc ddd8 0bbe 67be 263d
000002c0: 8617 343d 9993 313c 1cb8 94bd 3dfa dd3c
000002d0: 7ead 203e 50de ce3e 7e7e 92be 02bf 4f3e
000002e0: 0015 74bd a76a 5b3e e709 d9be 8ee3 c23e
000002f0: 9786 bcbd e013 8dbe 9e48 4e3d 96dd 36bf
00000300: 48e6 16be ec3a 083d 08ee 80bd 0358 653e
00000310: f184 f5be 69e8 41bf a2f3 993e 6dd6 f6be
00000320: 63c5 263e 6e5e 0ebe abc9 ca3e d383 943e
00000330: 209a 123e b6ed 243e 821d 6e3e da70 9fbe
00000340: c19e 093f c0e4 98be feef b63e d927 223e
00000350: 8526 f7bd d3df a23e 99b6 c83e 8d9e d93b
00000360: 3c95 d13d 1a78 7bbe d5c8 67bb c69d 3f3e
00000370: 59f4 0ebf abba e8be bd90 e3bd a5d2 05bd
00000380: 6026 a83e 114b 0b3f 990b 353d c2ab c1bc
00000390: 417f 21be 88fa a83e eb80 f6bd 829f f8bd
000003a0: 095e 9d3e 70b2 5cbe 12f7 833e a176 d4be
000003b0: 3ee2 f23e 87b7 ca3e 9beb 913e 71d7 d43d
000003c0: 58c9 f1be 1dda b7bd bfa4 2bbd 40e7 49be
000003d0: 27da 56be 00bb 98bd 8794 b93e e4a0 bbbc
000003e0: 2ac6 9d3d 0c0c 1b3f be83 3b3e 202a 183e
000003f0: e361 92be 49a6 8fbd 0458 a3be 3d21 e4be
-0.40307754 0.3182381 0.11487066 -0.3238743 0.3270911 -0.1315978 0.18821403 0.10801025
-0.49519756 0.11098913 0.33965567 0.653129 0.014571071 -0.07858402 -0.17076576 -0.5253131
0.4574253 0.34853435 -0.015755767 0.18843517 -0.1728856 0.2555485 0.11469718 -0.23860042
-0.056650154 0.04915301 0.14223981 0.29449093 0.010348751 -0.248495 -0.08998524 0.013765923
-0.13277045 0.20519958 0.13333142 0.24226265 0.55436367 -0.26653904 -0.24002817 -0.3601079
-0.25725353 0.075199425 0.11350735 -0.31120032 0.017987102 0.14768994 -0.108357355 -0.025046423
0.13309504 0.1504281 0.3671042 -0.14698848 0.23377776 -0.32915738 -0.331366 0.2849256
-0.34827566 0.027212044 0.38744116 0.2341455 0.19968493 -0.17965083 -0.3790602 -0.28933343
0.36691606 -0.031680644 0.100665584 -0.30241263 -0.2145804 -0.05659441 0.3665188 -0.13950874
0.15617639 -0.008614093 0.5245109 -0.061710864 0.4331503 0.15143414 -0.06695655 -0.13914655
-0.14017293 -0.1222481 0.5655833 0.20755355 -0.14856142 -0.1258932 -0.25182873 0.007923536
0.08438379 0.07982342 -0.044050273 0.48317242 -0.11356028 -0.24162945 -0.14898577 0.14286865
-0.3816635 0.18973054 -0.17002614 -0.12843028 -0.035590388 0.3714195 0.66602105 0.2941709
0.028013222 0.55401164 -0.16317086 0.24811071 -0.014176206 -0.0076268436 -0.15192492 0.2981782
-0.19558866 0.2000445 -0.13767044 0.17879769 0.912133 0.14966497 -0.51074183 0.101774335
0.5952203 0.10769289 0.23662798 -0.19995725 0.1135123 -0.43164453 -0.13512212 0.110046685
-0.26784247 -0.19398779 -0.016943522 -0.0637022 -0.38155222 0.15064925 0.5043617 0.26349214
0.04163756 0.12061553 0.5761815 -0.027978867 0.17193072 0.09218298 0.41187033 -0.42578313
-0.058719736 0.21146804 0.0723676 -0.3938585 -0.018411685 -0.06269929 0.26586843 0.54062784
-0.2343093 -0.0032481884 -0.16205902 0.25762734 -0.08449383 -0.16218436 0.08610709 -0.18693745
0.66719794 -0.15093362 0.12362699 -0.09668663 -0.050458807 0.3160048 0.15590373 -0.27169314
-0.212515 0.61349714 0.5543435 0.048652347 0.19911729 -0.0090502985 -0.13656946 0.040708926
0.043967746 0.010838413 -0.072616786 0.027096862 0.15691182 0.40403986 -0.2861213 0.20287707
-0.05959034 0.21427403 -0.42390367 0.38064235 -0.092053585 -0.27554226 0.050362222 -0.71431863
-0.14736283 0.033259317 -0.06295401 0.22396855 -0.4795299 -0.75745255 0.3006869 -0.4821047
0.16286235 -0.1390321 0.39606985 0.29006824 0.14316607 0.16106305 0.23253444 -0.31140786
0.53757864 -0.29862022 0.35729975 0.15835513 -0.12067894 0.3181139 0.3920181 0.006641215
0.10233542 -0.24557534 -0.0035367508 0.1871253 -0.55841595 -0.45454916 -0.11111591 -0.03267159
0.32841778 0.5441142 0.044200514 -0.02364147 -0.157712 0.3300364 -0.12036308 -0.12139799
0.30735806 -0.21552444 0.25774437 -0.41496757 0.47438234 0.39593145 0.28500065 0.10392655
-0.47223926 -0.08977149 -0.04190516 -0.19717121 -0.20981656 -0.074575424 0.3624613 -0.022903867
0.077038124 0.6056526 0.18311974 0.1485982 -0.28590307 -0.07014138 -0.31903088 -0.4455661

transformer_encoder.layers.0.linear1.bias f4 [16]
00000000: 548f 5ebe adeb 823d 4fdb 25bd 0281 9ebe
00000010: 2346 f9be 537e d8be 17b0 77be 4f3d 1cbe
00000020: ae88 87be 2a72 2ebe 2e52 d2bd a696 e1bd
00000030: f28f 40bd 79af 0ebe e129 74be b140 c5be
-0.21734363 0.06392608 -0.040492352 -0.309578 -0.48686323 -0.42283878 -0.24188267 -0.15257762
-0.26471466 -0.17035738 -0.10269581 -0.11015062 -0.047012277 -0.13934125 -0.238441 -0.38525918

transformer_encoder.layers.0.linear2.weight f4 [24, 16]
00000000: d8ca 7e3b 6661 583e b3df 353e 0ffa 3d3e
00000010: 93a9 353f b750 8dbe 1212 5cbe ba1a 7e3e
00000020: 3662 bf3e 6630 20be 3e4f d43e 9243 e3be
00000030: ad9d c83c efd4 00be b0ed 91be 2756 60be
00000040: f377 32be a97f c7bb 5f92 e1bc 14e8 b4bd
00000050: b560 963e e9a5 d43c 1f52 b83e 2f74 5e3e
00000060: 1437 5e3d d026 833e 1b08 1f3d 4387 e5bc
00000070: a4cd 37be abf6 35be 10fc 22be 4ce6 6ebd
00000080: e2ea 853e 9b0a 41be 3c56 703e 2031 b6bd
00000090: c61c cf3e 7d4a a83d eb41 3c3c 85e5 01bc
000000a0: 7b6f 753e 4928 7bbc fa0d 713e 4f0e 0cbe
000000b0: 9950 d6bd 846c 62be f0fc 983e da19 843d
000000c0: 57da 87be 6b7f 29be 6db0 013f 0824 353d
000000d0: 2941 c73e f608 ab3e 8438 733e b67a 92bc
000000e0: 2101 ebbe 037b dc3d ab1e 76be f2d3 3ebe
000000f0: 50f1 fa3e c399 b33e 7d04 44be e7c9 f03d
00000100: b0d8 b8bd f97c e8bd 948a a9bd 0766 46be
00000110: da8a 653d 4122 313d e6a8 053c e842 1fbf
00000120: 3239 ecbb 9327 57be 729b 473e 735f 30be
00000130: dc86 513e 9ed6 bdbe acdb b83e 774c 563e
00000140: 6e85 093d 99a5 573e aaad 20be 9b21 fa3d
00000150: f8b1 183e 2aea 2d3d 8f1a 293e d980 343d
00000160: 73b8 413f 8cac 77be 2c05 10be ae88 bbbd
00000170: c1dd 3dbe e130 21bf 8ddc 9abe 12b3 79bd
00000180: 286b 833d bd18 aebc 0f99 1c3f bd97 a1bd
00000190: f979 83bc fa65 0dbc 5fc4 08bf 198d 98be
000001a0: 1159 a9be 4778 453e 9a03 c0be acd9 03be
000001b0: 9eec c03d 75be 14bc 7c24 763e 216b 9cbe
000001c0: 8f81 b7be b364 103d c978 963c d6ba e4be
000001d0: 1be8 b2bd a238 ebbe 7df9 823d 4b07 dcbd
000001e0: d6ff e33e 4cd6 c2bd 3970 dabd 19c2 1cbd
000001f0: 15f3 893e d607 fd3e 15d8 cb3e 726e c43d
00000200: 9d0f 0c3f bacd c7bd e702 3b3d 1df9 e5bb
00000210: 84f4 25bf bebd e13d 05de 063e 74fb 213e
00000220: 584b 0cbe 241a d1bd 14aa 5bbe c3bc b23e
00000230: 848b 05be 3e39 503e ac02 573e 490c b5be
00000240: 84d2 46be 0823 143d e259 9f3d 6f28 c4bc
00000250: 89dc 96be f054 1a3f 1b36 6fbe caf4 b33e
00000260: 7d9c 813e 41e2 b9bd a1ae 4cbe 1140 cbbe
00000270: 60a0 aa3e dc08 833e e42f 1abd 0d1b 9b3c
00000280: ceda 9abe 9fc7 c33c 24ed 95bd 9b12 3bbc
00000290: 6c0a 193f c86e 7e3e 71ef a43d 96ef 32bd
000002a0: 6fa5 943d 24ef b33e 80e4 b23d f283 4b3d
000002b0: bf90 98bd 9a6f 333e 20bb 5a3e 85d3 883e
000002c0: a7a3 11be 9e2a f13b 42e8 003e 364e d2be
000002d0: b2c9 85be b0bd b33e 2c4d 4b3e 9c7d 05be
000002e0: cd09 563e 7819 573e 7b25 143d 4a03 20bf
000002f0: 9214 c0bc 7c7a dbbd fc02 003f fde5 9f3e
00000300: be34 af3d dc7c febe e0b3 a0ba c43c 823d
00000310: e33e 2abd ac3b 353f c0ab d33d b6f5 87bd
00000320: 2bb2 16bf 9bd3 d83e a3cf ba3e b5d5 e93c
00000330: 80ef 4e3e 906d 3cbe 2c5b a9be c61c 823e
00000340: cf95 1bbf 2a36 e0bd 2b9f 60be 97bc 953e
00000350: 0b1c edbd 64a9 5bbd 05e4 ce3d 1d7f 20be
00000360: b635 62be 48c2 43be c390 253c fb03 01be
00000370: d731 8a3e 185f 203e 7f82 a0bd 971f 0fbf
00000380: 44cd 693e 6991 febd eafe 473d 427a b73e
00000390: b034 40be 5487 2cbf 9d18 5bbe 6793 633e
000003a0: 5e26 09be 4dd0 c3bd 45cc de3e 5b69 babd
000003b0: 92bf bebe 641f 31bd 501c 05be 37e6 f93e
000003c0: 1614 0c3e 4b96 a43d 3587 35be 7973 963e
000003d0: 316e 22bf 777a 92be 04a9 b83e 88d7 d63c
000003e0: 5eb0 b5be d2a0 d73e c1d4 f03e 6ca1 0cbe
000003f0: de1f 9bbe 1076 c03e ef89 a13d f6ad a5be
0.0038878229 0.21130905 0.17761116 0.18552421 0.70961875 -0.27600643 -0.21491268 0.24814883
0.37379616 -0.15643463 0.41466707 -0.4438749 0.024489248 -0.12581228 -0.28501654 -0.21907865
-0.1742857 -0.0060882163 -0.027535615 -0.08833328 0.29370657 0.025958018 0.36000153 0.21724008
0.054251745 0.2561555 0.03882609 -0.0280186 -0.1794954 -0.17769878 -0.15916467 -0.058325097
0.26155764 -0.18851702 0.23470396 -0.088960886 0.4045164 0.082173325 0.011490325 -0.007928257
0.23968308 -0.015329429 0.23540488 -0.13677333 -0.104645915 -0.22111708 0.29880476 0.06450243
-0.26533768 -0.16552512 0.5065983 0.044223815 0.389169 0.33405274 0.23752028 -0.017880779
-0.458993 0.1076565 -0.24035136 -0.18635538 0.49012232 0.35078248 -0.19142337 0.1175726
-0.09025705 -0.11351962 -0.08278385 -0.19374858 0.056040622 0.043245558 0.008157944 -0.62211466
-0.0072089667 -0.2101119 0.19492891 -0.17223911 0.20461601 -0.37077802 0.36105096 0.20927607
0.033574514 0.21059264 -0.15691248 0.12213441 0.1491164 0.042459644 0.16514038 0.04406819
0.7567207 -0.24186915 -0.14064473 -0.09156929 -0.18541624 -0.6296521 -0.30246392 -0.06096179
0.06416923 -0.02125203 0.6117105 -0.0789027 -0.016049372 -0.00863027 -0.5342464 -0.2979515
-0.33075765 0.19284163 -0.37502748 -0.12876004 0.09420131 -0.009078612 0.24037355 -0.30550483
-0.35841033 0.035252284 0.018368142 -0.44673795 -0.08735677 -0.45941645 0.06395242 -0.107435785
0.44531125 -0.0951353 -0.10665936 -0.038271043 0.2694327 0.4942004 0.39813295 0.09591378
0.54711324 -0.09756036 0.045657065 -0.007018222 -0.64826226 0.110225186 0.13170631 0.15818578
-0.13700616 -0.10210064 -0.21451598 0.3490964 -0.13041502 0.20334336 0.20997113 -0.35360935
-0.19416243 0.03616622 0.07780816 -0.023945061 -0.2946513 0.60285854 -0.23360483 0.35147697
0.25314704 -0.09076358 -0.1998849 -0.39697316 0.3332548 0.25592697 -0.03764333 0.018933797
-0.3024506 0.023898898 -0.073206216 -0.01141801 0.5978153 0.24846947 0.08053482 -0.04368552
0.072581165 0.35143387 0.08734989 0.04968638 -0.07449483 0.17523041 0.21360445 0.26723877
-0.14222585 0.0073598167 0.125886 -0.41075295 -0.26130444 0.35105658 0.19853657 -0.13036197
0.20902176 0.2100581 0.036168557 -0.6250502 -0.023447309 -0.107167214 0.50004554 0.31230155
0.08554982 -0.49704635 -0.0012260638 0.063592464 -0.04156388 0.7079418 0.10335493 -0.066386625
-0.5886561 0.42348942 0.3648654 0.028544286 0.2020855 -0.1840117 -0.3307737 0.25412577
-0.60775465 -0.10947831 -0.21935718 0.29245445 -0.115776144 -0.05362834 0.10102085 -0.1567349
-0.22090802 -0.19117081 0.010105315 -0.12599175 0.2699115 0.15661275 -0.0783739 -0.5590758
0.22832209 -0.124300785 0.04882709 0.35835463 -0.18770099 -0.67393994 -0.21396108 0.22224198
-0.13393542 -0.095612146 0.4351522 -0.09102126 -0.37255532 -0.043242827 -0.12999082 0.48808452
0.13679537 0.080364786 -0.17727359 0.29384974 -0.6344939 -0.28609058 0.3606645 0.02622582
-0.3548612 0.42114884 0.47037318 -0.13733453 -0.3029775 0.37590075 0.07887637 -0.32359284

transformer_encoder.layers.0.linear2.bias f4 [24]
00000000: d06b b13d 337d 6e3d ba7a 52be c290 02be
00000010: 26e8 18bd e7c0 bfbd b73c 3a3b 75fa 373d
00000020: 0b2e fcbd 9dfb 923d 1244 35bd 55bd 39bd
00000030: 944f 01be c949 2d3e f6f3 79bb d955 d1bc
00000040: 7720 283e a04b 373c f6ef 413e 8f50 c8bc
00000050: 0935 b3bd eb7c 8f3d 39af 4e3e 7abb 2bbe
0.08663142 0.058224868 -0.20554629 -0.12750533 -0.03733077 -0.09362965 0.0028417537 0.04491659
-0.123134695 0.07176898 -0.04425437 -0.045346577 -0.12628013 0.16922678 -0.0038139797 -0.02555363
0.16418634 0.011187464 0.18939194 -0.024452476 -0.0875035 0.07006248 0.2018403 -0.16770735

transformer_encoder.layers.0.norm1.weight f4 [24]
00000000: cf7f 043f 1d4e c93e 3ee3 643e b077 203f
00000010: 5304 113f e029 b43e 6010 123e bc6f 4a3f
00000020: bcd7 023f 5d8d ed3e f763 0e3f e52e 9a3e
00000030: 4344 373f e542 bc3e a273 eb3e bb9a 743e
00000040: 4cd0 e23e d635 f73e bae0 0d3f cc14 843e
00000050: bf85 9e3e e06d ad3e cf73 453e b698 af3e
0.5175752 0.39317408 0.22352311 0.6268263 0.56647223 0.35188198 0.14264059 0.79076743
0.51110435 0.46396914 0.55621284 0.30113903 0.71588534 0.36769786 0.45986658 0.2388715
0.44299543 0.4828326 0.5542103 0.25797117 0.30961415 0.3387289 0.19282459 0.34296197

transformer_encoder.layers.0.norm1.bias f4 [24]
00000000: a9fc ac3c 74ed 80be c61c d1bd 3eb9 843e
00000010: 6065 58be ce16 71bc 6559 45bd bba2 09be
00000020: 4725 023e 5c83 353d 753b 9c3d 348c 62bc
00000030: 5393 433c eca0 9d3c 9583 11be c3fc afbd
00000040: 7ad1 bcbb 56f7 94be d532 51bd 6942 52be
00000050: 9d2b eebd e9a3 3ebd bba7 2c3c 5ce2 0f3e
0.021116572 -0.25181162 -0.10210566 0.2592258 -0.21132421 -0.01471491 -0.048180956 -0.13440983
0.12709533 0.044314727 0.07628528 -0.013827372 0.01193698 0.019241773 -0.14210351 -0.08593132
-0.0057622762 -0.29094952 -0.051073868 -0.20533146 -0.11629412 -0.046543036 0.010538037 0.14051193

transformer_encoder.layers.0.norm2.weight f4 [24]
00000000: f2d2 af3f f7fb 133f c9eb 9c3f 9c8a a33f
00000010: f66d 703f 1244 6d3f e284 b93f f034 9d3f
00000020: c4dd b43f 09de 633f 6662 963f 46ee e03f
00000030: debd c83f 5d7b e93f 0255 d93f 439b b63f
00000040: 9477 ec3f bd87 ab3f d5c3 c63f a2fc c83f
00000050: d79b e53f 3614 723f 2522 d43f e082 ce3f
1.373625 0.5780634 1.2259456 1.2776675 0.9391779 0.9268199 1.4493678 1.228178
1.4130177 0.89010674 1.1748779 1.7572715 1.5682943 1.8240772 1.6979067 1.4266132
1.8473992 1.3400799 1.5528513 1.5702097 1.7938184 0.9456209 1.657292 1.613369

transformer_encoder.layers.0.norm2.bias f4 [24]
00000000: d833 aebc b3f7 46bc a9aa 35be d5ed b2bd
00000010: 9cdb 5c3e d399 27bd f7a2 ee3d 3276 d23d
00000020: b018 67bd fd5d 543e 4694 16be 78bd 013e
00000030: b660 16be cd02 493d 2139 e23c dcbe c5bd
00000040: 60b9 ef3c 50b1 a03e ab30 933d 5f79 70bd
00000050: 56ab 973d 2670 dfbd 8911 f93c 6cba 953c
-0.021264955 -0.012144017 -0.17740883 -0.08736769 0.2156815 -0.040918183 0.11652177 0.1027645
-0.05642003 0.20738979 -0.14705 0.12669933 -0.1468533 0.049074937 0.027615132 -0.09655544
0.029263198 0.3138528 0.07187017 -0.0587095 0.074057266 -0.109100625 0.03040387 0.01827737

MLP_encoder.weight f4 [8, 8]
00000000: 3a60 862e 3fa2 812c 0ce8 cf2e de24 8a2c
00000010: 5dc3 bcae dfef 422e 9160 27ae b14c 0a2e
00000020: 9d6f af2a 8588 762e fbff 91ae e46f bc2d
00000030: c0fa c12e b529 aa2d b19f 4e2d 837b 052e
00000040: f9d0 36ad 6b33 6dae 6b1d 0aae 8b70 b12e
00000050: 6cc6 192e ec58 472e e16a 7b2d 766e af2d
00000060: 8c36 8d2e 1b2b b2ad 5fc0 812e 62f5 882e
00000070: f4d5 1fae 407d 522d 73c6 be2d 2406 d3ae
00000080: 3955 992e daca d8ae 18d5 a92b 460d a9ac
00000090: 1c9c 10ae b886 872e 2c73 752e 0632 bfae
000000a0: 1a32 afae e0cd 89ae 0ed1 872e b1a0 84ae
000000b0: 3629 912d 0100 9eae e08d 8b2e fe39 442d
000000c0: e56f 8aad 5d4d ceae 96a0 9cae 5025 29ae
000000d0: fe4a 9fae 3c67 e12d 7f47 48ae c72d 3cae
000000e0: f26d 3e2e ce28 bdae bbbc 7cae 84b4 95ae
000000f0: ec77 25ad 785c b6ae 3772 be2d cee6 a12e
6.110708e-11 3.6844135e-12 9.45449e-11 3.926289e-12 -8.583954e-11 4.432354e-11 -3.8057172e-11 3.1445683e-11
3.1163692e-13 5.6055178e-11 -6.639308e-11 2.1422815e-11 8.821166e-11 1.9345284e-11 1.1745203e-11 3.03504e-11
-1.03919035e-11 -5.393323e-11 -3.1403696e-11 8.06902e-11 3.4964406e-11 4.532634e-11 1.429143e-11 1.9944251e-11
6.421627e-11 -2.02554e-11 5.900413e-11 6.228153e-11 -3.6342443e-11 1.1964929e-11 2.1688628e-11 -9.59626e-11
6.972773e-11 -9.8585765e-11 1.2067318e-12 -4.8047425e-12 -3.2880462e-11 6.16302e-11 5.5808844e-11 -8.6945603e-11
-7.9669785e-11 -6.2666095e-11 6.176225e-11 -6.0312096e-11 1.6502893e-11 -7.185009e-11 6.34619e-11 1.1154187e-11
-1.5738475e-11 -9.381538e-11 -7.1225845e-11 -3.845929e-11 -7.243804e-11 2.5625384e-11 -4.5538236e-11 -4.278691e-11
4.329865e-11 -8.601973e-11 -5.7465793e-11 -6.8078015e-11 -9.405792e-12 -8.2928275e-11 2.165122e-11 7.3624315e-11

MLP_encoder.bias f4 [8]
00000000: 49ca 4fbe fb91 12be eab3 d7bc 4cad 093e
00000010: 66ce b33d 6a3e 9fbe edcf 863e 7400 313e
-0.2029201 -0.143135 -0.026330907 0.13445014 0.08779602 -0.31102306 0.2633051 0.17285329

mlp.0.weight f4 [24, 24]
00000000: d3fc 0f3e bd41 14bd d2e1 273f c31c 71be
00000010: a580 bfbd ea10 81be 3a96 9bbe 13ad 343e
00000020: 4887 053f 4db9 2c3c c2ee ca3e dd2a a1be
00000030: 78ba b8be d1a2 dc3d 42ac 07bf 2942 a23e
00000040: 3f6c 223f 2559 edbe 9a18 86be 3e82 bebe
00000050: 911f a13e 7089 be3d 41b7 4cbe 9f12 71bd
00000060: e7e7 84be 2729 9e3d 4d47 eabd c30d dcbd
00000070: ffdb 08bf 5e2b 98bd a43a 0bbf f0c9 233e
00000080: acf9 223f 582c 81bd 39fd 1bbe 5574 fc3c
00000090: 609e d3be b472 9b3e f225 14be 5592 d43e
000000a0: 556d a4be 1600 cd3d ac70 753d 4489 6a3e
000000b0: 0ec4 073e 56db 7dbd 958f 6b3f 7104 e1be
000000c0: fdd1 afbe c274 ba3e c71f 78be 75b1 3b3e
000000d0: 9a9d e53e 9a07 8dbe 1094 5c3e 3b49 7cbd
000000e0: 56cc 8bbf 6e54 cfbe 1ed9 4a3e b967 cfbd
000000f0: 3271 733e 90d6 e3bd 9855 56be 4344 14bf
00000100: a497 6e3d 5318 983e 876b 4a3f c796 173f
00000110: 2c59 54be 5f9b 7abe 2eea 183f 1377 31bf
00000120: 866e b3ba c9ed 9abe 1cd1 febd 020e fe3e
00000130: b34d 8b3d a5d8 58be 254e 89be cf6d cb3e
00000140: 6590 e8bd 366c c3be 7a43 ea3d 2981 00bf
00000150: 26f3 2a3f 2d66 17bf 91a6 a1bd 1277 99be
00000160: 649a 523d 3efc c8bd d926 cb3e cc45 c3be
00000170: 88a4 7b3e 876a c53d eadc 23bd 204e e03d
00000180: e9cd 9a3c 24df 0c3e 7a96 f73e b7e7 1cbf
00000190: 3a2e 4d3d 205a 42bd 9caa d2bd 900c 853e
000001a0: 48a8 99bd 45f9 20be bbb1 9e3e a8d1 70bd
000001b0: 981f 993e a22c 4bbf e171 d2be 3e0e 093e
000001c0: a024 5fbd 2255 623e c5b2 0bbf 9e68 fd3d
000001d0: eddc 163e 34b5 58bd dc38 ef3e 8536 73bd
000001e0: 8055 00bf f3d9 353d dfb0 11be 14fc 763d
000001f0: d249 96bd 80cb 61be d308 aa3e 3488 26bf
00000200: 61fa 38be ee47 d63d 4862 a73e d382 ae3c
00000210: 1247 a5be 973e ed3e 09ce cb3e da0f 9ebe
00000220: 4566 2dbf 45a4 2b3f ca41 66bd 920b 343e
00000230: 3a3f cc3e cc25 783f 646a 23bf 865e b13c
00000240: 1eb8 9abe fe5b 36be 69a2 88be c6bf 08be
00000250: 7f1a 443c a5f9 5d3e 41b4 36be d157 aebe
00000260: ba06 fe3d 47cf 443e 3e00 0cbe 2a00 5bbd
00000270: f5d7 c63d 4013 9ebe d96c 563f 01a0 5a3e
00000280: f326 24bf 13be 953e 7cba 1cbe 6282 3f3e
00000290: 3cf6 1e3f c433 87bc 800d 3bbe 05e3 e43e
000002a0: 8898 1b3d 778d 4e3e 8051 e03e 9c14 4f3d
000002b0: 6085 d53d 461a 1fbf 595d 25be deb5 8f3d
000002c0: fe75 9b3e 1ea9 a23e b7aa 923a 1193 8fbd
000002d0: e63a 76be b5fe 5f3e fba3 b5bb 6e60 863e
000002e0: 2196 1a3f 6e26 183f 0034 cfbe e591 30bd
000002f0: 2f92 10bf 20a4 e2be 7fed 24bf c699 96be
00000300: ecc7 543e c0b3 80be 301c ab3e 4946 453f
00000310: 0b3c c7be e81e e9be 7be6 ff3e c0ca 80be
00000320: 6e9d 903d fa16 983e eda6 233f 2dcb 6b3e
00000330: 9231 ae3e 4900 373c 2a0a 11bf 99c1 00be
00000340: 6d33 24be fc5b 3fbf 2c30 58be f72e 093f
00000350: e8d4 cebb 7d78 d3bd 34a2 e1be a34d 4cbd
00000360: d81a b83e 253f 513d 0b38 473d 8e46 dfbe
00000370: bffc 0e3e 9a8b 9cbe 095d 63be c154 4d3e
00000380: 61e2 79be 0c56 853d 3e81 d03d fc41 113f
00000390: f041 56bf f6e4 bc3e 317c 573d 85bc bc3e
000003a0: c95f 893e 0b93 63bd a39f a03e 23da 61be
000003b0: 0d77 efbd e0f0 f4be f923 8a3e da7a 13be
000003c0: be5d 303e 3ff1 ab3d 11f8 48be 6cbf a93e
000003d0: e3a4 b33d b99d 04bd f983 ae3e 853b 78be
000003e0: a902 873e e067 c6bd 9c27 cabe d265 14bf
000003f0: a6f9 103f e515 67bd bc3e 1f3e dd7c c03e
0.14061289 -0.036195505 0.6557895 -0.23546128 -0.09350709 -0.25208217 -0.3038805 0.17644148
0.5215955 0.010542226 0.39635283 -0.31478015 -0.36079764 0.10773242 -0.5299722 0.316911
0.6344642 -0.46357074 -0.26190645 -0.37208742 0.31469396 0.09303558 -0.19991781 -0.05885565
-0.25958177 0.07722693 -0.11439381 -0.10744812 -0.5346069 -0.07430147 -0.54386353 0.15995002
0.6366222 -0.06307286 -0.15233316 0.03081719 -0.41331768 0.3036095 -0.144676 0.41517892
-0.32114664 0.10009782 0.059921905 0.22903925 0.13258383 -0.061976753 0.92015964 -0.439487
-0.34339896 0.36417204 -0.24230872 0.18329413 0.44846803 -0.27544862 0.21540856 -0.061593276
-1.0921733 -0.40494102 0.19809386 -0.101272054 0.2377365 -0.11124909 -0.20931089 -0.5791666
0.058250085 0.29706058 0.79070324 0.5921444 -0.20737141 -0.24473332 0.5973233 -0.6932232
-0.0013689555 -0.3025954 -0.12442228 0.49620062 0.06801929 -0.21176393 -0.26817432 0.39732215
-0.11355666 -0.38168496 0.114386514 -0.5019708 0.66777265 -0.5914028 -0.07893098 -0.29973656
0.05141677 -0.098137364 0.39678076 -0.38139188 0.24574482 0.09639459 -0.040005602 0.10952401
0.018897014 0.13756996 0.48356992 -0.6129107 0.050092913 -0.04744923 -0.102864474 0.25986147
-0.075028 -0.15720089 0.30994973 -0.058793694 0.29906917 -0.7936498 -0.41102508 0.13384339
-0.054478288 0.22102788 -0.54569656 0.1237347 0.14732714 -0.052907184 0.46723068 -0.059378166
-0.5013046 0.044397306 -0.14227627 0.060298994 -0.07338299 -0.22050285 0.33209857 -0.6505158
-0.18064262 0.10462938 0.3269217 0.021302616 -0.32280785 0.46336815 0.3980563 -0.3087147
-0.67734176 0.6704753 -0.056215085 0.17582539 0.39891988 0.96932673 -0.63834214 0.021651518
-0.30218595 -0.1780853 -0.2668641 -0.13354406 0.011969208 0.21677263 -0.17842199 -0.34051374
0.12403627 0.19219695 -0.13671967 -0.053466953 0.09709159 -0.30874062 0.8375984 0.21350099
-0.6412193 0.29246578 -0.15305513 0.18702081 0.62094474 -0.016504176 -0.18266869 0.44704452
0.037987262 0.20171152 0.4381218 0.050556764 0.1042583 -0.62149465 -0.1614889 0.0701711
0.30363458 0.3176965 0.0011189793 -0.070104726 -0.24045905 0.21874507 -0.0055432296 0.26245445
0.6038533 0.5943364 -0.4046936 -0.043107886 -0.5647306 -0.44265842 -0.6442489 -0.29414195
0.20779389 -0.25137138 0.33419943 0.7706037 -0.38912997 -0.45531392 0.4998053 -0.25154686
0.07061277 0.2970503 0.63926584 0.23026724 0.34022194 0.011169502 -0.56656134 -0.12573852
-0.16035242 -0.7474973 -0.21112126 0.5358729 -0.0063120015 -0.10325716 -0.44069064 -0.049878728
0.3595798 0.05108561 0.04863743 -0.43608516 0.13963602 -0.30575258 -0.22203459 0.20051862
-0.24402763 0.06510553 0.10180901 0.5674131 -0.8369436 0.36893433 0.052608673 0.3686258
0.2683089 -0.055560153 0.31371793 -0.22055869 -0.11692629 -0.47840023 0.2698057 -0.14402333
0.1722326 0.083956234 -0.1962588 0.33153856 0.08771684 -0.03237698 0.34085062 -0.24241455
0.26369217 -0.09687781 -0.39483345 -0.57967865 0.56630933 -0.056417365 0.15551275 0.37595263

mlp.0.bias f4 [24]
00000000: f3ce 9ebe f326 50be 6324 03bf 0c4a a9bd
00000010: e86c 32bd 9b19 80bd 28d9 be3d 9e0d 273e
00000020: 9944 e4be 6708 153d b589 5f3e e057 893d
00000030: d2a4 33bf 86d2 a63d b383 473d ee2a ee3e
00000040: 0eaa e23e faf1 993e bb40 433e 8db6 6e3e
00000050: 054e 65be 85de bcbe 3406 99be 2b48 b4be
-0.31017265 -0.20327358 -0.51227397 -0.082660764 -0.043560892 -0.06254884 0.09318763 0.16313788
-0.44583586 0.036384966 0.21829875 0.06706214 -0.7017337 0.08145623 0.048709583 0.46517128
0.44270366 0.30067426 0.19067661 0.23311825 -0.22393043 -0.3688852 -0.29887545 -0.3521131

mlp.2.weight f4 [6, 24]
00000000: e521 2fbf ccd6 0dbd b9ca 963e cd92 0b3e
00000010: 9641 f5be f842 17be b471 f4be 1aa9 be3e
00000020: 0089 253f d649 4fbd c18b 0bbf eaee 2ebf
00000030: 2673 d0be 3728 b63e 0a52 c3bd f43f a03d
00000040: c975 2ebf 87fb 4a3e 0b6a 2abd 9021 cc3d
00000050: 6d81 7cbe e658 933e 10ca a7be 1fb0 393e
00000060: e51f d2bd 5f38 d5bd 6178 293e 1e7e debe
00000070: e6f0 2a3f 131f 083e dc06 a4be dff6 a8be
00000080: 1535 73bf b59f 1fbf 5e02 833d 33db a5be
00000090: c95e 65bf efbe 77be 4afa 1bbf 7a09 5b3f
000000a0: 7847 db3c afde 493e 9fdd 253f 4607 3a3f
000000b0: dab2 73bf f8a3 da3e 2c99 21bf 2082 0abf
000000c0: 8fc7 ec3e 7772 78bf 53ac 7c3f e470 ffbc
000000d0: d0fc a23e 6870 763f 3520 02bf 40f9 1bbf
000000e0: 119a d3be 828c 9d3d bfb8 4fbc af0b 583f
000000f0: d8ac ad3f ecaf f9be a55b d23e 75b4 64bf
00000100: acca 7ebe d4c3 1b3f eb15 15be dedf 11bf
00000110: db46 013f f659 083d e3e1 463f 2b00 9dbf
00000120: 8ac8 443f 0df1 f23e 3dfc afbf 923a 23bf
00000130: 3f9a 59be 5d14 733d 17d9 0dbd fdc8 70bd
00000140: 4e7b 24be 4e0f ebbe 1c72 6ebe c9cd 20bd
00000150: 6962 6ebf 48e2 453f e324 e3be babb 233d
00000160: facd 3c3f 7558 2dbf 4f00 5f3d 92e4 57bd
00000170: 3a53 f5be ce82 13be 73ad 57bf 75bd 553d
00000180: 1aca 19bf 270d b5be 280e d8be dec1 1f3f
00000190: d2fd 04bf ab76 4bbf f221 1a3f 66d6 0f3f
000001a0: e5b2 3ebe b4a0 1b3f da15 133f f71a a13e
000001b0: 5050 fc3e ae95 10bf 87a5 103f a167 34bf
000001c0: 52b7 8e3e 3b5a 0abf e54b 0cbe 0cc1 25bf
000001d0: 7702 453f 7cd8 b8bf 334d adbe 78fa 223f
000001e0: 63f9 663d 6df5 b83e e138 04be 73ec a83e
000001f0: 634a c33d 130a 49be 140e ad3e 54af 08be
00000200: 6c2f f53e dea8 8c3e 6ded 333d ef5b d6be
00000210: 9040 02be 60ee 35be 4625 e3be aa74 c23c
00000220: 886a 27be 5c0c c1bd 7b98 e8be 0794 273e
00000230: 5267 28be cfa5 e43e ae61 c43e 1bd3 aa3e
-0.68411094 -0.034628674 0.2945154 0.13630219 -0.479016 -0.1477164 -0.47743 0.3723839
0.6466217 -0.050607525 -0.5451012 -0.68333304 -0.4071285 0.35577556 -0.09537132 0.07824698
-0.68148476 0.19822513 -0.041605037 0.09967339 -0.24658747 0.28778762 -0.3277135 0.18133591
-0.1025999 -0.104111426 0.16549827 -0.43455595 0.6677383 0.13293104 -0.32036483 -0.33000848
-0.9500287 -0.6235307 0.06396936 -0.32393798 -0.89597756 -0.24193929 -0.60928786 0.85561335
0.026767477 0.19713853 0.6479129 0.7266735 -0.9519478 0.42703223 -0.63124347 -0.54104805
0.46246 -0.9704966 0.98700446 -0.03118176 0.31833506 0.9626527 -0.50830394 -0.609272
-0.4132848 0.07692815 -0.012678324 0.8439283 1.3568373 -0.4876703 0.41085544 -0.89337856
-0.24882 0.60845685 -0.14559142 -0.5698222 0.5049874 0.03328892 0.77688426 -1.2265676
0.768685 0.47449532 -1.3748852 -0.63761246 -0.21250246 0.05934559 -0.03463086 -0.058785427
-0.16062662 -0.45910114 -0.23285717 -0.039258752 -0.9311891 0.772984 -0.4436408 0.039973952
0.73751795 -0.677131 0.054443654 -0.052708216 -0.4791506 -0.14405367 -0.8424904 0.052182633
-0.6007401 -0.35361597 -0.421983 0.6240519 -0.519498 -0.7947795 0.60208046 0.5618652
-0.1862293 0.6079209 0.5745522 0.31465885 0.49280024 -0.56478393 0.56502575 -0.70470625
0.27874237 -0.5404393 -0.13700826 -0.6474769 0.76956886 -1.4441066 -0.3384796 0.63663435
0.056390177 0.36124745 -0.12912323 0.32992896 0.095356725 -0.1963275 0.33799803 -0.13348132
0.47887743 0.27472585 0.0439276 -0.41867015 -0.12719941 -0.17766714 -0.44364375 0.02373727
-0.16349232 -0.094261855 -0.45428833 0.16365062 -0.16445664 0.44657752 0.38355774 0.33364186

mlp.2.bias f4 [6]
00000000: f6a8 2e3f bbab 98be 6a9a 71be 6495 c83e
00000010: 239b 82be 86ee c4be
0.68226564 -0.2981852 -0.2359406 0.39176476 -0.25508985 -0.3846323
